models/LinearBaselineModel_OneHot/state_dict.pt (torch, 4339 bytes, 1 tensors)

TextModel.weight f4 [1, 808]
00000000: e0a0 a7c5 3c76 9345 3b1b 72c5 c6a6 b2c4
00000010: f19d 46c5 c5b0 64c6 65f0 94c5 5772 0c47
00000020: b3ed 11c7 5d25 53c7 9d7f e8c5 d2c6 0448
00000030: ffbc 50c7 4aef 72c7 f5d0 20c6 3587 9fc6
00000040: e1d0 f446 eeb5 91c6 1580 65c6 4821 1cc6
00000050: 630a 17c6 eab5 9dc3 225a 3ac6 ba8d 0dc6
00000060: e277 28c6 ec3a 81c5 ce6c a643 9f4b 5bc5
00000070: bd78 0dc6 8a51 0dc6 a880 97c5 9e3d 13c5
00000080: 92ee 8f45 ea0f 43c6 e152 93c6 0441 db45
00000090: b052 2845 ea88 0ac7 06aa 81c5 4bbd 0cc6
000000a0: a622 4cc5 3cd1 20c6 a31c 35c6 4640 9bc6
000000b0: c2f3 94c6 5768 a8c4 f56f a0c6 3b81 10c6
000000c0: c966 1ec6 7cb0 4dc5 7647 1dc6 4c36 2fc6
000000d0: c659 ddc5 ab2e 69c5 d37f 2ac6 3ad6 8b46
000000e0: e920 13c6 b333 fdc5 e2f2 3e47 2172 6ec6
000000f0: bbe6 20c6 d2c8 15c6 eb07 cec6 7b5a e646
00000100: 2f0d 1146 070b 6947 efea cec5 ccb5 32c6
00000110: bac1 acc5 1dac 63c6 77ff 2c47 5d76 a945
00000120: 412b 86c6 366d afc4 3f8c fcc6 c4ef cec5
00000130: 16eb d7c6 b5be 44c5 8fa5 a3c6 6386 43c6
00000140: 210b f745 3dc1 aac6 4368 46c5 5359 e6c6
00000150: bf3f 0046 111e 36c5 e9b5 68c6 5005 3346
00000160: b336 90c6 5064 a0c5 e358 70c3 8a68 e4c5
00000170: 1d5e dec6 daf9 5845 8b15 4a46 6849 6fc6
00000180: 1d99 4847 a972 0e46 bdf1 c246 0f06 99c5
00000190: 3cb4 e8c5 8229 60c6 5365 ffc4 3d00 3fc6
000001a0: d0e7 7bc5 51f3 4746 854b a646 7c3a 5146
000001b0: 69aa 5946 7149 54c6 cbcd d9c4 429e d446
000001c0: f1ed 5ac6 b20e 0947 03e9 8144 c608 3a46
000001d0: 0f02 4b46 e6ef 7b45 a3cf ec46 d5da 3646
000001e0: 1235 2547 c11a 4f47 b4e2 82c6 d315 71c6
000001f0: cdeb 14c5 1e49 9c46 28d3 2ac6 5978 8247
00000200: 8a72 83c6 9be8 f246 cf81 a445 ce2d 92c6
00000210: fb46 1f46 5bd8 05c4 4ad0 4046 cae0 4845
00000220: a68d 8146 ea6a 1bc4 402f 4947 f9b3 1445
00000230: 1eb0 6f47 a144 4547 31b1 2d47 23ed 3046
00000240: b1d8 7247 d94e 0f47 b97f ea45 c771 07c6
00000250: 523d 1fc6 8f29 2f44 0a09 01c6 1e94 01c6
00000260: c6a2 8ac5 b48c 0ec5 fa17 0945 1d25 21c6
00000270: 1c94 16c5 83e6 b5c5 ee9d b0c5 f532 1dc6
00000280: 8dfe 19c6 3e2f c8c5 2cd8 2b44 ccc1 f7c5
00000290: 9206 ee45 1b87 23c6 5f2f 6bc5 6d86 2c45
000002a0: a618 8ec6 94b1 f2c2 240f ae44 c78e 3cc4
000002b0: c255 4e45 6323 57c6 6f2f 61c5 4335 15c5
000002c0: 5b4d 77c6 2561 ee44 bb94 a644 b4f3 2dc6
000002d0: 726c a146 b90d 31c6 30ab d5c5 9430 a645
000002e0: bf38 bec5 1363 a7c5 d7fa 28c6 58fc d7c4
000002f0: 0401 89c4 7224 19c6 43d5 6ec6 1d0f ba45
00000300: 9930 7644 56b7 94c6 d3a4 91c6 ddf7 efc5
00000310: 76b3 70c6 e303 d5c5 ad19 35c6 87d1 34c6
00000320: 2f7f 97c6 77d5 81c6 486c 69c6 4f33 61c6
00000330: 17e8 82c6 e682 9543 1d9c a145 1c26 2ec6
00000340: 8954 25c4 16ca 90c5 4a6b 6fc6 d8b0 b3c5
00000350: acaa bfc5 8afa a6c5 06a0 10c6 7924 24c6
00000360: f2a7 ccc5 9929 33c6 cfd3 78c5 bda5 eec5
00000370: dc12 8044 38ea 5dc4 69c2 13c6 22b2 5b43
00000380: 0486 4dc6 b7dd 05c5 e8c0 88c6 3145 f4c4
00000390: 4285 8ac5 b10b b9c4 364c 57c5 facd 88c5
000003a0: cc80 93c6 b291 3ec6 8162 87c6 9231 acc5
000003b0: 3453 dfc5 ebb3 13c6 b326 86c5 11bd 76c6
000003c0: 9eba 83c5 1134 52c5 ba3b 3ec5 3fae 82c5
000003d0: 0434 89c6 abfc 69c5 8702 62c5 60fc 4044
000003e0: 8ef5 e2c5 fd7e bdc5 b289 9bc5 a57c 86c5
000003f0: 097a bcc5 9d90 22c6 4ca1 4bc6 8c80 90c5
-5364.1094 4718.7793 -3873.702 -1429.2117 -3177.8713 -14636.192 -4766.0493 35954.34
-37357.7 -54053.363 -7439.9517 135963.28 -53436.996 -62191.29 -10292.239 -20419.604
31336.44 -18650.965 -14688.0205 -9992.32 -9666.597 -315.4212 -11926.533 -9059.432
-10781.971 -4135.365 332.85004 -3508.7263 -9054.185 -9044.385 -4848.082 -2355.851
4605.8213 -12483.979 -18857.44 7016.127 2693.168 -35464.914 -4149.253 -9007.323
-3266.1655 -10292.309 -11591.159 -19872.137 -19065.879 -1347.2606 -20535.979 -9248.308
-10137.696 -3291.0303 -10065.865 -11213.574 -7083.2217 -3730.9167 -10911.956 17899.113
-9416.228 -8102.4624 48882.883 -15260.532 -10297.683 -9586.205 -26371.959 29485.24
9283.296 59659.027 -6621.3667 -11437.449 -5528.216 -14571.028 44287.465 5422.7954
-17173.627 -1403.4128 -32326.123 -6621.9707 -27637.543 -3147.9192 -20946.78 -12513.597
7905.391 -21856.62 -3174.5164 -29484.662 8207.937 -2913.8792 -14893.478 11457.328
-18459.35 -5132.539 -240.34721 -7309.0674 -28463.057 3471.6157 12933.386 -15314.352
51353.113 9116.665 24952.87 -4896.7573 -7446.5293 -14346.377 -2043.1664 -12224.06
-4030.4883 12796.829 21285.76 13390.621 13930.603 -13586.36 -1742.431 27215.129
-14011.485 35086.695 1039.2816 11906.193 12992.515 4030.9937 30311.818 11702.708
42293.07 53018.754 -16753.352 -15429.456 -2382.7375 20004.559 -10932.789 66800.695
-16825.27 31092.303 5264.226 -18710.902 10193.745 -535.38055 12340.072 3214.0493
16582.824 -621.67053 51503.25 2379.2483 61360.117 50500.63 44465.19 11323.284
62168.69 36686.848 7503.9653 -8668.444 -10191.33 700.64935 -8258.26 -8293.029
-4436.3467 -2280.794 2193.4985 -10313.278 -2409.2568 -5820.814 -5651.741 -10060.739
-9855.638 -6405.9053 687.3777 -7928.2246 7616.8213 -10465.776 -3762.9607 2760.4016
-18188.324 -121.34683 1392.4731 -754.2309 3301.3599 -13768.847 -3602.9646 -2387.3289
-15827.339 1907.0358 1332.6478 -11132.926 20662.223 -11331.431 -6837.3984 5318.0723
-6087.0933 -5356.3843 -10814.71 -1727.8857 -1096.0317 -9801.111 -15285.315 5953.889
984.75934 -19035.668 -18642.412 -7678.983 -15404.865 -6816.486 -11590.419 -11572.382
-19391.592 -16618.732 -14939.07 -14412.827 -16756.045 299.02264 5171.514 -11145.527
-661.32086 -4633.2607 -15322.822 -5750.1055 -6133.334 -5343.3174 -9256.006 -10505.118
-6548.993 -11466.399 -3981.238 -7636.7173 1024.5894 -887.65967 -9456.603 219.69583
-13153.504 -2141.8572 -17504.453 -1954.1622 -4432.657 -1480.3654 -3444.7632 -4377.747
-18880.398 -12196.424 -17329.252 -5510.1963 -7146.4004 -9452.9795 -4292.8374 -15791.267
-4215.327 -3363.2542 -3043.733 -4181.781 -17562.008 -3743.7917 -3616.158 771.94336
-7262.6943 -6063.8735 -4977.212 -4303.5806 -6031.2544 -10404.153 -13032.324 -4624.0684
