models/LinearBaselineModel/state_dict.pt (torch, 1203 bytes, 1 tensors)

TextModel.weight f4 [1, 25]
0	0xc542d2f0	-3117.1836
1	0x481d8f31	161340.77
2	0x476993af	59795.684
3	0x475071f3	53361.95
4	0x466a15b9	14981.431
5	0xc7ee74b3	-122089.4
6	0x47ebd005	120736.04
7	0x4919e25f	630309.94
8	0x47fed3d5	130471.664
9	0xc3bd08aa	-378.0677
10	0xc620831e	-10272.779
11	0x4663b6d4	14573.707
12	0xc5fedb85	-8155.44
13	0x45e72d5d	7397.6704
14	0xc6c4006a	-25088.207
15	0xc7b51cea	-92729.83
16	0xc71eb179	-40625.473
17	0x47dd81b5	113411.414
18	0xc4be7280	-1523.5781
19	0xc6154a5f	-9554.593
20	0x45a93b1b	5415.388
21	0xc69da5c7	-20178.889
22	0x4685cda2	17126.816
23	0x47de07db	113679.71
24	0x468db7f9	18139.986
