models/LinearModel_OneHot/state_dict.pt (torch, 4339 bytes, 1 tensors)

TextModel.weight f4 [1, 803]
-16226.732 7792.511 -13993.863 -4720.006 9349.728 34432.63 -4501.8813 33083.73
-41631.688 -54899.625 -7430.4263 161330.05 -62352.754 -85745.45 -16181.507 -19537.557
37697.605 -29733.39 -8832.3125 -12281.101 -11225.075 -250.73955 -15238.665 -11693.06
-17013.816 -10622.728 1696.8063 -6423.7866 -10136.793 -10452.875 -5165.7266 -2490.5396
2111.0085 -19786.86 -25393.592 21126.89 3558.2878 -38476.51 -2650.0317 -6362.2104
-638.3763 -988.28687 -8899.871 -21420.287 -23437.307 342.92123 -23720.521 -14077.613
-8519.996 3526.5432 -23013.518 -11409.129 -13864.847 -18302.973 -10565.549 21969.55
-18781.938 1818.0096 68191.08 -14487.5625 -15041.946 -17559.236 -31271.893 32550.244
18712.383 73390.48 -6843.114 -10471.364 -2151.426 -22386.08 60746.973 16909.508
-11324.95 -7984.5996 -48138.207 -5635.4253 -36116.297 -3288.3345 -22736.861 -8090.248
13708.611 -31060.602 -5020.9087 -48133.21 -1243.2653 2398.4004 -16968.041 11997.42
-19061.582 -5381.363 -512.6414 -10360.353 -42309.004 9579.338 12384.206 -15211.158
67442.89 9489.832 35025.973 -9031.43 -13182.849 -12628.825 -2470.4233 -19579.951
-2243.1716 17840.824 38486.56 25069.557 18143.041 -23355.965 791.8058 36837.395
-31296.08 29703.125 8945.073 14053.577 23563.477 22319.562 33610.797 12098.731
50407.867 68861.66 -13820.226 -19457.736 13439.438 27443.02 -16295.922 90601.23
-16057.195 30881.371 -19880.084 -22044.91 13708.306 5851.8467 24130.035 12066.513
20443.398 377.07574 49368.984 -2992.4546 90438.41 53745.832 20581.816 13613.818
99528.63 24457.984 5312.0215 1672.9691 -18006.062 3266.0967 -10791.772 -8163.2686
-14424.578 1458.9725 1143.1266 -20872.004 -5510.286 -708.0301 -11907.08 -15628.457
-14446.591 -9305.994 448.5159 -5411.8647 -6398.087 -14235.779 -7072.467 5388.948
-18207.576 7049.2593 10245.416 2294.5532 12179.916 -14569.086 -7659.471 1737.8728
-23940.596 -528.1406 1127.1752 -8491.828 22218.945 -14184.077 -10279.781 -53.464252
-10972.023 4321.8975 -11717.91 -2700.4707 6602.4355 -13949.796 -25757.318 4189.103
16166.733 -26391.98 -26392.422 -1466.4562 -23645.365 -7158.8457 -12914.5625 -16774.514
-27519.58 -27366.236 -21357.645 -21056.002 -24526.635 7535.26 -1318.7596 -26156.078
10106.833 -8993.252 -21490.281 -8293.719 -5956.0166 -6924.376 -12646.1875 -12203.752
-5410.292 -15457.97 -5728.6377 -10949.932 -1085.6235 -1713.8617 -15904.073 -1171.2339
-11217.752 -5261.2383 -21471.377 -1858.6392 -2226.4294 -5995.6704 -849.8973 -5770.757
-26542.61 -17249.672 -23609.193 -526.8779 -8469.856 -11521.473 -5794.162 -13583.513
-6062.752 -5043.396 -4762.3247 -3851.2483 -20938.959 -7460.2314 -5634.713 1178.118
-11342.459 -9170.472 -6383.0547 -6669.1133 -7922.594 -17213.71 -16744.959 -6806.029
00000000: ee8a 7dc6 1784 f345 74a7 5ac6 0c80 93c5
00000010: e916 1246 a180 0647 0daf 8cc5 bb3b 0147
00000020: b09f 22c7 a073 56c7 6933 e8c5 838c 1d48
00000030: c190 73c7 ba78 a7c7 07d6 7cc6 1da3 98c6
00000040: 9b41 1347 c84a e8c6 4001 0ac6 67e4 3fc6
00000050: 4d64 2fc6 53bd 7ac3 a91a 6ec6 3db4 36c6
00000060: a2eb 84c6 e9fa 25c6 cd19 d444 4bbe c8c5
00000070: 2c63 1ec6 8053 23c6 d06d a1c5 a2a8 1bc5
00000080: 23f0 0345 b895 9ac6 2f63 c6c6 c80d a546
00000090: 9b64 5e45 834c 16c7 82a0 25c5 afd1 c6c5
000000a0: 1598 1fc4 5c12 77c4 7c0f 0bc6 9358 a7c6
000000b0: 9d1a b7c6 eb75 ab43 0b51 b9c6 74f6 5bc6
000000c0: fc1f 05c6 b168 5c45 09cb b3c6 8444 32c6
000000d0: 63a3 58c6 f2fd 8ec6 3216 25c6 1aa3 ab46
000000e0: e0bb 92c6 4f40 e344 8a2f 8547 405e 62c6
000000f0: c907 6bc6 792e 89c6 c94f f4c6 7d4c fe46
00000100: c430 9246 3d57 8f47 e9d8 d5c5 759d 23c6
00000110: d176 06c5 29e4 aec6 f94a 6d47 041b 8446
00000120: cdf3 30c6 cc84 f9c5 350a 3cc7 671b b0c5
00000130: 4c14 0dc7 5a85 4dc5 b9a1 b1c6 fcd1 fcc5
00000140: 7232 5646 34a9 f2c6 45e7 9cc5 3605 3cc7
00000150: 7d68 9bc4 68e6 1545 1590 84c6 ae75 3b46
00000160: 2aeb 94c6 e72a a8c5 0d29 00c4 69e1 21c6
00000170: 0145 25c7 5aad 1546 d380 4146 a2ac 6dc6
00000180: 72b9 8347 5447 1446 f9d1 0847 b81d 0dc6
00000190: 65fb 4dc6 4d53 45c6 c666 1ac5 e7f7 98c6
000001a0: bf32 0cc5 a661 8b46 8f56 1647 1ddb c346
000001b0: 15be 8d46 ee77 b6c6 92f3 4544 65e5 0f47
000001c0: 2980 f4c6 400e e846 4bc4 0b46 4f96 5b46
000001d0: f416 b846 205f ae46 cc4a 0347 ed0a 3d46
000001e0: dee7 4447 d47e 8647 e7f0 57c6 7903 98c6
000001f0: c1fd 5146 0a66 d646 b09f 7ec6 9df4 b047
00000200: c8e4 7ac6 be42 f146 2b50 9bc6 d239 acc6
00000210: 3931 5646 c6de b645 1284 bc46 0d8a 3c46
00000220: ccb6 9f46 b289 bc43 fcd8 4047 4607 3bc5
00000230: 34a3 b047 d5f1 5147 a2cb a046 46b7 5446
00000240: 5164 c247 f813 bf46 2c00 a645 031f d144
00000250: 20ac 8cc6 8c21 4c45 179f 28c6 261a ffc5
00000260: 5062 61c6 1f5f b644 0de4 8e44 0210 a3c6
00000270: 4a32 acc5 ed01 31c4 520c 3ac6 d431 74c6
00000280: 5dba 61c6 fa67 11c6 0942 e043 eb1e a9c5
00000290: b2f0 c7c5 1e6f 5ec6 bc03 ddc5 9667 a845
000002a0: 273f 8ec6 134a dc45 aa15 2046 da68 0f45
000002b0: aa4f 3e46 58a4 63c6 c55b efc5 ee3b d944
000002c0: 3109 bbc6 0009 04c4 9be5 8c44 50af 04c6
000002d0: e495 ad46 4fa0 5dc6 209f 20c6 65db 55c2
000002e0: 1870 2bc6 2e0f 8745 a417 37c6 88c7 28c5
000002f0: 7c53 ce45 2ff7 59c6 a33a c9c6 d3e8 8245
00000300: ef9a 7c46 f62f cec6 d830 cec6 994e b7c4
00000310: bbba b8c6 c4b6 dfc5 40ca 49c6 070d 83c6
00000320: 29ff d6c6 79cc d5c6 4adb a6c6 0180 a4c6
00000330: 459d bfc6 147a eb45 4fd8 a4c4 2858 ccc6
00000340: 55eb 1d46 0285 0cc6 90e4 a7c6 e096 01c6
00000350: 2220 bac5 0263 d8c5 c098 45c6 02af 3ec6
00000360: 5612 a9c5 e187 71c6 1a05 b3c5 ba17 2bc6
00000370: f4b3 87c4 933b d6c4 4b80 78c6 7c67 92c4
00000380: 0247 2fc6 e869 a4c5 c1be a7c6 7454 e8c4
00000390: df26 0bc5 5d5d bbc5 6d79 54c4 0e56 b4c5
000003a0: 385d cfc6 58c3 86c6 6372 b8c6 30b8 03c4
000003b0: 6d57 04c6 e405 34c6 4c11 b5c5 0d3e 54c6
000003c0: 0476 bdc5 2b9b 9dc5 99d2 94c5 f9b3 70c5
000003d0: eb95 a3c6 da21 e9c5 b415 b0c5 c743 9344
000003e0: d639 31c6 e349 0fc6 7078 c7c5 e868 d0c5
000003f0: c194 f7c5 6c7b 86c6 ebd1 82c6 3bb0 d4c5
