models/LinearModel_OneHot/state_dict.pt (torch, 4339 bytes, 1 tensors)

TextModel.weight f4 [1, 803]
-5556.89 3845.7004 -4265.101 -1418.4998 -3175.0217 -13803.739 -4521.3926 38096.016
-38502.11 -52089.32 -5638.3047 140057.58 -57606.242 -66407.984 -10688.556 -19937.547
32829.375 -18833.195 -14134.254 -9585.875 -9719.303 -94.6835 -11721.51 -8930.168
-10681.26 -4487.076 993.31226 -4081.0066 -8587.091 -8906.786 -4581.1685 -2447.3447
5747.3315 -11527.42 -19673.45 7800.6133 3347.2764 -36995.086 -4166.43 -8565.134
-2522.287 -8406.581 -11008.814 -19495.635 -18447.654 -1206.869 -20237.912 -9711.492
-10124.357 -2720.6284 -9934.0205 -10325.71 -7217.09 -3071.5955 -10489.716 18548.725
-9130.131 -7395.641 48344.77 -14525.699 -10711.592 -9072.618 -26016.309 29593.287
9911.176 59935.152 -6838.779 -10895.754 -5311.8223 -14265.096 45511.855 6631.016
-16955.66 -1130.1544 -32328.527 -6899.2764 -27258.898 -2575.7415 -20992.176 -12205.417
8001.5835 -20328.424 -2655.8113 -29737.21 8203.887 -2903.703 -15390.017 12021.438
-18443.373 -4798.469 42.530407 -7438.042 -29057.719 3241.627 13843.552 -15624.35
52533.676 8873.144 24729.752 -4082.5042 -7329.056 -14021.139 -1926.3811 -12629.93
-3571.2942 12578.151 20747.543 13360.686 13872.46 -14538.957 -2236.375 27264.094
-13826.568 35258.383 717.0406 11755.627 13103.737 7064.4795 30674.342 12080.17
43050.26 53627.953 -16421.691 -16114.855 -2477.9192 19788.18 -10570.712 70508.43
-15573.89 32879.727 5399.948 -17973.996 10030.957 -101.71479 14965.261 3464.3484
17710.729 -231.96724 52498.637 699.1233 63405.914 51582.465 44494.016 10574.37
64075.7 36386.914 6843.083 -9835.501 -8670.997 391.15723 -8001.621 -8178.4966
-3966.7075 -2399.2915 2084.6929 -10685.457 -1393.5903 -5501.8413 -5481.101 -10217.396
-8929.744 -7920.3325 1598.0146 -9438.024 6088.9155 -10447.33 -3940.8594 2954.8218
-19283.365 -1690.695 671.61346 -1155.3015 3260.6257 -14222.402 -4208.12 -1886.4153
-16373.967 1396.4803 1330.7482 -11315.343 20216.154 -12378.234 -6857.8887 4710.8667
-6258.9717 -5742.472 -11010.362 -2829.1199 2099.8245 -11127.449 -16749.252 5594.998
1113.8691 -20034.832 -19653.938 -8401.657 -17006.844 -7994.442 -11708.337 -12324.629
-20300.697 -17528.648 -16129.267 -15633.337 -18026.484 -938.7632 4160.9805 -12318.083
-1284.8805 -5368.712 -15723.82 -5794.227 -6441.5396 -5272.909 -9794.033 -10877.596
-6636.9897 -12294.756 -3587.81 -8282.263 1084.4813 -990.0175 -10598.817 -33.80281
-13667.89 -3304.216 -18232.795 -2325.2024 -3971.9312 -2421.2102 -3012.7231 -4390.774
-20270.297 -13533.491 -18859.717 -5423.0356 -7641.473 -9590.459 -5128.1274 -15479.827
-5111.383 -3938.7986 -3011.995 -2935.1284 -18643.201 -4516.3276 -4384.7495 818.7653
-8434.421 -6979.9644 -4273.314 -4545.8467 -6714.1426 -11294.522 -13833.898 -5132.2617
00000000: 1fa7 adc5 355b 7045 cf48 85c5 fe4f b1c4
00000010: 5970 46c5 f5ae 57c6 244b 8dc5 04d0 1447
00000020: 1c66 16c7 5279 4bc7 7032 b0c5 65c6 0848
00000030: 3e06 61c7 feb3 81c7 3902 27c6 18c3 9bc6
00000040: 603d 0047 6422 93c6 04d9 5cc6 80c7 15c6
00000050: 36dd 17c6 f45d bdc2 0a26 37c6 ac88 0bc6
00000060: 0ae5 26c6 9c38 8cc5 fc53 7844 1b10 7fc5
00000070: 5d2c 06c6 252b 0bc6 5929 8fc5 84f5 18c5
00000080: a79a b345 ae1d 34c6 e6b2 99c6 e8c4 f345
00000090: 6c34 5145 1683 10c7 7133 82c5 89d4 05c6
000000a0: 98a4 1dc5 535a 03c6 4203 2cc6 454f 98c6
000000b0: 4f1f 90c6 cfdb 96c4 d31b 9ec6 f8bd 17c6
000000c0: 6e31 1ec6 0e0a 2ac5 1538 1bc6 d756 21c6
000000d0: b888 e1c5 87f9 3fc5 dde6 23c6 73e9 9046
000000e0: 86a8 0ec6 211d e7c5 c5d8 3c47 ccf6 62c6
000000f0: 5e5e 27c6 79c2 0dc6 9e40 cbc6 9332 e746
00000100: b4dc 1a46 271f 6a47 3bb6 d5c5 043f 2ac6
00000110: 94fe a5c5 62e4 5ec6 dbc7 3147 2138 cf45
00000120: 5277 84c6 f144 8dc4 0e91 fcc6 369a d7c5
00000130: ccf5 d4c6 ddfb 20c5 5a00 a4c6 abb5 3ec6
00000140: ab0c fa45 d9d0 9ec6 fbfc 25c5 6c52 e8c6
00000150: 8c2f 0046 3f7b 35c5 1178 70c6 c1d5 3b46
00000160: bf16 90c6 c1f3 95c5 231f 2a42 5670 e8c5
00000170: 7003 e3c6 089a 4a45 354e 5846 6621 74c6
00000180: ad35 4d47 93a4 0a46 8133 c146 1128 7fc5
00000190: 7308 e5c5 8e14 5bc6 32cc f0c4 b857 45c6
000001a0: b534 5fc5 9b88 4446 1617 a246 bec2 5046
000001b0: d7c1 5846 d42b 63c6 00c6 0bc5 3000 d546
000001c0: 460a 58c6 62ba 0947 9942 3344 82ae 3746
000001d0: f3be 4c46 d6c3 dc45 afa4 ef46 aec0 3c46
000001e0: 432a 2847 f47b 5147 624b 80c6 6ccb 7bc6
000001f0: b5de 1ac5 5c98 9a46 d92a 25c6 37b6 8947
00000200: 8f57 73c6 ba6f 0047 96bf a845 fe6b 8cc6
00000210: d4bb 1c46 f96d cbc2 0bd5 6946 9385 5845
00000220: 755d 8a46 9df7 67c3 a312 4d47 e4c7 2e44
00000230: eaad 7747 777e 4947 04ce 2d47 7b39 2546
00000240: b34b 7a47 ea22 0e47 aad8 d545 01ae 19c6
00000250: fd7b 07c6 2094 c343 f80c fac5 f993 ffc5
00000260: 52eb 77c5 aaf4 15c5 164b 0245 d4f5 26c6
00000270: e432 aec4 bbee abc5 cf48 abc5 96a5 1fc6
00000280: fa86 0bc6 a982 f7c5 78c0 c744 1978 13c6
00000290: 5347 be45 523d 23c6 c04d 76c5 26ad 3845
000002a0: bba6 96c6 3d56 d3c4 43e7 2744 a669 90c4
000002b0: 03ca 4b45 9c39 5ec6 f680 83c5 4acd ebc4
000002c0: ded7 7fc6 5f8f ae44 f157 a644 5fcd 30c6
000002d0: 4ff0 9d46 f068 41c6 1c4f d6c5 ef36 9345
000002e0: c697 c3c5 c773 b3c5 7309 2cc6 ebd1 30c5
000002f0: 313d 0345 ccdd 2dc6 81da 82c6 fcd7 ae45
00000300: d03b 8b44 aa85 9cc6 e08b 99c6 a146 03c6
00000310: b0dd 84c6 89d3 f9c5 59f1 36c6 8492 40c6
00000320: 6599 9ec6 4cf1 88c6 1105 7cc6 5945 74c6
00000330: f8d4 8cc6 d8b0 6ac4 d807 8245 5578 40c6
00000340: 2d9c a0c4 b2c5 a7c5 48af 75c6 d111 b5c5
00000350: 514c c9c5 46c7 a4c5 2208 19c6 62f6 29c6
00000360: eb67 cfc5 061b 40c6 f63c 60c5 0d69 01c6
00000370: 678f 8744 1f81 77c4 459b 25c6 1436 07c2
00000380: 8f8f 55c6 7583 4ec5 9771 8ec6 3d53 11c5
00000390: e63e 78c5 5d53 17c5 924b 3cc5 3136 89c5
000003a0: 985c 9ec6 f775 53c6 6f57 93c6 4978 a9c5
000003b0: c9cb eec5 d6d9 15c6 0541 a0c5 4fdf 71c6
000003c0: 10bb 9fc5 c72c 76c5 ec3f 3cc5 0e72 37c5
000003d0: 67a6 91c6 9f22 8dc5 ff05 89c5 fbb0 4c44
000003e0: afc9 03c6 b71f dac5 838a 85c5 c60e 8ec5
000003f0: 24d1 d1c5 177a 30c6 9827 58c6 1862 a0c5
