models/MLPModel_Regularization/state_dict.pt (torch, 18989 bytes, 7 tensors)

TextModel.0.weight f4 [32, 25]
0	0x3ea608e0	0.32428646
1	0x3ea91f57	0.33031723
2	0x3d9d5cf2	0.076837435
3	0x3e212b01	0.15739061
4	0xbe87ce06	-0.2652437
5	0xbf6493ff	-0.89288324
6	0xbe31851f	-0.17335938
7	0x3f46ec98	0.77704763
8	0x3f9b0916	1.2112148
9	0xbdbc471d	-0.09193251
10	0x3f16a6aa	0.5884806
11	0x3f4d23ae	0.8013257
12	0x3f938bf2	1.1527083
13	0x3f2a6339	0.6655765
14	0x3f449203	0.76785296
15	0x3f5e1ca9	0.8676248
16	0x40811681	4.033997
17	0x3fb687c6	1.4260185
18	0x3f414e26	0.7550987
19	0x3e0f89c1	0.14017393
20	0x3f3acdc6	0.72970235
21	0x3e5f8fa9	0.21832146
22	0x3d2113fe	0.039325707
23	0x3ec3483f	0.38141057
24	0xbc101a47	-0.0087953275
25	0xbd868c05	-0.06569675
26	0x3e1af4fa	0.15132514
27	0xbdabb0b5	-0.083833136
28	0x3ea24f27	0.31701013
29	0xbeac00e3	-0.33594427
30	0xbf4ffe9b	-0.8124787
31	0xbe83c15f	-0.25733468
32	0x3f59da7c	0.85099006
33	0x3db64819	0.0890047
34	0x3ef3e2fc	0.47634113
35	0x3f28fb55	0.660085
36	0x3f7b7d7c	0.9823835
37	0x3fad4bd6	1.3538768
38	0x3f279628	0.65463495
39	0x3f291f6a	0.6606356
40	0x3f98f329	1.1949207
41	0x406de21e	3.716926
42	0x3fbd1acc	1.4773803
43	0x3f8d9ea8	1.1064043
44	0x3eef0adf	0.4668798
45	0x3f7b6399	0.9819885
46	0x3f1b7693	0.60727805
47	0x3e84e35a	0.25954705
48	0x3f26e6d6	0.6519598
49	0x3e1400b6	0.14453396
50	0x3e59cd94	0.21269828
51	0xbf835dcd	-1.0263001
52	0x3ef06210	0.46949816
53	0x3f314b84	0.6925585
54	0xbf5655e3	-0.837248
55	0xbd9da68a	-0.076977804
56	0x3d9315a0	0.07181859
57	0xbe9521f5	-0.2912747
58	0x3ed27431	0.41104272
59	0x3f2faab1	0.6861983
60	0x3f3300d9	0.6992317
61	0xbfa5488d	-1.2912766
62	0xbf02afc7	-0.51049465
63	0xbe8ed8b8	-0.27899718
64	0xbf59bcdd	-0.8505381
65	0x3efa53ab	0.4889196
66	0x400eb18d	2.2295868
67	0xc0b2cff6	-5.587886
68	0x3e870b63	0.26375875
69	0xc005f2c5	-2.0929425
70	0x3f327e2d	0.6972378
71	0xbffbbf58	-1.9667768
72	0xbee28b50	-0.44246912
73	0xbf7cf903	-0.9881746
74	0xbf31e933	-0.6949646
75	0x3da718fb	0.081590615
76	0xbdb6f41e	-0.089332804
77	0x3eb3d42a	0.35122806
78	0x3a701d14	0.00091596064
79	0xbd9740e6	-0.07385425
80	0xc003125a	-2.047995
81	0xbe01cf38	-0.12676704
82	0x3ea991b0	0.33118963
83	0x3da66c7d	0.08126161
84	0x3f172260	0.5903683
85	0x3f22e908	0.6363683
86	0x3f884445	1.0645834
87	0x3ee123c3	0.43972597
88	0x3f047b18	0.51750326
89	0x3eecb0ae	0.46228546
90	0x3f6cafac	0.92455554
91	0x40733cab	3.8005779
92	0x3fb3a1b0	1.4033718
93	0x3f94275a	1.1574509
94	0xbf38b6f4	-0.72154164
95	0x3f347006	0.70483434
96	0xbe47b566	-0.19502792
97	0xbd913ff3	-0.070922755
98	0x3edc615c	0.4304303
99	0xbe322b27	-0.17399274
100	0x3ebcda36	0.36885232
101	0xbf5f7c23	-0.8729879
102	0x3f1a2c10	0.60223484
103	0x3f651ee2	0.8950025
104	0xbf606b27	-0.876635
105	0xbfc6932c	-1.5513663
106	0xbee1a6d5	-0.44072595
107	0xbe039747	-0.12850676
108	0xbe929811	-0.28631642
109	0x3f97d21d	1.1860996
110	0x3fb53485	1.4156653
111	0xbf683042	-0.90698636
112	0xbf3eb14d	-0.7448929
113	0xbf1384d7	-0.5762457
114	0xbfa38a13	-1.2776512
115	0x3f7e36e4	0.99302506
116	0x400dccd2	2.2156262
117	0xc087681d	-4.231459
118	0x3f9702bf	1.1797713
119	0xc049ec8b	-3.1550624
120	0x3f87e226	1.061589
121	0xc048d776	-3.1381507
122	0xbfc499c7	-1.5359429
123	0xbe4c9efd	-0.19982524
124	0xbfc0f49b	-1.5074648
125	0x3ef9611c	0.487069
126	0xbf9dbd55	-1.2323405
127	0x3f273939	0.6532169
128	0x3f28eb3e	0.6598395
129	0xbf8ebce1	-1.1151391
130	0x3ec2ba3e	0.38032717
131	0xbddbc7a4	-0.10731438
132	0xbe9da90c	-0.30793035
133	0x3e935be1	0.28781036
134	0x3f85b7f2	1.0446761
135	0x3f1dfb96	0.61712015
136	0xbfd8c52d	-1.6935173
137	0xbfa49fdb	-1.2861284
138	0xbf4a64af	-0.7905988
139	0xbf91edfe	-1.1400754
140	0x3f13e207	0.57766765
141	0x3fe8c391	1.8184682
142	0xc09f8b11	-4.985726
143	0x3dce42b4	0.10071316
144	0xc006e1e6	-2.1075377
145	0x3f028c29	0.5099512
146	0xc003c6b0	-2.059002
147	0xbea3700c	-0.31921422
148	0xbebebace	-0.37251896
149	0xbef6dba3	-0.48214445
150	0x3e0f90bf	0.1402006
151	0x3dd2b1cd	0.10287819
152	0x3d896af4	0.06709853
153	0xbda7fc01	-0.08202363
154	0x3d728e37	0.059217658
155	0xbfb7bb4f	-1.4354037
156	0x3f1db63f	0.6160621
157	0x3f04360f	0.51644987
158	0x3f170293	0.589883
159	0x3ddcb619	0.1077692
160	0x3f1c0211	0.60940653
161	0x3f76db36	0.9642824
162	0x3f85c4cd	1.0450684
163	0x3ec9180f	0.39276168
164	0x3f4b981f	0.79528993
165	0x3f85da3b	1.0457224
166	0x4069f149	3.6553519
167	0x3fccb1e4	1.5991788
168	0x3f6bf28f	0.9216699
169	0xbebdc113	-0.37061366
170	0x3f6526ef	0.8951253
171	0xbddc19d1	-0.107471116
172	0x3eb49bf4	0.35275233
173	0x3ec2bfc1	0.38036922
174	0x3e236ea4	0.15960175
175	0xbccc64f2	-0.024950478
176	0x3e8811e3	0.26576146
177	0x3e10523e	0.14093873
178	0x3e51317f	0.20429038
179	0xbebdfd94	-0.37107527
180	0xbf399ff4	-0.72509694
181	0x3efac6c3	0.48979768
182	0x3e98f73e	0.2987613
183	0x3eb21974	0.34785044
184	0x3ece414b	0.4028419
185	0x3f0ac009	0.5419927
186	0x3f730fae	0.949458
187	0x3f956201	1.1670533
188	0x3f05c3af	0.52251714
189	0x3f50575f	0.8138332
190	0x3f611eea	0.87937796
191	0x406dd893	3.7163436
192	0x3fb98884	1.4494786
193	0x3f84d045	1.0376059
194	0x3e4fde88	0.20299733
195	0x3f4bd2a7	0.79618305
196	0x3ec24653	0.37944278
197	0x3ed59a80	0.41719437
198	0x3ed9e198	0.42554927
199	0x3effc5a0	0.49955463
200	0xbdc4f5d9	-0.09617204
201	0xbccc2310	-0.024919063
202	0x3ea965d1	0.33085492
203	0x3e267161	0.16254188
204	0xbe96c420	-0.29446507
205	0xbfe82bbc	-1.8138347
206	0xbe738911	-0.23782755
207	0xbd843707	-0.06455808
208	0xbeb7ac7e	-0.3587379
209	0x3ed524bb	0.41629586
210	0x3f446528	0.7671685
211	0x3f91ad6a	1.1381047
212	0x3e46da39	0.19419183
213	0x3f2b0a7d	0.6681288
214	0x3ec3da55	0.38252512
215	0x3fb128c8	1.384057
216	0x4084146e	4.127494
217	0x3f978c64	1.1839719
218	0x3f85f6f6	1.0465991
219	0xbf92889f	-1.1447943
220	0x3f789ebd	0.97117215
221	0xbf331bcf	-0.6996431
222	0xbcdb7514	-0.026789226
223	0x3efef136	0.49793404
224	0xbe1deedd	-0.1542315
225	0x3ed75b0b	0.42061648
226	0xbf511433	-0.81671447
227	0x3f154533	0.58308715
228	0x3f7fac5f	0.9987239
229	0xbf458591	-0.7715693
230	0xbd7a792a	-0.061150707
231	0xbd242b72	-0.040080495
232	0xbc98039f	-0.018556414
233	0x3e3087ba	0.17239276
234	0x3fa4243f	1.2823561
235	0x3f7b3caa	0.9813944
236	0xbf931524	-1.1490827
237	0xbf49fb78	-0.78899336
238	0xbf7fd24e	-0.99930274
239	0xbfb20c21	-1.3909951
240	0x3f0aa16f	0.5415258
241	0x400699d5	2.1031392
242	0xc09cd802	-4.901368
243	0x3eb9e073	0.36304054
244	0xc00c4422	-2.1916585
245	0x3e9409a3	0.28913602
246	0xc016c381	-2.3556826
247	0xbf2be268	-0.67142344
248	0xbf0b9502	-0.5452424
249	0xbedfe7d3	-0.43731555
250	0x3bca9245	0.0061819875
251	0x3e267201	0.16254427
252	0x3d238d1b	0.03992949
253	0xbccdd1be	-0.025124427
254	0xbe5881bf	-0.21143244
255	0xbfd4031c	-1.6563449

TextModel.0.bias f4 [32]
0	0x40973934	4.725733
1	0x4093a17f	4.613464
2	0x4086d27e	4.213195
3	0x408c5206	4.3850126
4	0x4014a011	2.3222697
5	0x408a10a4	4.3145313
6	0x40959bf8	4.675289
7	0x409b61cd	4.8556886
8	0x4091da64	4.557909
9	0x40817a1c	4.046156
10	0x408cbddd	4.3981767
11	0x4055468a	3.3324304
12	0x40964b2e	4.696677
13	0x40928b96	4.5795393
14	0x402b0840	2.6723785
15	0x40982cc1	4.755463
16	0x409736e2	4.7254496
17	0x409d22f7	4.910518
18	0x409333f7	4.6000934
19	0x40ab454d	5.3522096
20	0x4094f8c5	4.6553674
21	0x409f0964	4.9698963
22	0x403fa5e8	2.994501
23	0x40944faf	4.634727
24	0x40816326	4.043353
25	0x405873f2	3.3820767
26	0x40a29296	5.080394
27	0x409578e6	4.671008
28	0x40907546	4.5143156
29	0x409971c1	4.795136
30	0x409581aa	4.672078
31	0x40ca6536	6.324855

TextModel.3.weight f4 [64, 32]
0	0x3fbea1a5	1.489308
1	0x3fc93e0e	1.5722063
2	0x4008d3e9	2.137934
3	0x4000097f	2.0005796
4	0x40168c98	2.3523312
5	0x4014ab24	2.3229456
6	0x3fe4c60a	1.7872937
7	0x3fcf17ac	1.6179099
8	0x400ff59c	2.2493658
9	0x400e3bc2	2.2223973
10	0x3fd8db24	1.6941876
11	0x40040717	2.0629327
12	0x3fd212e1	1.6412011
13	0x400e5596	2.2239738
14	0x402a651a	2.6624207
15	0x3fd3f2b6	1.6558444
16	0x3feabeaf	1.8339442
17	0x3fec22e0	1.8448143
18	0x3fc9b1f6	1.5757434
19	0x3fbf85d5	1.4962717
20	0x3fc7dba5	1.5613905
21	0x3fe42671	1.7824231
22	0x400b5ddf	2.1776044
23	0x40060a32	2.0943723
24	0x4006948b	2.1028163
25	0x4012411f	2.2852247
26	0x3ff0b18c	1.8804183
27	0x3fe7a8a1	1.8098336
28	0x3fd29951	1.6453038
29	0x3fc0ef56	1.507304
30	0x3ffa5736	1.9557865
31	0x4007e7d3	2.1235244
32	0x3fd50d73	1.6644729
33	0x3ff29bd7	1.8953809
34	0x401c3d0b	2.4412258
35	0x40096ae1	2.1471484
36	0x402bb07c	2.6826468
37	0x40106756	2.2563071
38	0x3fdd9c64	1.7313352
39	0x3feec41b	1.8653597
40	0x4020668b	2.5062587
41	0x401f3b04	2.487977
42	0x3fed26c8	1.852746
43	0x400f9067	2.2431886
44	0x3fffd3f3	1.9986557
45	0x401d8156	2.461019
46	0x4031aca4	2.7761621
47	0x3fed6943	1.8547748
48	0x3ff02159	1.8760177
49	0x3ff450ec	1.9087195
50	0x3ff1341e	1.884403
51	0x3ff11bb7	1.8836583
52	0x3ffc59cf	1.9714907
53	0x3ffe3811	1.986086
54	0x40225170	2.5362206
55	0x4009b1ba	2.1514726
56	0x4006a1bb	2.1036212
57	0x4010c21d	2.2618477
58	0x3fe0cf87	1.7563332
59	0x3fe82061	1.8134881
60	0x3fe17cfc	1.7616267
61	0x3fdbfe85	1.7187048
62	0x4006a9f9	2.1041243
63	0x4021815d	2.5235207
64	0x3fe13da6	1.7596939
65	0x3fcb794d	1.5896393
66	0x401b68b8	2.4282665
67	0x4002608a	2.0371423
68	0x40306aae	2.7565112
69	0x401624b8	2.3459911
70	0x4000c07f	2.011749
71	0x3fd30b61	1.6487848
72	0x40184710	2.3793373
73	0x4021a355	2.525594
74	0x3fdc0c6f	1.7191294
75	0x400b2f2c	2.1747541
76	0x3fe1ef51	1.7651159
77	0x4011096b	2.2661998
78	0x40255a11	2.5836222
79	0x3ffc2046	1.9697349
80	0x4000d71f	2.01313
81	0x3ff39295	1.9029108
82	0x400220f9	2.0332625
83	0x3fd9ddc8	1.7020807
84	0x3fedbb39	1.8572761
85	0x3fead8d4	1.8347421
86	0x400d43e6	2.2072692
87	0x40036314	2.0529222
88	0x3ff889d2	1.941706
89	0x4011d3ad	2.2785447
90	0x3fe7515f	1.8071707
91	0x3fecd16f	1.8501414
92	0x3ffae229	1.9600269
93	0x3fdc358d	1.7203842
94	0x3ff39dc2	1.9032519
95	0x40207ec5	2.5077374
96	0x3fe4ffd3	1.7890571
97	0x3fe631d4	1.7983956
98	0x4029ab4f	2.6510808
99	0x3ffabdeb	1.9589208
100	0x4023f066	2.5615478
101	0x400a6c6d	2.1628678
102	0x3fdcfc67	1.7264527
103	0x3fd6fc81	1.6795808
104	0x400ce3ce	2.201404
105	0x401c4787	2.4418657
106	0x3fe26e8a	1.7689984
107	0x400a8c26	2.164804
108	0x3fd0ee59	1.6322738
109	0x4019a605	2.400758
110	0x40328d0d	2.789859
111	0x3fd1d733	1.6393799
112	0x3fcc0f83	1.5942234
113	0x3ff0b6e3	1.8805813
114	0x3fc96884	1.5735021
115	0x3fc48e47	1.535592
116	0x3fdfdc05	1.748902
117	0x3fea165c	1.8288074
118	0x400ea335	2.2287114
119	0x40074d04	2.1140757
120	0x4018f321	2.3898394
121	0x401788e8	2.367731
122	0x400587a7	2.0864046
123	0x3fc5bbc4	1.5447927
124	0x3fe0e113	1.7568687
125	0x3fdeb252	1.7398169
126	0x400453c6	2.0676131
127	0x4021bef3	2.5272796
128	0x3fd51710	1.6647663
129	0x3fe71e42	1.8056109
130	0x4014c191	2.3243144
131	0x4000f70f	2.0150793
132	0x4028bf60	2.6366806
133	0x402656a2	2.5990376
134	0x3ff167ca	1.8859799
135	0x3fd1076f	1.6330394
136	0x4015f671	2.3431666
137	0x401ee2c0	2.4825897
138	0x3fecff66	1.8515441
139	0x401d2647	2.4554613
140	0x3fde7c25	1.7381636
141	0x401a2dcd	2.4090455
142	0x4036f447	2.8586595
143	0x3fdfb55e	1.7477224
144	0x3fe7edbc	1.8119426
145	0x3ffcc746	1.9748313
146	0x3fed9c7d	1.8563381
147	0x3ff3d3b4	1.9048982
148	0x40011580	2.0169373
149	0x3fe1e35c	1.764751
150	0x40208752	2.5082593
151	0x401231e0	2.2842941
152	0x3fff5c96	1.995013
153	0x40172770	2.361782
154	0x3fe4502c	1.7836967
155	0x3fe5c87b	1.7951807
156	0x3fedf381	1.8589936
157	0x3fe58d13	1.7933677
158	0x3fe09983	1.7546848
159	0x40208ea9	2.5087073
160	0x3fe7afb8	1.81005
161	0x3fc60eb0	1.5473232
162	0x402760c2	2.6152806
163	0x3ffc2821	1.9699746
164	0x402bf1c7	2.686632
165	0x401c207e	2.4394832
166	0x3fd6964a	1.6764615
167	0x3fc40257	1.5313214
168	0x40194c1b	2.39527
169	0x40188bcc	2.3835325
170	0x3fdbcbea	1.7171605
171	0x400dc685	2.2152417
172	0x3fce69af	1.6126002
173	0x401c5069	2.4424078
174	0x40298d9c	2.6492682
175	0x3fd44701	1.6584169
176	0x3fdade97	1.7099179
177	0x3fe3217a	1.7744591
178	0x3fd9da7b	1.70198
179	0x3fbc53f3	1.4713119
180	0x3fd4afb1	1.6616117
181	0x3fe8b9de	1.8181722
182	0x4019e573	2.4046295
183	0x4001d731	2.0287592
184	0x4001890f	2.0239904
185	0x401d603c	2.4589987
186	0x3fe85bc0	1.8153
187	0x4006b150	2.1045723
188	0x3fd8d2a5	1.6939284
189	0x3fd8f158	1.6948652
190	0x3fd423a9	1.6573383
191	0x4012d6b3	2.2943542
192	0x3ff190e0	1.8872337
193	0x3fd6e2cb	1.6787962
194	0x4021e780	2.5297546
195	0x3ff0f969	1.8826114
196	0x402785ea	2.6175485
197	0x400dd5b1	2.2161677
198	0x3fede5c1	1.858574
199	0x3fcf1e94	1.6181207
200	0x400d9f57	2.2128503
201	0x401b1539	2.4231703
202	0x3ffdc6de	1.9826314
203	0x4021dfdc	2.5292883
204	0x3ff257b6	1.8933017
205	0x40163be1	2.3474047
206	0x402cfe66	2.7030272
207	0x3fea67c0	1.8312912
208	0x3fd3f1a3	1.6558117
209	0x400b9333	2.1808593
210	0x3fe81d40	1.8133926
211	0x3fd67f63	1.6757625
212	0x3fea364e	1.8297822
213	0x3fd8da4e	1.6941621
214	0x401771b3	2.3663146
215	0x400acdc4	2.168809
216	0x40108d22	2.258614
217	0x40121edb	2.2831333
218	0x3ff27333	1.8941406
219	0x3fe00ef2	1.7504561
220	0x3fe49a90	1.7859669
221	0x3fd8b74f	1.6930941
222	0x40076887	2.1157548
223	0x40144144	2.3164835
224	0x3fe775e0	1.8082848
225	0x3fd3385b	1.6501573
226	0x4010b7e6	2.2612243
227	0x3fed8936	1.8557498
228	0x401e86da	2.4769807
229	0x401a2ac6	2.4088607
230	0x3feb1e8b	1.8368696
231	0x3ff83cbf	1.9393538
232	0x4002a608	2.0413837
233	0x4018e393	2.38889
234	0x3fe28f44	1.7699971
235	0x4011a59a	2.2757325
236	0x3ff9a66e	1.9503915
237	0x4021563b	2.520888
238	0x402bb3ca	2.6828485
239	0x3ff31c66	1.8993042
240	0x3ff0f3e6	1.8824432
241	0x3fecbae0	1.849453
242	0x3fca9b7c	1.58287
243	0x3fdc47c7	1.7209405
244	0x3fe3739d	1.7769657
245	0x3fec5e5c	1.8466296
246	0x40093178	2.1436443
247	0x40027c96	2.0388541
248	0x4000c023	2.011727
249	0x400dbe2b	2.214732
250	0x3fe5897e	1.7932584
251	0x3fc28872	1.519789
252	0x3fe52ce0	1.790432
253	0x3fef1b8e	1.8680284
254	0x40052712	2.0805097
255	0x401f0444	2.4846354

TextModel.3.bias f4 [64]
0	0x41096252	8.586504
1	0x410a51a2	8.64493
2	0x410826d6	8.509481
3	0x4109ebc7	8.620063
4	0x410a46e9	8.642312
5	0x410e5dc3	8.897891
6	0x410af520	8.684845
7	0x410723ea	8.446268
8	0x4109f764	8.622898
9	0x410befb9	8.746026
10	0x41097edf	8.593474
11	0x410970aa	8.590006
12	0x410afd6f	8.686873
13	0x41093800	8.576172
14	0x4109c8d5	8.611531
15	0x410b4baa	8.705973
16	0x410b8b9a	8.721582
17	0x410d067a	8.814081
18	0x410c192e	8.756147
19	0x410a0110	8.625259
20	0x4108a3c7	8.539985
21	0x410c0ea0	8.753571
22	0x41090d83	8.565799
23	0x410c732a	8.778116
24	0x41083c78	8.514763
25	0x4108b992	8.545305
26	0x41088fbc	8.535091
27	0x410b2175	8.695668
28	0x410b0709	8.689218
29	0x410cb387	8.79383
30	0x410812ad	8.5045595
31	0x410bc7cd	8.7362795
32	0x410bcdb1	8.737718
33	0x410afc0b	8.686534
34	0x410a9066	8.660254
35	0x410c02bb	8.750667
36	0x410b4a62	8.70566
37	0x410acf13	8.675555
38	0x410b2b2f	8.698043
39	0x4109e3ff	8.618163
40	0x410b24f8	8.696526
41	0x410b3e1d	8.702664
42	0x410ad721	8.677522
43	0x410d1e52	8.819902
44	0x410764eb	8.462138
45	0x410a0c9c	8.628078
46	0x4109f262	8.6216755
47	0x410c07fa	8.751947
48	0x410da54d	8.852857
49	0x410e9202	8.910646
50	0x41098a75	8.596303
51	0x410797ce	8.474562
52	0x410859e1	8.521943
53	0x410ae092	8.679827
54	0x410863e5	8.524388
55	0x4109c0de	8.609587
56	0x410cf9af	8.810958
57	0x410b3585	8.700566
58	0x41092fea	8.574198
59	0x410707d9	8.439416
60	0x410758e2	8.4592
61	0x410cef90	8.808487
62	0x4108ea9c	8.557278
63	0x410b17ed	8.693341

TextModel.6.weight f4 [16, 64]
0	0x3d990567	0.074717335
1	0x3bcd49f9	0.0062649217
2	0xbd5a346e	-0.053272657
3	0x3c80c654	0.01571957
4	0xbc7e6a67	-0.015528298
5	0x3d6eff6c	0.058349058
6	0x3d538e7b	0.05164955
7	0xbe09a34c	-0.13441199
8	0x3ccca5c7	0.024981393
9	0x3c647dbc	0.013945993
10	0xbe1aea21	-0.15128376
11	0xbb91e7c3	-0.004452677
12	0xbdc7c6b8	-0.097546995
13	0xbde6fa0e	-0.11278163
14	0xbd093441	-0.0334971
15	0xbd6b5576	-0.05745455
16	0xbdea6396	-0.11444776
17	0xbdcf2b4b	-0.10115679
18	0x3cb45999	0.02201538
19	0x3d599c5d	0.053127635
20	0xbd5283ee	-0.05139535
21	0xbdaccce2	-0.08437516
22	0xbcabd722	-0.020976607
23	0xbe0ec144	-0.13940912
24	0xbe07cf1f	-0.13262604
25	0xbca7d2bb	-0.020486226
26	0x3b45c334	0.0030176165
27	0xbe08df32	-0.13366392
28	0xbda0dd83	-0.0785475
29	0xbda769c7	-0.08174472
30	0xbe12dea8	-0.14342749
31	0xbd76d6da	-0.060263492
32	0xbc34bbc7	-0.011031098
33	0xbd7c21d3	-0.061555695
34	0x3dcf38f1	0.101182826
35	0x3bc336a3	0.005957441
36	0x3d1c824f	0.03821021
37	0x3c2c7c13	0.0105276285
38	0xbd41a9bd	-0.047281016
39	0x39064aea	0.00012807144
40	0xbde727cc	-0.112868875
41	0x3c293566	0.010327673
42	0x3b0b82c6	0.0021287664
43	0xbda8f517	-0.08249872
44	0xbd886c78	-0.06661314
45	0xbe0fe6f1	-0.14052941
46	0xbdfc410d	-0.12317095
47	0xbd486f44	-0.048934236
48	0x3b22ff23	0.0024871312
49	0xbd96bbf6	-0.073600695
50	0xbc8f15f3	-0.01746652
51	0xbe1deb06	-0.15421686
52	0xbdd09033	-0.10183754
53	0x3cf2502b	0.029579243
54	0xbe18275b	-0.14858763
55	0xbdc2bd1f	-0.09508728
56	0xbaad2215	-0.001320901
57	0xbb2fc317	-0.0026819163
58	0xbc9dedb2	-0.019278381
59	0xbe20a076	-0.15686211
60	0xbd882787	-0.06648164
61	0xbd83040d	-0.06397257
62	0xbd555291	-0.052080695
63	0x3c8cae0b	0.017172834
64	0x3ff6b589	1.927415
65	0x400486a0	2.0707169
66	0x3ffd697a	1.9797814
67	0x4011dfa0	2.279274
68	0x40011461	2.0168688
69	0x400f06d9	2.234793
70	0x3fffcf1d	1.9985081
71	0x3ff20338	1.8907232
72	0x40113668	2.2689457
73	0x40163221	2.3468096
74	0x401069c5	2.2564557
75	0x4004b0b5	2.0732853
76	0x3ff63504	1.9234929
77	0x40001bfe	2.0017085
78	0x40026733	2.0375488
79	0x4000f1ef	2.0147665
80	0x40154616	2.3324027
81	0x40098d69	2.149256
82	0x40045383	2.0675972
83	0x3ff01608	1.8756723
84	0x3ff87d22	1.9413188
85	0x4002494d	2.035724
86	0x400bc456	2.1838584
87	0x4006496f	2.098232
88	0x400ba0ab	2.1816814
89	0x4004f8e4	2.077691
90	0x400716fc	2.1107779
91	0x3ffa0cff	1.9535216
92	0x40058523	2.086251
93	0x400fa4bc	2.2444296
94	0x3ffa48b9	1.9553443
95	0x4001abde	2.026115
96	0x3ffc6098	1.9716978
97	0x40038c0e	2.0554233
98	0x400992f0	2.1495934
99	0x400b490c	2.1763334
100	0x3ff8c7ae	1.9435937
101	0x400e85c4	2.2269144
102	0x40022f52	2.0341382
103	0x400d9eb8	2.2128124
104	0x400322e5	2.0490048
105	0x3fee41f1	1.8613874
106	0x400d47da	2.2075105
107	0x4007f2eb	2.1242015
108	0x400b2c5a	2.174582
109	0x400a51f6	2.1612525
110	0x400b5e8c	2.1776457
111	0x400bfc8a	2.1872888
112	0x400b82ec	2.1798658
113	0x40076a11	2.1158488
114	0x3ff76db0	1.9330349
115	0x400d3b91	2.2067606
116	0x40093bef	2.144283
117	0x400ac538	2.1682873
118	0x4009d66b	2.153712
119	0x40084305	2.1290905
120	0x400066bb	2.0062702
121	0x4008e872	2.1391873
122	0x4005d268	2.0909672
123	0x3ffd08b0	1.9768276
124	0x4008c63d	2.1370995
125	0x400e6a93	2.2252548
126	0x40045507	2.0676897
127	0x3ffc28a2	1.96999
128	0x4001eb04	2.0299692
129	0x40051a2f	2.0797231
130	0x400915c0	2.1419525
131	0x40007926	2.0073943
132	0x400bec3d	2.1862938
133	0x4008718a	2.1319299
134	0x4006c501	2.1057742
135	0x4000863a	2.0081925
136	0x4012230d	2.2833893
137	0x400e0d5a	2.219565
138	0x4007bcac	2.1208906
139	0x40003534	2.0032473
140	0x40041a48	2.064104
141	0x40054806	2.082521
142	0x40083c85	2.1286938
143	0x4012ea33	2.2955444
144	0x400df6bf	2.2181852
145	0x4012bf07	2.2929094
146	0x400df408	2.2180195
147	0x3ff2a3a5	1.895619
148	0x3fed64b1	1.8546354
149	0x400d4d62	2.207848
150	0x400b2b14	2.1745043
151	0x400f500b	2.2392604
152	0x40018759	2.023886
153	0x400f7b30	2.2418938
154	0x3ff72126	1.9306991
155	0x40050abe	2.0787807
156	0x400a05a9	2.1565955
157	0x400be96d	2.1861222
158	0x3ff4bfb8	1.9121008
159	0x40035ff2	2.052731
160	0x400444a1	2.0666888
161	0x400ffb9b	2.2497318
162	0x400ad140	2.1690216
163	0x400ad158	2.1690273
164	0x4003b2b6	2.0577826
165	0x4007f3c8	2.1242542
166	0x400b8af2	2.1803555
167	0x4008aa03	2.1353767
168	0x4001c3b8	2.0275707
169	0x400b4e7b	2.176665
170	0x4005152f	2.079418
171	0x4003436e	2.0509906
172	0x40062ab5	2.0963566
173	0x40143bf1	2.3161585
174	0x3ff85afb	1.9402765
175	0x400a0bdd	2.156974
176	0x4002d990	2.044529
177	0x400ebbb0	2.2302055
178	0x400a844b	2.1643245
179	0x3ff814c7	1.9381341
180	0x400a46e1	2.160576
181	0x40040e6d	2.0633805
182	0x4003894a	2.0552545
183	0x40047bc0	2.070053
184	0x4006955e	2.1028666
185	0x400db9ad	2.2144578
186	0x3ffeea89	1.9915324
187	0x4010f69b	2.2650516
188	0x400b31ef	2.1749227
189	0x4003ed9d	2.0613778
190	0x400c2f44	2.1903849
191	0x4009cf8a	2.1532922
192	0xbc5be660	-0.013421625
193	0xbdb96ba8	-0.09053737
194	0xbc8da0f6	-0.017288666
195	0xbd3668d3	-0.044533562
196	0xbe0d19be	-0.13779351
197	0xbde77fcc	-0.11303672
198	0xbe10d708	-0.14144528
199	0xbdd64444	-0.104622394
200	0x3bf490f0	0.007463567
201	0xbceab42e	-0.02865037
202	0x3cbbf93d	0.022945995
203	0xbe15c563	-0.14626078
204	0xbd115c87	-0.03548863
205	0xbe1a9291	-0.15094973
206	0xbd333ae8	-0.04375735
207	0xbc9fb7ab	-0.01949676
208	0xbe062b71	-0.13102509
209	0x3d0b8648	0.034063607
210	0xbde08002	-0.109619156
211	0x3d294d2c	0.041333362
212	0xbd8b5dd0	-0.06805003
213	0x3d0572e2	0.032580264
214	0x3d388287	0.045046356
215	0xbdcc7805	-0.099838294
216	0xbdb49ae8	-0.088186085
217	0xb79252d5	-1.7443128e-05
218	0xbe1097f7	-0.1412047
219	0x3d09ffa9	0.033691082
220	0xbe04d36e	-0.12971279
221	0x3d5726d2	0.052527256
222	0xbe06368a	-0.13106743
223	0xbda73a6e	-0.081654415
224	0x3c5ac7e1	0.013353319
225	0xbdb93376	-0.090430185
226	0x3d991cc3	0.07476189
227	0x3c5838f7	0.013197175
228	0x3cfc1f97	0.030776782
229	0xbe0c214e	-0.1368458
230	0xbd9946ab	-0.07484182
231	0xbdcd1d3c	-0.10015342
232	0xbc83578f	-0.016032962
233	0xbe09041f	-0.13380478
234	0x3bb4a688	0.005513016
235	0xbd919bc3	-0.07109787
236	0xbdb34ca4	-0.087548524
237	0xbe128ce4	-0.14311558
238	0x3b79d03a	0.0038118497
239	0xbd8eefc8	-0.069793284
240	0x3d2283ad	0.039676357
241	0xbce00ead	-0.027350748
242	0xbbc45ab5	-0.0059922584
243	0xbd757878	-0.05992934
244	0xbda0ec48	-0.07857567
245	0xbd74b274	-0.0597405
246	0xbe1bf439	-0.15229882
247	0xba1df25f	-0.0006025191
248	0xbdcc8479	-0.09986205
249	0x3d35db1c	0.044398412
250	0xbd7f7b5d	-0.062373508
251	0x3c6a702b	0.0143089695
252	0x3ce3d5a0	0.027811825
253	0xbdbb8de2	-0.091579214
254	0x3d2e3534	0.042531207
255	0xbd0f2245	-0.03494479

TextModel.6.bias f4 [16]
0	0xbe066e71	-0.13128068
1	0x41187980	9.529663
2	0x4117bb95	9.483296
3	0x3d10d0ea	0.035355486
4	0xbd999214	-0.07498565
5	0xbd85d241	-0.065342434
6	0xbe2db638	-0.16964042
7	0x4116ba04	9.420414
8	0x4116c5b1	9.4232645
9	0x411a55da	9.64596
10	0x4117a63d	9.4780855
11	0x3d1508eb	0.036385458
12	0x41197916	9.592062
13	0x411acb6a	9.674662
14	0x3c4e406d	0.0125886025
15	0xbaa537c8	-0.0012605125

TextModel.9.weight f4 [1, 16]
0	0xbd30f2b3	-0.043200206
1	0x401b8273	2.429837
2	0x401f59b3	2.4898498
3	0xbe0f8269	-0.14014591
4	0xbbe5512d	-0.0069982023
5	0xbdd2fac2	-0.103017345
6	0xbd897176	-0.06711094
7	0x402213a4	2.5324488
8	0x402421b6	2.5645576
9	0x401cce42	2.450089
10	0x401ef3b8	2.4836254
11	0x3c5fc386	0.013657456
12	0x401c5aee	2.44305
13	0x401e0318	2.4689388
14	0xbd9a8580	-0.07544994
15	0xbd4f3712	-0.05058963
