models/MLPModel_Regularization/state_dict.pt (torch, 23213 bytes, 7 tensors)

TextModel.0.weight f4 [32, 25]
00000000: ca10 af3e 9300 ad3e a98a 0e3d de8a 0a3f
00000010: 35e4 9bbe c829 25bf a44d 8239 2322 343f
00000020: ada2 263f f786 8b3d 3f41 fb3e 923d 263f
00000030: fb96 933f aa1f cf3e 199d 443f 5d61 383f
00000040: c540 5440 3342 b43f cb54 243f d18e 8c3e
00000050: d73f 1e3f e267 a93e 2928 823c ef07 f53e
00000060: 949d 1bbd 7971 e9bd 90cf 203e a0d4 d9be
00000070: 536e a63d f451 0cbf 3c45 ddbe 7316 b5be
00000080: 8d20 2b3f ff1d 9e3e 84e5 a13e a088 0d3f
00000090: 2ca9 203f d1dc 923f 4d95 e53e fb64 3d3f
000000a0: d7d8 3d3f cd3a 4540 bb68 c13f 6247 863f
000000b0: bfa8 053f bacc 0c3f 7268 253f 52bb 4b3e
000000c0: e63d d63e 5663 7b3d 8ed0 663e db82 933d
000000d0: c6d8 da3e a592 4a3e 645a 4cbf 7c84 003f
000000e0: 6c63 2e3e 8b16 89bf 26ee 6d3f 1ed2 12c0
000000f0: fd4e c63d 9757 a73f 176f b63e c5ca cdbe
00000100: 05bc 7dbf c687 d03f 7417 0a40 7dd0 6fc0
00000110: fb36 2bbf 3896 8dbf 8e66 e93f 78b8 47bf
00000120: fdac 973f af78 0ec0 42b6 553f d418 a0bd
00000130: c83c debb f897 873d 2af3 283e 2e2f 0dbe
00000140: fb09 bcbf 56d4 c4be 18c1 cd3e a327 b2be
00000150: d35b 113f 658f f03e 2dae 3d3f 1b17 e33e
00000160: 2b34 db3e 5507 0b3f a3f3 433f 5928 4c40
00000170: 86a1 b83f 1f44 823f 64f8 febe 36c8 133f
00000180: 7d80 03bd f51b 09be b094 c23e 1860 73be
00000190: c659 0e3e 3d76 7dbf 5065 c43e 865e 4b3f
000001a0: 83ec c7be 38d4 cbbe 8dd3 7dbe 6a8b 833d
000001b0: b444 71bc b17c a73f cd00 8d3f c6b3 86bf
000001c0: 1200 ffbe 270d 49bf 77a4 7fbf d5b3 213e
000001d0: c6c9 d33f 411c 7cc0 7c6f 173f 9750 11c0
000001e0: 16df 6e3e 21c2 11c0 f6a7 6ebf ebd4 54be
000001f0: d9b1 6ebf ef7a 943e bc7a b2bf e9d3 c73e
00000200: ab2f 553f e5da 2ebf 02c4 043f 4abd 163d
00000210: 5ace e1be df78 ff3e 3e7c 5c3f 0ded ff3e
00000220: 7e01 cebf 6a83 d4bf 10b9 37bf 99de 49bf
00000230: 95bf 033f 0ead ac3f 2d1a 5ec0 0142 c23d
00000240: 41b9 02c0 2c13 e73e a666 fbbf 344f f2be
00000250: 1675 87be 4991 2cbf 6a59 1b3e 0cc3 53bd
00000260: 0919 2ebd cf04 2fbd 887b adbd 82f2 9bbf
00000270: 2831 1e3f 09da 8e3e f240 5e3e 7eb0 a13d
00000280: 6493 163f b1d5 3c3f cbb6 453f 1f4f 923e
00000290: e075 253f d418 463f 547e 4840 7cf3 bc3f
000002a0: 8ab8 483f bf3c b5be 1842 293f 2a24 c5bd
000002b0: 38e8 6f3e 0e08 953e d4a6 aa3c 68d4 143d
000002c0: 3ed9 e53d 497f 803d c911 293e 12b3 c0be
000002d0: 6bf2 4fbf 3b10 3b3f a331 1c3e b46c 24be
000002e0: 77f2 273f 1a7b 1d3f cc31 263f d97a 523f
000002f0: b7a7 f63e 0a2a 2b3f 0b11 293f b79f 4a40
00000300: c65e b93f 46c9 913f 4d46 9a3d 64c6 1a3f
00000310: 794e 623e 4694 443d 78ac 063f 7680 0a3e
00000320: a079 fb3d e612 ed3d ad3c bf3e cfd4 b83c
00000330: 08b7 09be fa6a d2bf a6c0 04be a224 f63e
00000340: fa4a 07bf 2d95 053f f364 2b3f 8d0d 3b3f
00000350: 903e 6a3e ce6c fd3e 1c1f d93e d459 633f
00000360: d175 5a40 df63 9c3f 8a9f 7a3f cbf8 27bf
00000370: e1ea 093f b8c4 92be fd0f 30be b37b 013f
00000380: 5b3b 8ebe 2ade 993e 89df 67bf 1317 c73e
00000390: f12a d83e efe9 25bf 1367 f1be bf85 953d
000003a0: 127f 02be f93d a43e 2267 953f 8636 673f
000003b0: 71ad 60bf 7e14 3abf d53c 5abf 8ca4 98bf
000003c0: 4aae 1a3f 94e1 d53f 876c 80c0 f82a e33e
000003d0: e8f6 01c0 728a bf3e 4679 0bc0 d132 3cbf
000003e0: 9590 88be 2bba 09bf 87b6 7b3d 7f05 183c
000003f0: a733 91bd 7422 8a3c 1d15 97be a65a b9bf
0.34192497 0.337895 0.034800205 0.54118145 -0.30447546 -0.6451688 0.0002485338 0.7036459
0.65091974 0.06812852 0.49073216 0.649377 1.153045 0.40453845 0.7680221 0.72023565
3.3164532 1.4082702 0.64191884 0.2745271 0.6181616 0.3308707 0.01588829 0.47857615
-0.037992075 -0.11398596 0.15704179 -0.42545033 0.081265114 -0.5481255 -0.43216884 -0.3536869
0.66846544 0.3088226 0.3162042 0.552866 0.62758136 1.1473638 0.4484047 0.7398221
0.74158996 3.081714 1.5110086 1.0490534 0.5221061 0.5499989 0.64612496 0.19895676
0.418441 0.06137403 0.22540495 0.07202693 0.4274351 0.19782503 -0.79825425 0.50202155
0.17030114 -1.0710005 0.9294151 -2.2940745 0.096830346 1.3073605 0.3563163 -0.40193763
-0.9911502 1.6291435 2.1576815 -3.7471 -0.6688077 -1.1061468 1.8234422 -0.7801585
1.1849667 -2.226116 0.8348123 -0.078172356 -0.006782148 0.066207826 0.1649901 -0.13787529
-1.4690546 -0.3844325 0.4018638 -0.34795865 0.5678074 0.469844 0.74093896 0.44353566
0.42813239 0.5430806 0.76543635 3.1899626 1.4424293 1.0177039 -0.49798882 0.5772737
-0.032104958 -0.13389571 0.38004065 -0.23767126 0.13901433 -0.9900854 0.38358545 0.79441106
-0.39047632 -0.39810348 -0.24787731 0.064230755 -0.014725853 1.3084928 1.1015869 -1.0523612
-0.4980474 -0.78535694 -0.9986033 0.15791257 1.6545951 -3.9392245 0.59154487 -2.2705438
0.23327288 -2.2774737 -0.9322504 -0.20784347 -0.93240124 0.2900004 -1.3943706 0.39028862
0.8327586 -0.68302757 0.51861584 0.036801614 -0.44102746 0.49896905 0.8612708 0.49985543
-1.6094205 -1.6602604 -0.7176676 -0.7885528 0.51464206 1.3490312 -3.4703476 0.094852455
-2.042557 0.45131814 -1.9640701 -0.47326052 -0.26456517 -0.6740919 0.15170828 -0.051699683
-0.042504344 -0.042729195 -0.08470827 -1.2183383 0.61793756 0.27900723 0.21704462 0.07894991
0.5881865 0.7376357 0.77232045 0.2857599 0.6463299 0.77381635 3.1327105 1.4761806
0.78406584 -0.35397908 0.66116476 -0.09626038 0.23428428 0.29107708 0.020831503 0.03633538
0.11223076 0.06274278 0.16510691 -0.3763662 -0.81229275 0.7307164 0.1525331 -0.16057092
0.65604347 0.61515963 0.64919734 0.822187 0.4817483 0.6686102 0.6604163 3.1659982
1.4482048 1.1389549 0.0753294 0.6045897 0.22100247 0.047992967 0.52606916 0.13525566
0.122790575 0.1157587 0.3735098 0.022562413 -0.13448727 -1.6438897 -0.12964115 0.48074824
-0.5284878 0.5218075 0.6695091 0.7306755 0.22875428 0.49497074 0.42406547 0.8880894
3.413441 1.2217978 0.9789969 -0.65614 0.5387402 -0.2866571 -0.17193599 0.50579375
-0.2777966 0.3005231 -0.9057546 0.38884792 0.42220262 -0.6481008 -0.47148952 0.07300901
-0.12743786 0.3207853 1.1672099 0.9031757 -0.8776465 -0.7268752 -0.8524907 -1.1925216
0.60422194 1.6709466 -4.013248 0.4436872 -2.030695 0.37410313 -2.179277 -0.7351504
-0.26672807 -0.53799695 0.06145337 0.009278654 -0.0708993 0.016862132 -0.29508296 -1.4480789

TextModel.0.bias f4 [32]
00000000: 009c 6640 9faa 6540 eff8 0740 4c98 5840
00000010: 1f43 3640 caef 5640 bde8 5840 7789 6240
00000020: dfaa 5340 2e94 4740 d58b 5040 9d27 2740
00000030: 14ac 6640 ea15 6440 3e9a 5640 a992 6340
00000040: a671 5840 42c5 7940 f182 5c40 c965 8740
00000050: dc60 f83f 8e32 7e40 b7e2 0640 bbc3 5e40
00000060: 4d97 4940 bb53 4140 19c4 6d40 7f7b 5840
00000070: ad15 6740 ca43 6240 5e5e 6e40 7239 9c40
3.6032715 3.588539 2.1245687 3.3842955 2.8478467 3.3583856 3.3892052 3.5396402
3.3073041 3.1184192 3.2585347 2.6117928 3.6042528 3.5638375 3.3531642 3.5558264
3.3819366 3.9026647 3.445492 4.231175 1.9404559 3.9718356 2.1075876 3.4806964
3.1498597 3.0207355 3.7150939 3.3825376 3.610698 3.5353875 3.7245097 4.8820124

TextModel.3.weight f4 [64, 32]
00000000: c911 9d3f 3eab a23f d990 3140 a672 cb3f
00000010: 3023 fc3f cca1 e73f 3a16 bf3f 8241 aa3f
00000020: 336a d53f 0fb0 ed3f d983 b83f 4b72 d73f
00000030: 2793 ac3f 41c3 0140 3cb1 ff3f a241 b63f
00000040: 87d2 d13f 576b d83f 9aa4 b73f c7a0 b13f
00000050: 633b ed3f eff0 bc3f 832c f83f 856e e23f
00000060: 438f e63f 5284 0540 fbd1 d63f 70fb d03f
00000070: 3f14 c63f f7b6 a93f dfff da3f e9fd ed3f
00000080: a9cd a83f 3600 bf3f feaa 4940 b94c d13f
00000090: eeb0 0040 e4bc db3f 42bd c23f 1fc1 d43f
000000a0: 8207 d33f 2d4d fb3f ec7e c73f 47d4 ec3f
000000b0: 6461 c93f afd8 0040 f591 0540 756b a93f
000000c0: 6a59 d63f 95b5 c43f ec95 a93f 3e1f ca3f
000000d0: e49f 0b40 e48d cd3f 22f8 0440 853f d13f
000000e0: 9bc2 c13f 0f2a fc3f a2a0 b43f df87 a53f
000000f0: b257 c73f d8f1 ab3f fbe9 cf3f 34f8 f83f
00000100: 73c8 bd3f ec4c a93f 0181 3a40 4582 c33f
00000110: 1c28 1240 193f fb3f 3e51 de3f 5a2a bb3f
00000120: 1052 e93f c3be 0240 d442 b93f b0fb ea3f
00000130: d0b7 b33f bf80 fa3f a595 fd3f b7e6 d13f
00000140: eb05 db3f 076e d53f a2aa c53f 5403 bb3f
00000150: 5832 0a40 6835 c33f b0fa 0340 14cf dc3f
00000160: 7bba cd3f 48af fc3f c9b8 b83f ffe1 b83f
00000170: 77c5 e13f 78cc bb3f 8a36 c83f 0a26 0140
00000180: 493e b93f e1dd bf3f fb18 4740 ec75 bb3f
00000190: df33 0040 a672 e13f 1542 c43f b33a ba3f
000001a0: 07b6 c33f c5c0 0840 432d ca3f a3e9 e63f
000001b0: 2629 a83f 9b16 fe3f ad72 fe3f da9c c43f
000001c0: 409a c03f 5c90 c73f a4f6 9f3f fb62 ad3f
000001d0: 9bbf 0040 8b70 c13f 80bb f13f 7f93 d03f
000001e0: 17c0 ee3f 5e0b 0440 417e cd3f 2713 a23f
000001f0: 94b0 c13f ea79 b43f cf76 e13f 9dad 0040
00000200: 0fd6 b33f e9dd bb3f 4b01 3840 8682 c63f
00000210: 699b f33f d60d f93f 480e d53f f3b8 c03f
00000220: 0b61 d13f 6324 fb3f 905d ce3f ca82 f43f
00000230: 7dd7 c23f c26b f73f b0c5 0d40 bc7d ba3f
00000240: 7a26 cb3f fc9a d33f 08c7 c13f 724b dc3f
00000250: 7fed 0b40 7956 be3f 2c65 0240 f43a eb3f
00000260: fbb8 c23f 958b f73f 057e a83f 8dea bb3f
00000270: a2aa d73f 8098 b63f 3553 cf3f bdb6 0040
00000280: ea49 c23f 9842 a63f a036 4440 dbc0 c33f
00000290: 846e fb3f 5274 ef3f c0ef cf3f 77d1 a63f
000002a0: c2ff e43f daf1 ec3f 3dbe c53f 934e ed3f
000002b0: a851 b53f 4f94 e83f 7921 fa3f 8b61 b23f
000002c0: a704 bd3f bed9 bd3f 8887 b23f 33af a53f
000002d0: b734 fb3f 6c24 ba3f 8c7b f93f dfd5 e23f
000002e0: 3bec c93f 43bd fe3f 9977 cc3f 1f81 c93f
000002f0: 0f45 b33f da8e b73f e603 c33f b1c8 e73f
00000300: f109 c73f 2ee1 b33f 705e 3f40 70ad b13f
00000310: 7cf6 0040 7fd6 e33f 5967 ce3f c0a8 af3f
00000320: 6f28 cc3f c84c f03f d5f9 c83f 6b4f fd3f
00000330: f4ab b43f 31c0 f53f 3183 0340 deb3 c63f
00000340: 0c32 c33f b5d0 d13f d648 a83f 7108 c93f
00000350: f65e 0040 c564 af3f f9d3 fe3f 7240 d63f
00000360: b564 e13f ace7 eb3f b516 c93f dc7d af3f
00000370: 80eb b63f c714 a73f 8d44 e03f 697e fa3f
00000380: 6b4e aa3f e04a 9d3f 3118 3240 8ac5 9a3f
00000390: 5a68 ed3f a9dd f23f 9823 bc3f 2c51 c73f
000003a0: 8798 a83f 8c5e 0340 8ced a73f 1fd9 ef3f
000003b0: 00fa b03f 2e12 0440 5676 0340 64c7 c63f
000003c0: 373b bd3f a5a4 b73f dc76 9c3f 386a b63f
000003d0: 4d75 fe3f 826a a63f 1fe3 e33f 279c c43f
000003e0: 54bb c33f 1471 e73f 6da6 9d3f 5814 983f
000003f0: 388b ae3f 78f6 be3f 461c d73f 2bb3 f33f
1.2271053 1.2708509 2.7744658 1.5894363 1.9698238 1.8096251 1.4928658 1.3301241
1.6673034 1.8569354 1.4415237 1.6831754 1.3482407 2.0275424 1.9975963 1.423878
1.6392373 1.6907758 1.4347107 1.387719 1.8533748 1.4761027 1.9388584 1.7689978
1.801247 2.0862012 1.6782831 1.6326733 1.5474929 1.3258961 1.7109336 1.8593112
1.3187762 1.4921939 3.1510615 1.6351539 2.010799 1.716702 1.5214007 1.6621436
1.6486666 1.9632927 1.5585608 1.8502282 1.5732846 2.0132253 2.0870335 1.3235918
1.6746037 1.5367914 1.3248878 1.5790784 2.181634 1.6058927 2.0776448 1.634751
1.5137514 1.9700335 1.4111521 1.293209 1.5573637 1.343318 1.624328 1.9450746
1.4826797 1.32266 2.9141238 1.527413 2.283698 1.9628631 1.7368543 1.46223
1.8228168 2.0428932 1.4473519 1.8358059 1.404047 1.957054 1.9811293 1.6398534
1.7111181 1.6674203 1.5442698 1.4610391 2.1593227 1.5250673 2.0621758 1.7250695
1.6072534 1.9740992 1.4431392 1.4443969 1.7638386 1.4671774 1.5641644 2.0179467
1.4472133 1.4989587 3.1108997 1.4645362 2.003166 1.7613113 1.5332667 1.4549164
1.5289925 2.1367657 1.5795063 1.804005 1.3137558 1.9850649 1.9878746 1.5360367
1.5047073 1.559093 1.2497144 1.3545831 2.0116947 1.511247 1.8885345 1.6295012
1.8652371 2.0631938 1.6054155 1.2662095 1.5132012 1.4099705 1.7614383 2.0105965
1.40497 1.4677097 2.875079 1.5508583 1.9031802 1.9457347 1.6644983 1.5056442
1.635774 1.9620479 1.6122303 1.9102414 1.5222012 1.932976 2.215191 1.4569621
1.5871117 1.6531672 1.5138865 1.7210524 2.1863706 1.4870139 2.037425 1.8377366
1.5212702 1.9339472 1.3163458 1.4680954 1.6848948 1.4265289 1.6197268 2.0111535
1.5178807 1.2989073 3.065834 1.529323 1.9643102 1.8707373 1.6245041 1.3032674
1.7890551 1.8511307 1.5448681 1.8539604 1.4165545 1.817026 1.9541465 1.3936018
1.4767045 1.4832075 1.3947611 1.2944092 1.9625462 1.4542365 1.9490829 1.7721518
1.5775217 1.9901508 1.5973998 1.574253 1.400545 1.434047 1.5235565 1.8108121
1.5549909 1.4053094 2.990139 1.3881054 2.0150442 1.7799834 1.6125289 1.3723373
1.5949839 1.8773432 1.5701243 1.9789861 1.4114976 1.9199277 2.0548823 1.5523641
1.5249648 1.6391817 1.3147228 1.5705701 2.005796 1.3702627 1.9908439 1.6738417
1.7608858 1.8430076 1.5710055 1.3710284 1.4290619 1.3053216 1.752092 1.9569827
1.3305181 1.2288475 2.7827265 1.2091534 1.854747 1.8973895 1.4698362 1.5571647
1.3171548 2.0526457 1.3119369 1.8738135 1.3826294 2.0636096 2.0540977 1.5529599
1.4783696 1.434712 1.2223773 1.4251165 1.9879547 1.3001254 1.7803687 1.5360154
1.5291543 1.8081384 1.2316414 1.1881208 1.3636236 1.4918966 1.6805503 1.9039053

TextModel.3.bias f4 [64]
00000000: 6ab3 b140 ad5f ae40 3a63 ac40 ee02 af40
00000010: 804c af40 54b7 b740 ce17 b440 4219 aa40
00000020: 539f af40 bf7f b140 40e3 ae40 7270 b040
00000030: b83c b140 b61a b140 f662 b140 9217 b440
00000040: cae4 b640 0698 b440 442c b440 2d2f b540
00000050: c8a9 b240 e849 b040 73fd ae40 701f b440
00000060: 0bec b040 272a af40 833f b040 a2c6 b440
00000070: 6909 b440 ecfd b640 8a61 b140 e533 b240
00000080: 7fe2 b040 7bff b040 4f71 ae40 d874 b740
00000090: 0a75 ad40 72a8 b640 3b0b b740 23ef b340
000000a0: 0323 b640 c1bc b540 a1b7 b540 cb69 b540
000000b0: 532f b440 7b77 b240 8e5c b340 8f58 b340
000000c0: 0721 b740 4106 b940 8425 b040 fd7e b040
000000d0: 8c7a ab40 cde9 b640 a839 aa40 db4a af40
000000e0: 3a7c b640 4e53 b340 69a5 b140 7d49 ae40
000000f0: 96ab ab40 8117 b640 35a0 ad40 1e37 b740
5.553151 5.449179 5.3871126 5.4691076 5.4780884 5.741129 5.627906 5.315583
5.4881988 5.546844 5.4652405 5.513726 5.538662 5.5345106 5.54333 5.627877
5.7154284 5.6435575 5.6304035 5.662009 5.5832253 5.5090218 5.4684386 5.6288376
5.528814 5.4738955 5.507753 5.649247 5.6261487 5.7184963 5.5431566 5.568835
5.5276484 5.5311866 5.4513316 5.733013 5.420537 5.708062 5.720121 5.6229415
5.691774 5.6792912 5.6786656 5.669164 5.630777 5.577085 5.605048 5.6045604
5.7227817 5.7820134 5.5045795 5.5155015 5.3587093 5.71604 5.319538 5.4778876
5.7026644 5.603919 5.5514417 5.4464707 5.3646955 5.690369 5.4258065 5.725478

TextModel.6.weight f4 [32, 64]
00000000: 4e1a e53f 34e6 df3f ff29 dd3f de92 e93f
00000010: 3c4f e63f 6615 fb3f d341 e03f 1c3b cd3f
00000020: 8dbc ec3f b431 e33f d2f1 d63f fa5d e93f
00000030: 8e28 dc3f f71b d93f 6ca3 d03f 94d7 e83f
00000040: 9ea9 e73f 3ae3 d33f 7ebf e83f fee4 f03f
00000050: 1c92 e93f 7ff1 d23f ddf7 e43f 6695 da3f
00000060: 1e17 d83f d169 dd3f d01d f33f 7786 db3f
00000070: 2203 db3f 2e66 d63f 7182 ce3f 73c8 d43f
00000080: 85e7 e33f f1da dd3f abe9 e43f 89c4 e93f
00000090: ad6c f13f bdea e73f d15c e83f baf6 e73f
000000a0: 2d78 dd3f 2b66 dc3f 45cb e63f 3b02 db3f
000000b0: f0df f03f 6d75 cb3f cf05 de3f a8da df3f
000000c0: bd27 dd3f 4308 d73f 6fce e43f 61de d63f
000000d0: 7d61 d13f 0a64 f83f e4ef ca3f e483 eb3f
000000e0: b3df f23f 1c1a f53f 762e da3f 36cd d83f
000000f0: dc81 e53f 4368 dc3f 4637 df3f 1450 e23f
00000100: 5f1d cf3f bfe1 c53f 5675 db3f b876 ea3f
00000110: 32d2 e13f 2d9e e83f 6a04 de3f 31e0 c83f
00000120: 151b db3f e774 ed3f 23a5 ee3f f0ae e53f
00000130: 94e1 ce3f 7a83 e53f 9f69 db3f 82a8 dd3f
00000140: 9945 e03f 56af d43f 9064 d53f 1c2a e43f
00000150: a8b3 db3f 0dc6 c03f eab0 ed3f 9feb db3f
00000160: 7afa e03f a181 d83f 2487 f13f 5bdd d43f
00000170: c724 d33f a2d0 da3f 1bf4 d23f 29e0 c73f
00000180: 6ab0 dd3f 12af d03f cb56 d23f d961 df3f
00000190: 3777 c23f be14 e63f 5a63 ed3f 0ebb ce3f
000001a0: 27b1 d93f ed7d bf3f 5446 de3f cb12 ef3f
000001b0: bddc f03f d35e d83f 94de e43f 5e11 f13f
000001c0: 1c7c de3f 653d d43f ef87 ce3f 0392 db3f
000001d0: 408b e13f 6103 ef3f 99af c73f 7008 e63f
000001e0: 5817 d13f 745c e13f a7e6 de3f 6a9c cc3f
000001f0: aac6 e63f 27f5 dc3f d351 d43f 458a d53f
00000200: a222 e03f 1d8b db3f a776 de3f 9331 d73f
00000210: e704 d63f 68aa f53f 1b7b d73f 0e53 cc3f
00000220: f8cd e13f 34e1 e03f 2722 de3f 5496 d53f
00000230: eb94 d53f 8e82 ec3f 547e da3f 13dc ef3f
00000240: 04e4 e63f 23ed e43f 3903 e53f 8606 dc3f
00000250: 3e06 e23f ed85 e03f e16f ed3f 5bb5 e83f
00000260: aa5f d13f 3ba1 eb3f e51e dc3f 7c6e eb3f
00000270: d980 de3f a60b f13f d1e5 cd3f b14e c93f
00000280: fbfd e63f 1d7a ee3f f5c8 da3f 6488 f03f
00000290: 024a e13f acb4 da3f 6ef7 dc3f 7bdf e43f
000002a0: 35ae e73f d24f f03f 32bb d83f 2a68 d73f
000002b0: a450 de3f 2a08 df3f 891b e33f fffb cf3f
000002c0: a017 e23f 50aa e23f 4584 df3f c534 e83f
000002d0: 7ea0 ea3f 5686 dd3f 352f cb3f 165d e93f
000002e0: c83b db3f 5f35 ea3f 2154 d23f bec7 e83f
000002f0: 33b5 ee3f bd8e d93f 0276 e03f 9772 cd3f
00000300: d89e d93f ca1f cd3f 5499 da3f 3491 e23f
00000310: 0567 cc3f 6236 cc3f 0dea c03f 61ee c23f
00000320: ecf6 e03f 36e9 df3f ce3e f13f 6897 c43f
00000330: e579 d23f b779 d93f 7968 c73f 3aa5 de3f
00000340: 23ef cf3f ed76 ea3f 9335 d93f 9ab8 eb3f
00000350: c01e e03f 9554 d43f 8b75 f03f 832e dd3f
00000360: a0f0 d53f 81eb e03f 0941 cf3f 51af de3f
00000370: ebe6 c43f 134c f03f 4948 c93f 543b ca3f
00000380: 124f dc3f 213f d83f 9178 e43f 4c83 e63f
00000390: 3016 de3f 8431 cc3f 64ad d53f 526e d43f
000003a0: 2974 e43f d6d0 d63f 4189 d83f 7b59 db3f
000003b0: 5c4b da3f 0e1c c83f 4c05 f23f 5574 d53f
000003c0: 998a ee3f 7e4c d33f 052a de3f 5430 d53f
000003d0: 8cde db3f bf4a da3f ab76 c33f 693e df3f
000003e0: ebb2 c83f 846b eb3f 6590 d93f 27af da3f
000003f0: 1d32 ea3f 03fa cc3f ea9d e83f 01bf d23f
1.7898653 1.7492127 1.7278441 1.8247945 1.799293 1.9615905 1.7520088 1.6033664
1.8495041 1.7749543 1.6792548 1.8231804 1.7199876 1.6961659 1.6299872 1.8190789
1.8098638 1.6553719 1.8183439 1.8819883 1.8247714 1.6479949 1.7888142 1.7076843
1.6882055 1.7297918 1.8993473 1.715041 1.7110331 1.6749933 1.6133558 1.6623672
1.7805029 1.7332441 1.788381 1.8263103 1.886129 1.8118511 1.8153325 1.812217
1.73023 1.7218679 1.8030783 1.7110056 1.881834 1.589521 1.7345523 1.7488604
1.7277752 1.6799396 1.7875499 1.6786615 1.6357876 1.940553 1.5854459 1.8399625
1.8974518 1.9148593 1.7045429 1.6937625 1.7930255 1.7219318 1.7438743 1.7680688
1.6180838 1.5459517 1.7145183 1.831748 1.7642272 1.8173271 1.7345097 1.5693418
1.711764 1.8551301 1.8644146 1.7944012 1.6162591 1.7930748 1.7141608 1.731705
1.752124 1.6616008 1.6671314 1.7825351 1.7164202 1.506044 1.8569615 1.7181281
1.7576439 1.691456 1.8869367 1.6630052 1.6495599 1.709492 1.6480745 1.5615283
1.7319462 1.6303427 1.6432737 1.7451736 1.5192631 1.797508 1.8545945 1.6150835
1.7007188 1.4960304 1.7365212 1.867761 1.8817364 1.6903938 1.7880425 1.8833425
1.7381625 1.6581236 1.6135234 1.7153934 1.7620621 1.8672906 1.5600463 1.7971325
1.6335249 1.760634 1.741414 1.5985234 1.8029377 1.7262315 1.6587471 1.6682822
1.7510569 1.7151829 1.737996 1.6812004 1.6720246 1.9192629 1.6834444 1.5962846
1.7640982 1.7568727 1.7354172 1.6686502 1.6686071 1.8477342 1.7069802 1.8739036
1.8038335 1.7884868 1.7891608 1.7189491 1.7658155 1.7540871 1.8549768 1.8180345
1.6357319 1.8408579 1.7196928 1.8393092 1.7383071 1.883168 1.6085759 1.572714
1.8046259 1.8631016 1.7092577 1.8791623 1.760071 1.7086387 1.726301 1.7880701
1.8100039 1.8774359 1.6932127 1.6828663 1.736836 1.7424366 1.7742778 1.6248778
1.766346 1.7708225 1.746224 1.8141104 1.8330228 1.7306621 1.5873781 1.8231533
1.7127619 1.8297538 1.6431924 1.8185956 1.8649048 1.6996685 1.7536013 1.6050595
1.70016 1.6025326 1.7078042 1.7700562 1.5968939 1.5954096 1.5071427 1.5228997
1.7575355 1.7493045 1.8847291 1.5358706 1.6443449 1.699027 1.5578758 1.7394173
1.6244854 1.8317543 1.6969475 1.8415711 1.7509384 1.6588312 1.8785871 1.7279819
1.6714058 1.757187 1.6191722 1.7397252 1.538297 1.8773216 1.5725185 1.5799356
1.721163 1.6894265 1.7849294 1.8008819 1.7350521 1.5952611 1.669354 1.6596167
1.7847949 1.6782482 1.6916887 1.7136682 1.7054248 1.5633562 1.8907866 1.6676127
1.8636047 1.6507719 1.7356573 1.6655374 1.7177291 1.7054061 1.527059 1.7440921
1.5679601 1.8392186 1.6997191 1.7084702 1.8296543 1.6013798 1.8173192 1.646454

TextModel.6.bias f4 [32]
00000000: 3af4 b640 3a5e b440 5512 b740 072f ba40
00000010: 77cd be40 0454 bb40 7e56 8fbd b104 b440
00000020: e643 b740 d5b8 f7bd 77c8 cb3c f258 b440
00000030: 1195 3b3d 9c1c b340 8914 853c f991 af3d
00000040: 7094 9dbd 7599 af40 1ee3 cd40 4b2e b040
00000050: e3b9 b740 6af1 b140 3439 b040 1b92 b840
00000060: 8c8e b640 570d 6bbd f083 6ebb 0d86 b640
00000070: e2f3 b640 3c41 443d 054d e6bd f7be c7bc
5.717313 5.6365023 5.720988 5.8182406 5.962581 5.854006 -0.06998919 5.6255727
5.7270384 -0.12095801 0.024875863 5.6358576 0.045796458 5.5972424 0.016245143 0.08572764
-0.07694328 5.4874825 6.4339743 5.505651 5.7414412 5.5607195 5.506983 5.767835
5.7049007 -0.05738577 -0.003639456 5.7038636 5.717271 0.047913775 -0.11245159 -0.024383051

TextModel.9.weight f4 [1, 32]
00000000: 11f9 0140 d6b6 0040 91ed fc3f cb05 f63f
00000010: 9825 ec3f e362 fa3f c1f3 b3bd d272 fd3f
00000020: 2fb5 0240 a101 30bd 918f f7bd 2939 0240
00000030: c782 d1bd 209e fb3f 7ead cebd 99ec e2bc
00000040: 39bf cebc 77bb 0440 4848 f43f 6b1e 0140
00000050: 31a1 fa3f d7d8 fe3f 1bfb fd3f 5bc9 0040
00000060: 9d37 0640 fbe4 63bc 8669 db3c a407 fd3f
00000070: ddf3 0540 2d2f 77bc ee06 97bd 1743 92bd
2.0308268 2.0111594 1.976 1.9220518 1.8448973 1.9561428 -0.08786727 1.9800665
2.0423086 -0.042970303 -0.1208793 2.0347388 -0.10230022 1.9657631 -0.10091685 -0.02770071
-0.025237666 2.073942 1.9084558 2.0174816 1.9580442 1.9909924 1.9842256 2.0122898
2.0971444 -0.013909574 0.026783716 1.9767957 2.0930092 -0.015086931 -0.073743686 -0.071417026
