models/MLPModel_Regularization/state_dict.pt (torch, 23213 bytes, 7 tensors)

TextModel.0.weight f4 [32, 25]
0.28360322 0.24165408 -0.045289073 0.44777316 -0.4134161 -0.85454464 0.13231406 0.4665081
0.651913 0.022830527 0.5285756 0.50639576 1.2340221 0.3027199 0.73342824 0.54516363
3.411634 1.372067 0.7261685 0.36414337 0.41505566 0.47663283 0.05312566 0.4417571
-0.008304359 -0.12742415 0.18825181 -0.37096104 0.081860796 -0.5954947 -0.7794564 -0.27791843
0.40815422 0.018516932 0.41785732 0.57046616 0.6648235 1.2386236 0.2535397 0.584275
0.63975286 3.1936483 1.4020084 1.0899785 0.5263329 0.441774 0.6747809 0.2863406
0.5677242 0.17196564 0.31853026 -0.63429666 0.5163583 0.3595168 -0.8003332 -0.29511112
-0.07448981 0.07285565 -1.1640266e-05 0.65298146 0.7305708 -0.79755634 -0.3168981 -0.52939636
-0.522312 0.70586133 2.0341916 -4.5990334 0.3461436 -1.7014059 0.9187445 -1.5760195
-0.856238 -0.5930351 -1.1008835 -0.12698965 -0.036969878 0.05128127 0.03586048 -0.17628124
-1.2366135 -0.3562234 0.030148089 -0.09469823 0.31747508 0.39517158 0.6928443 0.4202199
0.26686484 0.43857735 0.6426708 3.3879344 1.43135 0.93413687 -0.50225765 0.44226223
-0.010525054 -0.011637605 0.27858597 -0.10995396 0.2180406 -0.48538578 0.4687048 0.6616025
-0.43326375 -0.016753258 -0.28866664 0.034983054 0.009082451 0.99267113 0.95098776 -0.59114313
-0.20802924 -1.0005678 -1.0436393 0.40875855 1.8099087 -4.264549 0.3759764 -2.0324533
0.46724346 -2.035167 -0.80111635 -0.30907357 -0.77034134 0.434062 -0.95536083 0.54174125
0.7518028 -0.8503508 0.7444535 -0.09788983 -0.3218613 0.42279673 0.89188564 0.5569203
-1.414864 -1.0151302 -0.9138345 -0.7922266 0.6196917 1.3807273 -3.6188943 0.08543845
-1.6808629 0.53456867 -1.6310307 -0.4720003 -0.2985081 -0.63584477 0.09425671 -0.019466575
-0.040133074 0.47047254 -0.08111703 -1.2468535 0.5437895 0.30438277 0.4415328 -0.025333462
0.59382474 0.72152466 0.68139446 0.1802488 0.5531095 0.61619043 3.3642275 1.446938
0.7859725 -0.51734096 0.47370383 -0.21593505 0.2940598 0.23362504 0.08447038 0.10591902
0.09353996 0.15251651 0.09412173 -0.42821172 -0.855245 0.5808578 0.0133760655 0.012332261
0.466115 0.50880694 0.635121 0.7014415 0.27517378 0.648484 0.56780505 3.2658064
1.3929876 1.067722 -0.2461905 0.49990273 -0.061252348 0.017062288 0.4061684 0.107605405
0.05464719 0.15074612 0.3347898 0.116989814 -0.23702422 -1.4750692 -0.12189426 0.30506364
-0.38602036 0.3781306 0.6365625 0.73008245 0.40332636 0.31662384 0.40995654 0.7583289
3.5108414 1.1616442 0.9598706 -0.4802247 0.4140345 -0.073127225 -0.031087732 0.42993248
-0.13625869 0.47704095 -0.3310018 0.5713988 0.3213255 -0.73436 -0.20897703 0.0017451199
-0.02789916 0.11032025 1.0477808 0.888314 -0.4807342 -0.43103057 -0.89157283 -1.1845655
0.7530813 1.8138247 -4.1823545 0.36597458 -1.8727357 0.5003977 -2.0006583 -0.93161297
-0.25357184 -0.7027753 -0.12063414 0.043136206 -0.26140204 0.083631806 -0.39136958 -1.1086693
00000000: 7134 913e 2b74 773e 0981 39bd 8642 e53e
00000010: 46ab d3be 70c3 5abf 567d 073e 26da ee3e
00000020: c5e3 263f 1607 bb3c bb50 073f 27a3 013f
00000030: 70f4 9d3f 1afe 9a3e f4c1 3b3f d88f 0b3f
00000040: 3658 5a40 e49f af3f 2ee6 393f 0071 ba3e
00000050: 2d82 d43e 3809 f43e 4b9a 593d fd2d e23e
00000060: 020f 08bc 7a7b 02be 15c5 403e 9bee bdbe
00000070: a2a6 a73d 5772 18bf 748a 47bf 534b 8ebe
00000080: 97f9 d03e d2b0 973c 65f1 d53e 120a 123f
00000090: df31 2a3f 388b 9e3f f5cf 813e 0c93 153f
000000a0: d8c6 233f bc64 4c40 0375 b33f 6a84 8b3f
000000b0: c1bd 063f 3430 e23e 71be 2c3f 3c9b 923e
000000c0: 6056 113f c317 303e 6616 a33e 4461 22bf
000000d0: 0f30 043f 9612 b83e a3e2 4cbf ce18 97be
000000e0: 1d8e 98bd 5835 953d 904a 43b7 cb29 273f
000000f0: b006 3b3f a72c 4cbf 7840 a2be 8586 07bf
00000100: 3db6 05bf 54b3 343f 3230 0240 482b 93c0
00000110: bc39 b13e abc7 d9bf d732 6b3f 02bb c9bf
00000120: 6a32 5bbf 26d1 17bf c0e9 8cbf 9309 02be
00000130: ba6d 17bd 4f0c 523d 70e2 123d 1283 34be
00000140: 5a49 9ebf ea62 b6be 20f9 f63c 25f1 c1bd
00000150: 188c a23e ee53 ca3e 3e5e 313f 1027 d73e
00000160: 82a2 883e 368d e03e 1386 243f ebd3 5840
00000170: 7a36 b73f 9823 6f3f f593 00bf 3270 e23e
00000180: 4771 2cbc a7ab 3ebc d2a2 8e3e 8b2f e1bd
00000190: 0946 5f3e 7c84 f8be 13fa ef3e c85e 293f
000001a0: bfd4 ddbe 213e 89bc 1dcc 93be 644a 0f3d
000001b0: 90ce 143c b21f 7e3f ef73 733f 2855 17bf
000001c0: 9e05 55be 9b12 80bf f995 85bf cd48 d13e
000001d0: 17ab e73f 2f77 88c0 fb7f c03e b713 02c0
000001e0: 893a ef3e 2d40 02c0 f615 4dbf e43e 9ebe
000001f0: 1735 45bf 603d de3e 8792 74bf 8eaf 0a3f
00000200: 2676 403f 97b0 59bf 8194 3e3f 777a c8bd
00000210: 01cb a4be d078 d83e 9e52 643f 5492 0e3f
00000220: 431a b5bf c9ef 81bf 0ff1 69bf 5dcf 4abf
00000230: 1ea4 1e3f acbb b03f f79b 67c0 5bfa ae3d
00000240: 8426 d7bf 7ed9 083f 9dc5 d0bf 06aa f1be
00000250: 0ed6 98be b9c6 22bf a909 c13d 5e78 9fbc
00000260: 9462 24bd c7e1 f03e af20 a6bd e598 9fbf
00000270: ca35 0b3f 0fd8 9b3e 9610 e23e 1f88 cfbc
00000280: e604 183f d7b5 383f de6f 2e3f 2493 383e
00000290: 9698 0d3f a8be 1d3f 814f 5740 4435 b93f
000002a0: 7e35 493f 7570 04bf 4f89 f23e 141e 5dbe
000002b0: 028f 963e 673b 6f3e cefe ac3d 12ec d83d
000002c0: e191 bf3d 4a2d 1c3e e5c2 c03d 913e dbbe
000002d0: 56f1 5abf 19b3 143f 4927 5b3c 400d 4a3c
000002e0: a0a6 ee3e 2c41 023f 4a97 223f ac91 333f
000002f0: 94e3 8c3e 0c03 263f ac5b 113f f902 5140
00000300: 6b4d b23f 1dab 883f 5d19 7cbe 40f3 ff3e
00000310: bee3 7abd 36c6 8b3c 4ef5 cf3e 3960 dc3d
00000320: bbd5 5f3d 315d 1a3e 9269 ab3e 5b98 ef3d
00000330: 7ab6 72be 11cf bcbf b3a3 f9bd 4d31 9c3e
00000340: 76a4 c5be 569a c13e c3f5 223f afe6 3a3f
00000350: cb80 ce3e 851c a23e d3e5 d13e d821 423f
00000360: a0b1 6040 c2b0 943f 14ba 753f 03e0 f5be
00000370: 54fc d33e bac3 95bd b3ab febc 1c20 dc3e
00000380: 6687 0bbe b63e f43e 1179 a9be 3147 123f
00000390: c784 a43e 04ff 3bbf 13fe 55be 82bc e43a
000003a0: c78c e4bc 95ef e13d ae1d 863f 8c68 633f
000003b0: cb22 f6be 0ab0 dcbe 1e3e 64bf d89f 97bf
000003c0: f0c9 403f 682b e83f d9d5 85c0 0561 bb3e
000003d0: ceb5 efbf 101a 003f c90a 00c0 307e 6ebf
000003e0: 2bd4 81be 15e9 33bf 080f f7bd 97af 303d
000003f0: 7dd6 85be 2747 ab3d 9861 c8be e0e8 8dbf

TextModel.0.bias f4 [32]
3.7037158 3.5877585 2.4722676 3.6158834 2.5546746 3.0478554 3.6055212 3.7568517
3.5157478 2.436972 3.650468 2.2676048 3.6964805 3.0548556 3.7039144 3.7769275
3.6404846 4.3208127 3.986598 4.587357 1.6073606 4.2126474 1.4950718 3.8070695
3.0749702 2.4786596 4.15283 3.515976 3.7371228 3.8704817 3.8394225 2.5641425
00000000: ae09 6d40 d69d 6540 a239 1e40 a26a 6740
00000010: ca7f 2340 1010 4340 dcc0 6640 4270 7040
00000020: 0302 6140 59f7 1b40 45a1 6940 7020 1140
00000030: 2393 6c40 c182 4340 ef0c 6d40 2eb9 7140
00000040: b3fd 6840 1944 8a40 6c24 7f40 a1cb 9240
00000050: febd cd3f 02ce 8640 835e bf3f 07a7 7340
00000060: 50cc 4440 5ca2 1e40 fce3 8440 c005 6140
00000070: 052d 6f40 f9b5 7740 19b9 7540 e91a 2440

TextModel.3.weight f4 [64, 32]
1.1222837 1.2080393 1.7708465 1.550425 1.8691666 1.7819129 1.5259308 1.2518578
1.602695 1.7911859 1.3716301 1.4382842 1.3440942 1.8840376 1.7325282 1.3760291
1.6802891 1.6453218 1.4918628 1.3252989 1.621305 1.3567885 1.7666059 1.7240839
1.8184966 1.8835616 1.7698524 1.6034542 1.516441 1.2661467 1.6904193 2.2740545
1.2780955 1.3996964 2.1929088 1.5883669 1.8621414 1.6399869 1.4695067 1.5807219
1.503551 1.9949632 1.517799 1.5988607 1.5328137 1.9168818 1.9084282 1.276264
1.4583853 1.4933224 1.2694877 1.4394425 1.9444425 1.5680391 1.9519885 1.6586903
1.610466 1.8038553 1.41207 1.3700159 1.467844 1.235571 1.6076556 2.476101
1.4462526 1.339196 1.9372433 1.4077913 2.1698656 1.9347497 1.8437835 1.4891688
1.7780963 2.0110695 1.5532677 1.5448177 1.3381512 1.8718982 1.7983643 1.615249
1.7078623 1.7274551 1.5215428 1.5135783 1.9747404 1.5735015 1.8454199 1.7062839
1.7638484 1.8334413 1.4710147 1.4552839 1.7807013 1.5296738 1.5596994 2.3398144
1.40823 1.4914001 2.1419778 1.4515508 1.850419 1.7417753 1.6224133 1.4650353
1.3574315 2.0775676 1.5887723 1.5789931 1.2690824 1.9103588 1.924383 1.5652872
1.4154487 1.4640968 1.3197008 1.4059415 1.8081338 1.4465945 1.8141906 1.6770052
1.9726418 1.9164745 1.7014179 1.3221186 1.526544 1.4204731 1.6527456 2.3264487
1.3387201 1.4182119 1.7900071 1.4072769 1.6997496 1.9532775 1.5781683 1.4033865
1.5209506 1.9435257 1.5679978 1.7263635 1.4640536 1.8634336 1.990594 1.3000492
1.3985714 1.5722928 1.552444 1.5932376 2.006197 1.2926573 1.892251 1.8589646
1.5422614 1.8098768 1.2865928 1.4437507 1.5017918 1.3286307 1.4656069 2.2462828
1.3248436 1.1621716 2.0802498 1.4872152 1.7548562 1.7967757 1.5834454 1.2133728
1.6043636 1.8455243 1.53462 1.6816386 1.2363479 1.7063683 1.8129003 1.2942125
1.3584365 1.3208655 1.3297704 1.1808517 1.6742883 1.2451677 1.6874406 1.8015696
1.7118794 1.8426372 1.6648024 1.5549763 1.3079189 1.357369 1.3618941 2.1650932
1.537661 1.4762592 2.1480584 1.552913 1.9937316 1.8110731 1.7163748 1.2463509
1.6138372 1.9542273 1.5787343 1.7906538 1.3976275 1.8814801 1.9689099 1.5174348
1.4621239 1.5752292 1.4432073 1.5140603 1.8873562 1.3741497 1.8357072 1.6820824
1.8598031 1.7400062 1.6224345 1.4456156 1.4655778 1.3599211 1.7821006 2.2377083
1.3298965 1.2647467 1.8117152 1.3153023 1.7434952 1.8774486 1.5409905 1.6478485
1.3119351 2.052947 1.4235244 1.7064549 1.4589326 2.0559413 1.9507779 1.5842654
1.530349 1.4121566 1.3224342 1.4921987 1.8379259 1.3383904 1.6617707 1.6038187
1.5933212 1.6825776 1.3725337 1.2868791 1.3922832 1.6069092 1.6916488 2.3940132
00000000: fea6 8f3f 08a1 9a3f 19ab e23f 5474 c63f
00000010: da40 ef3f b915 e43f b351 c33f e03c a03f
00000020: 1c25 cd3f 9445 e53f 9391 af3f b219 b83f
00000030: 470b ac3f 2528 f13f 7cc3 dd3f b921 b03f
00000040: b713 d73f e899 d23f 5cf5 be3f 65a3 a93f
00000050: ec86 cf3f 3fab ad3f 2420 e23f c8ae dc3f
00000060: 7fc4 e83f 8c18 f13f 868a e23f fd3d cd3f
00000070: bd1a c23f 1811 a23f a95f d83f 1c8a 1140
00000080: a298 a33f 4029 b33f 9e58 0c40 9b4f cb3f
00000090: a65a ee3f 17eb d13f cc18 bc3f 1855 ca3f
000000a0: 5c74 c03f f45a ff3f 3d47 c23f 78a7 cc3f
000000b0: 3d33 c43f 625c f53f 6047 f43f 9e5c a33f
000000c0: 5fac ba3f 3025 bf3f 937e a23f a73f b83f
000000d0: 7ee3 f83f 81b5 c83f c2da f93f f74f d43f
000000e0: c023 ce3f bbe4 e63f b6be b43f ae5c af3f
000000f0: 50e2 bb3f 3127 9e3f a9c7 cd3f 7078 1e40
00000100: ce1e b93f c66a ab3f 97f7 f73f 8132 b43f
00000110: 14df 0a40 e1a5 f73f 1901 ec3f 159d be3f
00000120: a998 e33f 5db5 0040 7ad1 c63f 96bc c53f
00000130: 8a48 ab3f 5c9a ef3f cd30 e63f 7bc0 ce3f
00000140: 3b9b da3f 401d dd3f eac1 c23f efbc c13f
00000150: 4bc4 fc3f 7f68 c93f b836 ec3f 8367 da3f
00000160: c9c5 e13f 34ae ea3f 364a bc3f be46 ba3f
00000170: 05ee e33f 5acc c33f 3ba4 c73f 85bf 1540
00000180: e140 b43f 33e6 be3f 2a16 0940 6bcc b93f
00000190: 88da ec3f 7ef2 de3f 3dab cf3f 4786 bb3f
000001a0: 51c0 ad3f def6 0440 e45c cb3f 721c ca3f
000001b0: 4b71 a23f a386 f43f 2f52 f63f 555b c83f
000001c0: 6c2d b53f 8667 bb3f f5eb a83f e4f5 b33f
000001d0: ee70 e73f 022a b93f 6637 e83f 1ba8 d63f
000001e0: 877f fc3f 094f f53f 10c8 d93f 2f3b a93f
000001f0: cb65 c33f 10d2 b53f 2b8d d33f 89e4 1440
00000200: 2e5b ab3f f887 b53f f41e e53f a621 b43f
00000210: 6591 d93f ff04 fa3f 6b01 ca3f 2ba2 b33f
00000220: 82ae c23f 73c5 f83f 27b4 c83f 7bf9 dc3f
00000230: 1c66 bb3f fe84 ee3f c9cb fe3f 0368 a63f
00000240: 6304 b33f e440 c93f 7cb6 c63f 36ef cb3f
00000250: 8865 0040 cb75 a53f 4835 f23f 8df2 ed3f
00000260: d268 c53f 0baa e73f 13af a43f d3cc b83f
00000270: b73a c03f 9210 aa3f 0299 bb3f 19c3 0f40
00000280: 7a94 a93f 0ac2 943f d022 0540 115d be3f
00000290: 219f e03f bffc e53f 57ae ca3f cd4f 9b3f
000002a0: c95b cd3f 243a ec3f 6e6e c43f ef3f d73f
000002b0: a640 9e3f 476a da3f 1e0d e83f c1a8 a53f
000002c0: 3fe1 ad3f 1f12 a93f eb35 aa3f 2626 973f
000002d0: 144f d63f a861 9f3f 0efe d73f d599 e63f
000002e0: dd1e db3f 89db eb3f 3f18 d53f 7709 c73f
000002f0: e369 a73f 44be ad3f 8c52 ae3f e390 0a40
00000300: 13d2 c43f 10f6 bc3f ca79 0940 dac5 c63f
00000310: 9932 ff3f 3ed1 e73f 2bb2 db3f 6d88 9f3f
00000320: 3892 ce3f 1f24 fa3f f713 ca3f 2534 e53f
00000330: 75e5 b23f 57d4 f03f 3d05 fc3f 4e3b c23f
00000340: e026 bb3f 1ca1 c93f 04bb b83f bacc c13f
00000350: e394 f13f 23e4 af3f 74f8 ea3f 7a4e d73f
00000360: 070e ee3f 86b8 de3f efab cf3f ef09 b93f
00000370: 0e98 bb3f e511 ae3f df1b e43f 9d36 0f40
00000380: 0c3a aa3f 38e3 a13f 49e6 e73f d35b a83f
00000390: da2a df3f 3c50 f03f 2d3f c53f b3ec d23f
000003a0: 7ded a73f 7c63 0340 0c36 b63f 1d6d da3f
000003b0: 4ebe ba3f 8b94 0340 17b3 f93f 35c9 ca3f
000003c0: 7ae2 c33f 8cc1 b43f 8645 a93f 5e00 bf3f
000003d0: 2841 eb3f 6050 ab3f e7b4 d43f ee49 cd3f
000003e0: f3f1 cb3f b45e d73f 2faf af3f 74b8 a43f
000003f0: 5636 b23f 33af cd3f f387 d83f 8337 1940

TextModel.3.bias f4 [64]
7.5702786 7.434987 7.4807143 7.494793 7.5576177 7.66064 7.7129245 7.418586
7.3845615 7.6351295 7.5475736 7.557475 7.556246 7.565794 7.694551 7.6977873
7.723934 7.7727585 7.7233324 7.6428485 7.570885 7.5797706 7.445215 7.733199
7.5614815 7.498927 7.6007323 7.6240263 7.7410684 7.704833 7.628191 7.6931677
7.546281 7.5508738 7.497608 7.827866 7.4737744 7.765486 7.7309155 7.7780027
7.7339787 7.7616644 7.7486567 7.7741756 7.6106706 7.6212425 7.632407 7.662051
7.7825785 7.7651467 7.552495 7.594454 7.406788 7.756685 7.3995523 7.4189157
7.7929487 7.636652 7.5997567 7.458421 7.471132 7.704419 7.3590007 7.7929277
00000000: b93f f240 6aeb ed40 0362 ef40 58d5 ef40
00000010: 01d8 f140 f623 f540 47d0 f640 0e65 ed40
00000020: 544e ec40 fb52 f440 b985 f140 d6d6 f140
00000030: c4cc f140 fc1a f240 c339 f640 4654 f640
00000040: 782a f740 70ba f840 8a25 f740 3792 f440
00000050: b144 f240 7b8d f240 343f ee40 5e76 f740
00000060: a8f7 f140 36f7 ef40 3339 f340 06f8 f340
00000070: d5b6 f740 fe8d f640 241a f440 6e2e f640
00000080: 227b f140 c2a0 f140 68ec ef40 e17d fa40
00000090: 2929 ef40 dc7e f840 a963 f740 66e5 f840
000000a0: c17c f740 8e5f f840 fff4 f740 0cc6 f840
000000b0: 9d8a f340 38e1 f340 ae3c f440 862f f540
000000c0: e20a f940 157c f840 0aae f140 c405 f340
000000d0: 6804 ed40 c336 f840 22c9 ec40 c267 ed40
000000e0: d65f f940 745f f440 3531 f340 63ab ee40
000000f0: 8313 ef40 9a8a f640 ef7c eb40 aa5f f940

TextModel.6.weight f4 [32, 64]
1.7197899 1.6216978 1.6541212 1.7223252 1.652366 1.7362173 1.6154189 1.5899391
1.7175934 1.6308743 1.6012961 1.7353429 1.6615936 1.5658324 1.6642984 1.7705454
1.6867537 1.5745549 1.768683 1.7696316 1.8964136 1.5073742 1.7558926 1.6903238
1.5657673 1.6118084 1.8348835 1.5961205 1.7382442 1.5924902 1.5225148 1.6508795
1.7562711 1.6744471 1.8246797 1.6745379 1.698955 1.8161582 1.786903 1.810536
1.7646744 1.6741642 1.6463854 1.6966583 1.7797931 1.4467307 1.6598818 1.5801997
1.6279721 1.6252611 1.7033288 1.5412562 1.6246543 1.9604818 1.5520375 1.7338984
1.8111767 1.915995 1.7021608 1.6078278 1.7038476 1.6337065 1.6536399 1.8200321
1.5760455 1.379419 1.6491307 1.7474018 1.6285447 1.728657 1.709534 1.5861638
1.6189383 1.6825957 1.7570394 1.7422814 1.5371104 1.7470028 1.7541671 1.7087932
1.8233079 1.6788033 1.6594056 1.6884487 1.7200902 1.4417872 1.7796899 1.7818928
1.7677593 1.7347311 1.8658962 1.6806964 1.7171068 1.6288056 1.6370466 1.580577
1.6353899 1.7259583 1.7531556 1.726957 1.468069 1.7434635 1.8510288 1.6412737
1.7608911 1.4342669 1.6882703 1.8590236 1.8912994 1.6014932 1.674091 1.9433453
1.7278917 1.7060436 1.5369558 1.7250168 1.8409736 1.8256906 1.615803 1.7216179
1.6144876 1.7860426 1.6666327 1.5659591 1.7151493 1.6220781 1.5755135 1.7292267
1.7475628 1.7006991 1.7848903 1.6321739 1.6158406 1.8319741 1.7552143 1.5575002
1.7005945 1.673079 1.7929468 1.6183283 1.6150331 1.8220649 1.6829137 1.7740859
1.8036196 1.8837265 1.8237388 1.593848 1.8226235 1.6766989 1.8626715 1.8711956
1.6213584 1.9207913 1.6863741 1.8295785 1.7148427 1.8385909 1.5703431 1.6366658
1.731949 1.8926474 1.8119698 1.9569541 1.7358835 1.7792869 1.6521457 1.7923548
1.8066736 1.8999035 1.6299865 1.7333691 1.6350808 1.6370618 1.7460837 1.665862
1.719736 1.5913495 1.7782029 1.7926837 1.8189976 1.826289 1.6360488 1.7458568
1.7217716 1.7841661 1.6135622 1.7354797 1.8750911 1.6383512 1.7464489 1.680156
1.6838452 1.5187522 1.6898463 1.783372 1.4708174 1.5499203 1.4378793 1.5917951
1.7281432 1.7065384 1.8287544 1.503181 1.5443287 1.7009258 1.5006014 1.6590006
1.5987996 1.8768224 1.7752401 1.8044335 1.6395531 1.6692978 1.910603 1.7184676
1.6059303 1.8401765 1.5692084 1.55475 1.5519086 1.841796 1.6230453 1.627791
1.6486093 1.7050631 1.7777941 1.7943734 1.6818867 1.6070166 1.671235 1.651646
1.8439779 1.7506963 1.6940582 1.6570042 1.7450267 1.6163167 1.7983603 1.6096718
1.8231462 1.7267747 1.8367512 1.7168465 1.7758677 1.7873007 1.4115131 1.5250622
1.5406356 1.7752966 1.631299 1.6360323 1.9368056 1.6004285 1.7451302 1.5530078
00000000: 1322 dc3f cb93 cf3f 3eba d33f 2775 dc3f
00000010: bb80 d33f 5e3c de3f 0cc6 ce3f 2083 cb3f
00000020: 1ada db3f 7dc0 d03f 45f7 cc3f b71f de3f
00000030: 19af d43f 326d c83f bb07 d53f 3ba1 e23f
00000040: 8ce7 d73f 048b c93f 3464 e23f 4a83 e23f
00000050: aebd f23f a3f1 c03f 17c1 e03f 885c d83f
00000060: 106b c83f bd4f ce3f 76dd ea3f ad4d cc3f
00000070: c97e de3f b8d6 cb3f c4e1 c23f 0550 d33f
00000080: 7ecd e03f 4854 d63f 1b8f e93f 4257 d63f
00000090: 5c77 d93f df77 e83f 3db9 e43f a5bf e73f
000000a0: dae0 e13f 034b d63f c2bc d23f 192c d93f
000000b0: 43d0 e33f 792e b93f 0277 d43f fc43 ca3f
000000c0: 6461 d03f 8e08 d03f ae06 da3f e247 c53f
000000d0: acf4 cf3f 11f1 fa3f 2aa9 c63f 62f0 dd3f
000000e0: a3d4 e73f 533f f53f 68e0 d93f 4dcd cd3f
000000f0: ae17 da3f 4b1d d13f 79aa d33f d0f6 e83f
00000100: dcbb c93f cd90 b03f b716 d33f ddaa df3f
00000110: 2774 d03f a244 dd3f 03d2 da3f 6a07 cb3f
00000120: 5f39 cf3f 4c5f d73f abe6 e03f 1403 df3f
00000130: 09c0 c43f ca9d df3f 8c88 e03f bcb9 da3f
00000140: 2762 e93f 07e3 d63f 6767 d43f 161f d83f
00000150: ea2b dc3f 7c8c b83f e1cc e33f 1015 e43f
00000160: f045 e23f ab0b de3f b0d5 ee3f 0f21 d73f
00000170: 28ca db3f b47c d03f be8a d13f 5950 ca3f
00000180: 7554 d13f 34ec dc3f 6767 e03f ed0c dd3f
00000190: afe9 bb3f d029 df3f 83ee ec3f 4215 d23f
000001a0: e164 e13f 0f96 b73f 3e19 d83f 7cf4 ed3f
000001b0: 1916 f23f bbfd cc3f 9d48 d63f 8abf f83f
000001c0: 8e2b dd3f a35f da3f f8ba c43f 5acd dc3f
000001d0: 06a5 eb3f 3bb0 e93f a2d2 ce3f fa5d dc3f
000001e0: 88a7 ce3f 0b9d e43f 3854 d53f 5971 c83f
000001f0: 038a db3f 41a0 cf3f 6daa c93f 4d57 dd3f
00000200: 23b0 df3f 82b0 d93f 4977 e43f 13eb d03f
00000210: ddd3 ce3f 217e ea3f ddaa e03f 2b5c c73f
00000220: 15ad d93f 7427 d63f 487f e53f 6225 cf3f
00000230: 68b9 ce3f 6c39 e93f b769 d73f 3f15 e33f
00000240: 02dd e63f f31d f13f 4670 e93f 3603 cc3f
00000250: ba4b e93f 129e d63f 056c ee3f 5683 ef3f
00000260: ac88 cf3f 7ddc f53f 1bdb d73f a12f ea3f
00000270: f77f db3f f256 eb3f 0101 c93f 447e d13f
00000280: 81b0 dd3f 4542 f23f a0ee e73f 797d fa3f
00000290: 6e31 de3f acbf e33f 8379 d33f e26b e53f
000002a0: 1541 e73f 0a30 f33f 66a3 d03f 0adf dd3f
000002b0: 544a d13f 3e8b d13f ac7f df3f f73a d53f
000002c0: 4f20 dc3f 57b1 cb3f 279c e33f a976 e53f
000002d0: ead4 e83f d7c3 e93f 0c6a d13f 3c78 df3f
000002e0: 0363 dc3f 8e5f e43f 3589 ce3f 3324 de3f
000002f0: fc02 f03f 7eb5 d13f a38b df3f 5a0f d73f
00000300: 3d88 d73f 7966 c23f e24c d83f 8945 e43f
00000310: bf43 bc3f ca63 c63f 6e0c b83f f1bf cb3f
00000320: cc33 dd3f da6f da3f a014 ea3f 3c68 c03f
00000330: 90ac c53f f0b7 d93f b513 c03f 225a d43f
00000340: 77a5 cc3f b73b f03f 113b e33f adf7 e63f
00000350: e0dc d13f 8dab d53f a48e f43f bff6 db3f
00000360: 208f cd3f e78a eb3f d2db c83f 0c02 c73f
00000370: f1a4 c63f f9bf eb3f f3bf cf3f 755b d03f
00000380: a105 d33f 823f da3f c28e e33f 07ae e53f
00000390: 1048 d73f b8b2 cd3f 07eb d53f 2369 d33f
000003a0: 7807 ec3f d116 e03f e6d6 d83f b718 d43f
000003b0: 095d df3f 77e3 ce3f ac30 e63f ba09 ce3f
000003c0: db5c e93f f406 dd3f aa1a eb3f a0c1 db3f
000003d0: a24f e33f 45c6 e43f 76ac b43f 3d35 c33f
000003e0: 8c33 c53f eb3c e33f 68ce d03f 8269 d13f
000003f0: 3fe9 f73f d7da cc3f 6d60 df3f f6c8 c63f

TextModel.6.bias f4 [32]
8.372481 8.320802 8.375208 8.435056 8.503022 8.518504 -0.07475285 8.349626
8.296373 -0.12297472 0.017526304 8.285676 0.00879484 8.291843 0.031928685 0.0832384
-0.08176149 8.1637945 8.763748 8.214999 8.3601465 8.19005 8.199433 8.377989
8.190717 -0.060952105 -0.005874344 8.299271 8.408351 0.043794654 -0.120087884 -0.027560776
00000000: aff5 0541 0122 0541 da00 0641 fdf5 0641
00000010: 610c 0841 cb4b 0841 0618 99bd 1198 0541
00000020: f2bd 0441 2cda fbbd 5393 8f3c 2192 0441
00000030: 3c18 103c 64ab 0441 a7c7 023d e578 aa3d
00000040: 9172 a7bd e79e 0241 5038 0c41 a370 0341
00000050: 29c3 0541 720a 0341 e130 0341 3e0c 0641
00000060: 2d0d 0341 eaa8 79bd 927d c0bb d0c9 0441
00000070: 9b88 0641 0662 333d a3f0 f5bd 23c7 e1bc

TextModel.9.weight f4 [1, 32]
2.013627 2.04855 2.0372143 1.9717671 1.9675864 2.013617 -0.07990208 2.0911994
2.060988 -0.045108087 -0.074813806 2.1040652 -0.08623232 2.1046464 -0.11230783 -0.0396071
-0.031442504 2.1421223 2.0339859 2.096547 2.0771508 2.0572317 2.0624359 2.0880508
2.1488671 -0.009790231 -0.0023967987 1.9843194 2.151102 0.0129573485 -0.07471862 -0.06928593
00000000: 44df 0040 711b 0340 b861 0240 dd62 fc3f
00000010: dfd9 fb3f 1adf 0040 b4a3 a3bd 36d6 0540
00000020: 3ae7 0340 42c3 38bd fb37 99bd 01a9 0640
00000030: 929a b0bd 87b2 0640 a601 e6bd 0e3b 22bd
00000040: dbc9 00bd 8818 0940 d32c 0240 d32d 0640
00000050: 0af0 0440 afa9 0340 f3fe 0340 a0a2 0540
00000060: 0a87 0940 3467 20bc 9c13 1dbb 2efe fd3f
00000070: a8ab 0940 0f4b 543c 1306 99bd c8e5 8dbd
