models/MLPModel_Regularization/state_dict.pt (torch, 199211 bytes, 13 tensors)

TextModel.0.weight f4 [512, 25]
00000000: 2388 1d3d ffde b33f f132 013e 1add 773f
00000010: e765 3abf aad2 123f b13d 68c0 ed67 6a40
00000020: 46a9 a0c0 0bbb cf40 b6c3 cd3f 82b8 b940
00000030: 1840 58c0 bf65 ad3f 07fe a6c0 2687 2040
00000040: 3e8f b83f fb23 9ac0 9283 4cc0 3b69 30c0
00000050: a89c 02be d5ea 86bf 82fd 34c1 5e2c 8d40
00000060: 398c 0dc1 d4e8 17be 3e68 493e 3a57 1dbf
00000070: 309a 2b3e e893 7bc0 c00f 92c0 3ffa 99c0
00000080: 53ba 32c0 355d 04c0 e7c6 dd40 26a7 a53f
00000090: 7c74 023f fc5e a43f a500 7040 80c8 5c40
000000a0: f92e 71bf f7b1 4bbf a724 3340 32e8 8640
000000b0: b5af 09c0 d1c0 193e 3b7e 9bbe 3666 afc0
000000c0: e684 4040 1d74 c8c0 4bd4 c93f a4f7 13bf
000000d0: 83ce 77c0 49b3 0240 07e2 b3c0 bf90 64c0
000000e0: aba3 cabf d64d c13f 501b 85bf 373c 9540
000000f0: 0509 37c0 2e1a b43e abf8 f83e 2b5b 05c0
00000100: ac02 b1bf e7f8 c83f de39 32c1 7b80 bf3f
00000110: 4483 373f 3b02 a6be 0bc7 3bbf bc47 f73e
00000120: 19ac 593e d26c 26c0 f248 f9bc 4cbd 733f
00000130: 8f8a 20bf 76c1 09c0 ea5f 4840 2d45 0fc0
00000140: 6caf 3f40 7500 e03f e8ca 2240 ecaf 01c0
00000150: d898 7740 af9a 0b3d 5335 a0be 0a4c 163f
00000160: 0e54 86bf cc7c 16bf e36b c83f 3237 3bc1
00000170: da25 3fc0 8394 f3be 2a60 9e3d 7e1e 80bf
00000180: fee2 4f3f 4838 d23e dd3d fdbf a3f9 5ebd
00000190: 611d 23c0 d472 1d40 b591 cfbf 47a5 843f
000001a0: 65a5 80c0 85c6 11bf 39d9 88c0 2252 2f3f
000001b0: c8c2 60be 0340 e140 a73f 5b40 de7d aabf
000001c0: 1b51 6dbf 5e4e c43f c4d7 cfbf 378f 50bf
000001d0: e8fd e5c0 011e 273f 352e 7c40 324f bac0
000001e0: 1ccc a2bf e694 a6c0 8693 9dbf 26f2 bfc0
000001f0: 826b dcbf 96f7 82c0 51fc 06c0 18e5 2fc1
00000200: 3e75 87c0 91e4 aa40 8aa2 2fbf c1be ae3f
00000210: a16b 0640 e571 ab3f 1a99 1540 b7c8 b83f
00000220: eeed 903f 2ebf 8fc0 7740 afc0 4934 cabf
00000230: 2459 26bf 28fd 8e3f 7763 66bf f65b f3bd
00000240: 5dc4 e6bf c958 92bf 0b28 e6bf 7308 86bf
00000250: faf4 13c0 b012 cabf bff9 3640 d135 cb40
00000260: e852 8640 a1f8 8240 4757 2840 3fce 30c1
00000270: d2ea 8640 a6e2 1840 5671 2bbf 430c 00c0
00000280: 6081 82bf a5fb c13f 75f9 0ebf 4164 6e3f
00000290: 38ec 0a3e 753b e740 1d2e 8f3e 4e6b 9040
000002a0: c807 b9bf 50c9 00bf 2a80 e140 0240 923e
000002b0: 8578 6940 df6a 97c0 bf60 5e40 583e 52bf
000002c0: 604b 48c0 2752 25bf 68fa 5b40 a0f7 033f
000002d0: 07d5 ae3e 6fa8 953e 82a4 f53f 4cd8 13be
000002e0: 594f 9440 1ce2 193f 8f8a 9ac0 a2f9 8fc0
000002f0: de89 3240 75f5 bf40 370b f2be 34a4 863d
00000300: 8f83 c63f 5018 5740 ca9b 18c1 fca5 403f
00000310: 3862 07c1 7582 09c0 197a 3840 2cf7 2ac0
00000320: 182a 9740 8e9f 4640 a0d2 c440 9c60 6c40
00000330: 0979 3840 9604 37c0 efbf d640 da79 4940
00000340: f6b5 6540 8d4f 63bf 55ab 10bf 125f 2cc0
00000350: 1908 123f 594b 1ac0 3346 f83f 8bca 59c0
00000360: 9872 a9bf 6f34 fd3f 6959 be3f f8ad d4bf
00000370: b246 3bc0 a187 a9bf c3ac d6bf f506 3ec0
00000380: 4630 d6bf 303e 763f f291 be3e 4f15 c63f
00000390: cd15 f140 d7c2 2c40 9e28 66c0 36ba be3f
000003a0: cf95 e93e 02b4 1dbf 3df1 7440 be36 3340
000003b0: e879 8640 0f3b 7ec0 8e31 4dc1 7398 a03f
000003c0: af13 5d40 a8eb bac0 ee1e 0640 1db7 6440
000003d0: ea52 86be 3c2f 0440 4eae ac3f a249 0240
000003e0: 9007 15c1 5d38 e33f 531d f6bf aa84 57bf
000003f0: 0f27 4e40 10e7 1b41 b5b6 ccbf cb05 babf
0.03845991 1.4052428 0.12617089 0.9682175 -0.7281174 0.573527 -3.6287653 3.6625931
-5.0206633 6.4915824 1.6075351 5.803773 -3.378912 1.3546675 -5.218509 2.5082488
1.4418714 -4.816892 -3.1955304 -2.7564228 -0.12755072 -1.0540415 -11.311892 4.411666
-8.846734 -0.1483491 0.19668671 -0.6146122 0.16758037 -3.9309025 -4.5644226 -4.8117976
-2.7926223 -2.068189 6.93053 1.2941635 0.5095899 1.2841487 3.7500393 3.4497375
-0.942123 -0.7956843 2.799112 4.215844 -2.1513493 0.1501496 -0.30369744 -5.481227
3.0081115 -6.264174 1.5767912 -0.57799745 -3.8719795 2.0421927 -5.621341 -3.5713346
-1.5831198 1.5101879 -1.039896 4.6636004 -2.8599255 0.35176224 0.4862722 -2.0836895
-1.382894 1.5700959 -11.139128 1.4961084 0.7168467 -0.32423577 -0.7335059 0.48296916
0.21257056 -2.6003919 -0.03043029 0.9521072 -0.62711424 -2.152433 3.1308541 -2.2385972
2.995082 1.750014 2.5436344 -2.0263624 3.8687038 0.034083065 -0.31290683 0.58709776
-1.0494401 -0.58784175 1.5657924 -11.700975 -2.9866853 -0.47574243 0.077331856 -1.0009305
0.8120574 0.41058564 -1.9784504 -0.05443729 -2.5486681 2.4601336 -1.6216341 1.0362939
-4.02019 -0.5694354 -4.2765164 0.684847 -0.21949303 7.039064 3.42576 -1.3319662
-0.9270188 1.5336416 -1.6237721 -0.8146853 -7.1872444 0.6528016 3.9403203 -5.8221674
-1.2718539 -5.205676 -1.2310646 -5.998309 -1.7220309 -4.092723 -2.1091502 -10.993431
-4.233062 5.340401 -0.6860739 1.3651963 2.1003191 1.3394133 2.3374696 1.4436253
1.132261 -4.4920874 -5.4766192 -1.5797206 -0.6497977 1.1171007 -0.8999552 -0.118827745
-1.8028675 -1.1433345 -1.798097 -1.0471328 -2.3118272 -1.5786953 2.8589933 6.3503194
4.1976204 4.09285 2.630327 -11.050353 4.2161646 2.3888335 -0.6696981 -2.0007484
-1.0195732 1.5154921 -0.5584939 0.93121725 0.13566673 7.226008 0.2796487 4.5130987
-1.44555 -0.5030718 7.046895 0.2856446 3.647981 -4.731796 3.474655 -0.8212638
-3.1296005 -0.6457848 3.4371586 0.5154972 0.34146902 0.29230067 1.9190829 -0.1443798
4.634686 0.6011064 -4.829414 -4.4992228 2.7896647 5.998713 -0.4727418 0.06574288
1.5508898 3.360859 -9.538034 0.7525327 -8.461479 -2.1485875 2.8824522 -2.6713362
4.7238884 3.1034884 6.150711 3.6933966 2.8823874 -2.859655 6.7109294 3.1480622
3.589231 -0.8879326 -0.5651143 -2.6933026 0.57043606 -2.4108489 1.9396423 -3.4029872
-1.3238096 1.9781626 1.4871036 -1.6615591 -2.92619 -1.3244516 -1.6771473 -2.9691746
-1.6733482 0.9618864 0.37220722 1.5475253 7.533911 2.699392 -3.596229 1.4900577
0.45622107 -0.61602795 3.827224 2.8002162 4.202381 -3.9723547 -12.824598 1.2546524
3.4543264 -5.8412666 2.0956378 3.5736763 -0.26235133 2.065383 1.3490694 2.0357442
-9.314346 1.7751576 -1.9227699 -0.84186804 3.221134 9.743912 -1.5993258 -1.4533018

TextModel.0.bias f4 [512]
00000000: decb 3dc1 26c2 83c1 aee4 9b41 cbc5 9841
00000010: 43ad 56c1 fa71 32c1 323b 44c0 bace 63c1
00000020: 5ab4 a9c0 1764 05c1 a454 86bf 008a 3dc1
00000030: 8ab0 5cc1 770d 4e41 581c 2e41 6503 2741
00000040: 5b71 47c0 6eec 2741 568c 00c1 8ebe 5cc0
00000050: 8cf8 bbbf aa42 f4bf aa6a fbc0 cc39 2ec1
00000060: a868 2dc1 11de 18c1 dd5c 8240 5bec 8ec0
00000070: 6d86 be3f 2363 aec1 69f7 76c1 33cf 84c1
00000080: 0d63 a7c0 293d 7bc1 912c 6bc1 5f40 0c40
00000090: b607 06bf 6982 b3c0 690d 71c0 98e6 03c1
000000a0: f01a 7bc0 7910 edbf 2a1c a3c1 28e9 1bc0
000000b0: 9d0a d140 d656 6741 7924 45c0 f46d 9740
000000c0: 30ec 2341 5943 bf40 a06b 1ec0 eb94 8fc1
000000d0: 1f8f c7c0 ee6c 2bc1 bc27 7341 0581 9641
000000e0: a032 9a41 5ceb ec40 abf7 2d41 77da 42c1
000000f0: de30 2241 9487 8ec0 994d 95c1 23f6 16c0
00000100: b7f7 f6bf 6679 afbf 8f55 34c1 ece0 97c0
00000110: 9212 2841 5e0d a2c0 b7d0 343f a258 9ac0
00000120: 3788 0cc1 a3d8 ac3f 12e3 2941 b13f 12c0
00000130: 5ab0 5cc1 7b73 7dc0 2cfd 58c1 bcdc 18c1
00000140: 06db 9ebf 17fe 9341 67d1 ffc0 9fdd 2641
00000150: 3fa2 0040 5f5d 2dc1 cf76 1b41 a713 afc0
00000160: ea24 1dc1 ff9b a3c0 065e 91c1 3f33 9cc1
00000170: b0db e7bf a844 0ac1 306d 26c1 7d34 05c1
00000180: e1b9 02c1 2f3a 713f 26bb 0cc0 0859 52c1
00000190: 2c08 3dc0 a4be 65c0 7757 99c1 814f 7ec1
000001a0: 6126 7dc1 b00c 2e41 01ec f2c0 1883 9fc1
000001b0: d5e4 fe3e 00ea 36c1 e28a 1dc0 520d 2740
000001c0: fa7d a4bf 43df 2641 0e32 fdc0 cf8d 16bd
000001d0: 2087 c1c1 c581 5340 d5c6 b240 f998 2e3f
000001e0: 9623 313f 03d0 bcbf 9903 2941 9391 85c1
000001f0: b788 8640 db45 8d40 bfab 96c1 8c63 3641
00000200: 633c 67c0 0b8c ffc0 78d9 8cc0 8f0f 9bc0
00000210: e60d 5cc1 6c6a 8f41 a71b 36c1 af68 9941
00000220: 1955 bec0 9b1e a7c0 6f63 8fc1 cb78 ebc0
00000230: c4b3 2fc1 5219 bac0 abf0 1ac1 f0fb 7ac1
00000240: 94c9 d4c0 6e1c 0940 4e2d 9fc1 f6cd 8b3e
00000250: 11a7 a040 e170 11c1 72cc 2241 3dba bcc0
00000260: 4494 4e41 1658 69c1 2f03 5ec0 33d8 8540
00000270: 65bd 843e a97c 703f 204f a2c0 fda8 25c1
00000280: ed29 ba3f bad2 ff3d abcc 67c1 b0a5 2e41
00000290: f40e c1bf ac97 1dc1 94be 76c1 6e14 673d
000002a0: bef7 c7c0 4d89 2041 7556 9441 4547 26c1
000002b0: 8038 c73f e4d4 273e 519b bcbf 08ac 9dc1
000002c0: dcc9 8ec1 183b 04bc dd92 e9c0 c8c3 8bc1
000002d0: 95a1 ffc0 ebb7 d1c0 3f19 26c1 7059 4cbf
000002e0: b6f1 33c1 44a8 2a41 8b66 92c0 5423 1cc0
000002f0: e642 2b41 5547 b2c0 549d 23c1 77d5 4ac1
00000300: 8741 16c1 dd9e bdbf d049 2a41 9930 4fc0
00000310: a645 1a41 1d5d 46bf 5af5 27c1 533a 2541
00000320: e7e9 803d fbca 2ec0 4d8c 84c0 d668 20c1
00000330: 5ba1 4cc0 5c3d 54c1 8142 1cc0 d21b a740
00000340: a89d 6bc0 6deb 90c0 6349 93c0 c92e b3c1
00000350: 4ff0 af40 f99c a1c0 83fc d03d 5eb4 1f41
00000360: 8ccb 15c1 a38d d9bf 07a9 61c1 43b3 7641
00000370: 60db 16c1 a38d 1f3f a062 89c1 9f96 f9bf
00000380: 3bd7 70c1 7663 9d41 4cc7 a8c1 bc44 3141
00000390: a1b3 41c1 10b1 2b41 0041 dcc0 d712 2dc1
000003a0: 56d3 3bc1 5ee6 55c1 aea4 e6c0 90ac 0f41
000003b0: c350 31c0 a36f 89c0 c1cb 76c0 6d52 44c1
000003c0: 0cf9 3a3f 139d 2c41 1966 54c1 4fe3 a940
000003d0: f5ca 8b41 3622 a2c0 586a b3c0 e0d6 f5c0
000003e0: 4ff7 18c1 d3fd aec0 a58f 4ac1 7086 4041
000003f0: a182 c4c1 1595 55c1 83bc 2bc1 1dc3 1ac1
-11.862272 -16.469799 19.48666 19.096579 -13.4173 -11.152826 -3.066113 -14.23797
-5.3032656 -8.336936 -1.049458 -11.846191 -13.7931 12.878287 10.88192 10.438329
-3.1162937 10.495222 -8.034262 -3.4491305 -1.4685225 -1.9082844 -7.8567705 -10.889111
-10.838051 -9.554215 4.073836 -4.466352 1.4884773 -21.798407 -15.435403 -16.601171
-5.230841 -15.702432 -14.69838 2.191429 -0.52355516 -5.609669 -3.7664435 -8.243797
-3.9235191 -1.8520652 -20.388752 -2.4361057 6.5325456 14.4587 -3.080351 4.732172
10.245163 5.976971 -2.475319 -17.947714 -6.236221 -10.714094 15.197201 18.812998
19.27472 7.4037304 10.872966 -12.178336 10.13693 -4.45405 -18.66289 -2.358773
-1.9294347 -1.3708923 -11.270888 -4.7462063 10.504534 -5.0641317 0.70630974 -4.8233194
-8.783256 1.3503612 10.617937 -2.2851374 -13.793055 -3.9601734 -13.56181 -9.55389
-1.2410591 18.499067 -7.994312 10.429107 2.0099027 -10.835296 9.716506 -5.471149
-9.821512 -5.1127925 -18.17091 -19.525023 -1.8113918 -8.641762 -10.401657 -8.3253145
-8.170381 0.94229406 -2.1989226 -13.146736 -2.9536238 -3.5897608 -19.167707 -15.89441
-15.82187 10.878098 -7.591309 -19.93901 0.4978396 -11.432129 -2.4616017 2.610188
-1.2850945 10.429507 -7.91236 -0.036756333 -24.190979 3.3047955 5.5867715 0.6820217
0.69194925 -1.475098 10.563378 -16.696081 4.204189 4.4147773 -18.83386 11.399303
-3.6130607 -7.985845 -4.4015465 -4.8456492 -13.753393 17.926964 -11.381751 19.176115
-5.947888 -5.222486 -17.923552 -7.358495 -10.981388 -5.815591 -9.683757 -15.686508
-6.6496067 2.1423602 -19.897121 0.27305573 5.020394 -9.090058 10.174913 -5.897734
12.911198 -14.584005 -3.4689443 4.1826415 0.25925747 0.93940216 -5.072159 -10.353757
1.4544045 0.12491365 -14.487468 10.915451 -1.5082688 -9.849529 -15.421528 0.056415968
-6.248992 10.033521 18.542215 -10.3924 1.5564117 0.16389805 -1.4734899 -19.709
-17.848564 -0.00807073 -7.2991776 -17.470596 -7.9884744 -6.553701 -10.381164 -0.7982397
-11.246511 10.66608 -4.5750175 -2.4396563 10.703833 -5.5712075 -10.22591 -12.677115
-9.390998 -1.4814106 10.643021 -3.2373412 9.642004 -0.7748583 -10.4974 10.326739
0.06294613 -2.731139 -4.1421266 -10.025595 -3.1973484 -13.26498 -2.441559 5.222146
-3.6814976 -4.5287385 -4.6027083 -22.397844 5.4980845 -5.0504117 0.10204413 9.981535
-9.362194 -1.6996349 -14.103766 15.418765 -9.428558 0.62325495 -17.173157 -1.9499091
-15.0525465 19.673565 -21.097313 11.079281 -12.106355 10.730728 -6.8829346 -10.8171
-11.739096 -13.368742 -7.2076025 8.9796295 -2.7705543 -4.2948775 -3.8561862 -12.2701235
0.73036265 10.788348 -13.274926 5.3089976 17.4741 -5.066676 -5.6067314 -7.68248
-9.560378 -5.4684844 -12.660069 12.032822 -24.563784 -13.348897 -10.733523 -9.672635

TextModel.3.weight f4 [512]
00000000: f264 8a40 1af4 8f40 b11b ba40 ce8f cd40
00000010: f9c7 ee40 1b71 6b40 5491 8e3f 49d0 8240
00000020: 703d e73a 21b9 c140 c0a8 af40 d900 9b40
00000030: a6d9 1640 8478 bb40 e160 a740 22c7 a840
00000040: 3f0b 8a40 0aec b440 9174 5940 f329 5c40
00000050: 55d9 8d40 eaf6 9940 4e31 9340 625d 7140
00000060: a502 9940 ad1b 8b40 f236 1840 0400 6840
00000070: 7d36 dcbf 52ce 7d40 f1f1 8840 5d43 ba40
00000080: 365b 8540 a1ea b240 6e49 ad40 e7d8 3c40
00000090: 73cc a140 a1bc 9740 29a7 8240 c893 cf40
000000a0: 04a0 cc40 8cf2 7d40 627e 7b40 2a1f 9a40
000000b0: c6b3 1640 de26 cbbf f7f5 a440 87be b0bf
000000c0: 3b3d af40 8e73 d540 c659 4740 8835 6940
000000d0: 5e7e 58c0 f710 9a40 4485 e740 d5c5 ce40
000000e0: b6b6 a840 b28e d840 8b04 b940 e913 f340
000000f0: 7255 aa40 7f34 9440 943f 87c0 1ca0 b340
00000100: bb40 253e 723c ac40 9c17 f93f 1303 d640
00000110: 998e 9f40 3ec2 2740 7491 44c0 b91a c340
00000120: 99b9 a53e 3b36 ac40 1503 9c40 a5c6 9a40
00000130: 8a6f b840 272b 9340 5e88 1241 00f0 b940
00000140: 275d 86c0 48f6 d540 bb29 8640 d541 9f40
00000150: 7342 6640 89b8 14be 2984 d440 a658 9c40
00000160: d55e 76c0 e449 c040 b885 5c40 3e63 a440
00000170: 4f4b 9340 eb6a 8b40 7b92 b840 b953 cc40
00000180: c69b dc40 0647 61c0 d6a3 0f40 c4f2 6640
00000190: a3d6 7940 399e a740 e6ad 6440 32cf 8540
000001a0: 5c7f 7a40 e23a b240 ddff cb40 72e1 6540
000001b0: 19d1 1540 f84a 9940 34b3 1841 7a6b ae40
000001c0: 0f31 8940 b3f2 af40 68ee 6740 6572 9c40
000001d0: dd0a c940 9f7e 2640 5960 c640 f89f bb40
000001e0: 3ee6 9f40 a7e0 c540 e617 bd40 f48e 9740
000001f0: 7308 c540 c756 ba40 1c46 6a40 cbf4 a940
00000200: e0c3 7440 ba57 6940 f7c4 c940 0f66 0f40
00000210: a478 6040 1e6a 9440 e754 47c0 3085 a940
00000220: bf67 2741 15a9 7b40 feba 8940 10a4 7840
00000230: f6c6 ed40 36e4 7740 4453 2cbe cf34 b440
00000240: 258c 8240 0a9f 38bf 290e d340 7cfd a140
00000250: bf75 4540 2249 a940 244c bb40 d413 2e40
00000260: 5ad2 b840 4413 fb40 370f 8b40 3993 cd40
00000270: 70c3 9740 84a1 b440 b50f 8c40 afb6 9340
00000280: 45c4 a5c0 2067 4040 ecad 8740 1977 ae40
00000290: 6f15 9840 95bb 38c0 79e7 7840 10f7 9040
000002a0: 93b6 5b40 989e 8f40 6f8a c740 fadd ee40
000002b0: 41a4 a5c0 d28a a640 efbe 8b40 368b fe40
000002c0: da66 8e40 43e9 48c0 ca41 b140 d39d 0641
000002d0: 3d93 e040 0358 5f40 3038 0640 e884 9540
000002e0: 99a4 9d40 ac17 b040 b25d 8a40 13a8 0741
000002f0: ae77 9040 acde bb40 a54f 0841 c0ae a540
00000300: 31d5 6040 88f0 dc40 196b ae40 7965 4a40
00000310: 2f33 b940 a12d 2ec0 44d6 9f40 897a a940
00000320: 7de6 b640 da00 8140 0023 4740 262e 8240
00000330: 93d3 9f40 5348 3b40 727f 8040 c4c0 ae3e
00000340: 268e 6a40 2fba 8240 666a 0a41 df96 ac40
00000350: 8a59 9c40 8cca 4340 feca b6be 3770 a940
00000360: 65e3 8340 b2ad a4bd cff6 df40 56ca cb40
00000370: aeab 7040 2938 9340 fa9b 9440 8797 6240
00000380: fadf 7a40 1ae9 c140 3330 8ac0 2076 a840
00000390: f82f 8f40 6cd8 a140 5834 8d40 e5c3 8d40
000003a0: 3252 9340 c127 cf40 c256 b0c0 bb3d aa40
000003b0: 5ab1 2e40 4cef aa40 a56f a140 12fa 9c40
000003c0: 8987 c340 e9ad d940 438b 7e40 af40 b140
000003d0: b158 c640 a71f a740 8c60 a040 5470 c340
000003e0: a0cc c340 2cda aa40 b6c5 4a40 f86e 9f40
000003f0: 8193 9bc0 c581 7240 bd7e c540 0be4 9140
4.3248224 4.4985476 5.8158803 6.4238043 7.4619107 3.6787784 1.1138101 4.0879254
0.0017642211 6.0538487 5.4893494 4.8438535 2.3570342 5.8584614 5.230576 5.274308
4.313873 5.6538134 3.3977396 3.4400604 4.43278 4.811391 4.5997686 3.7713246
4.781573 4.3471284 2.3783536 3.625001 -1.7204129 3.9657178 4.279534 5.820723
4.167384 5.591141 5.4152136 2.9507387 5.056207 4.741776 4.0829053 6.4867897
6.394533 3.967929 3.9295888 4.816304 2.3547225 -1.5871236 5.155025 -1.3808144
5.4762244 6.670356 3.1148543 3.6438923 -3.3827128 4.814571 7.235018 6.4616494
5.2723036 6.767419 5.7818046 7.5961804 5.3229303 4.631408 -4.226511 5.6132946
0.16137974 5.3823786 1.946033 6.6878753 4.986157 2.6212306 -3.0713778 6.097012
0.32368162 5.38162 4.875376 4.8367486 5.7636156 4.5990176 9.158293 5.810547
-4.198871 6.6863136 4.192594 4.976786 3.5978057 -0.1452352 6.641133 4.8858213
-3.849538 6.00902 3.4456615 5.1371145 4.602943 4.3568015 5.767881 6.38522
6.8940153 -3.51996 2.2443748 3.6085672 3.9037254 5.2380643 3.573114 4.1815424
3.9140234 5.569688 6.3749833 3.591885 2.3408873 4.7904015 9.543751 5.4506197
4.2872386 5.4983764 3.6239262 4.888964 6.282576 2.6014783 6.199261 5.8632774
4.9968557 6.1836734 5.9091673 4.7362003 6.1572814 5.823093 3.6605291 5.311132
3.8244553 3.6459794 6.3052936 2.2406042 3.5073633 4.6379538 -3.114557 5.2975082
10.462829 3.932195 4.304076 3.8850136 7.430537 3.873304 -0.16828638 5.6314464
4.0796075 -0.72117674 6.5954785 5.062193 3.0853117 5.2901773 5.8530445 2.7199602
5.7756777 7.8461018 4.3456073 6.4242215 4.742607 5.6447163 4.3769174 4.6160502
-5.1802087 3.0062943 4.2399807 5.4520383 4.7526164 -2.886449 3.889128 4.530159
3.4330184 4.4881096 6.2356486 7.4645967 -5.1763005 5.204446 4.3670573 7.9544935
4.450055 -3.1392372 5.539281 8.413531 7.0179734 3.4897468 2.0971794 4.672474
4.9263425 5.5028896 4.3239374 8.478534 4.5146093 5.8709316 8.519444 5.177582
3.5130122 6.9043617 5.4505734 3.1624434 5.787498 -2.721535 4.9949055 5.296208
5.715636 4.031354 3.1115112 4.0681334 4.994577 2.9262893 4.0155573 0.34131444
3.664926 4.0852275 8.650976 5.393417 4.88593 3.0592375 -0.35701746 5.294948
4.121508 -0.08040942 6.998878 6.368449 3.7604785 4.6006055 4.64404 3.5404985
3.9199204 6.059705 -4.3183837 5.2644196 4.4746056 5.0576687 4.4126396 4.430163
4.6037836 6.473603 -5.5105906 5.3200355 2.7295747 5.341711 5.0448785 4.905526
6.110295 6.8024793 3.9772499 5.539146 6.1983266 5.222614 5.0117855 6.107462
6.1187286 5.3391323 3.1683173 4.982296 -4.861756 3.7891705 6.171721 4.5590873

TextModel.3.bias f4 [512]
00000000: afd0 03bf 89a9 29bf e667 903f 47c3 323f
00000010: aa76 973f f0e9 983f 41f0 1041 17b4 99be
00000020: 2da0 aac0 86ab 3b3f f997 13bf c81d 3abf
00000030: 4a8c d4be 9811 a83f d069 41bf 0fd6 5fbf
00000040: 8e2f 43bf 20c4 69bf bc4c bebe 3097 a1bf
00000050: 322b 543f 8b41 143f ff8d 2d3f 9029 13bf
00000060: 7503 f3be daff e13e f7e8 ba40 09aa ccbe
00000070: 6997 7b3f 2f2b 3ebf e7df 8340 5e40 7b3f
00000080: 92ba 12bf d31f 693f 1168 16bf eaa9 7bbf
00000090: 9e57 4fbe 22a0 613f b281 63bf c4c4 e03f
000000a0: 83bc 633f 3c50 4abf a982 cebe bf8b f0be
000000b0: 51d3 e7be b9e3 c9bf c674 083e 497d d6c0
000000c0: 0a36 72bf 2520 803f 6acb 0240 ce6e 57bf
000000d0: c36b 6640 5e99 463f 0e81 bf3f ae3c 823f
000000e0: 1779 633f b196 6a3f 6514 2ebf efa8 6d3f
000000f0: 3a20 58bf 2def 43bf f906 7a3f 9ecf 8c3d
00000100: 32b7 6840 d5e2 d83f b777 0dc1 cd4f 833f
00000110: 246f 84bf 3f29 03bf 8134 9bc0 e73c 8b3f
00000120: e093 0f3f 81e8 8abf 12c2 35bf 4447 94be
00000130: 5606 723f d778 18bf da18 863f bf2b ca3f
00000140: d58a 9fbf 802f 763f df14 75bf 0f49 6cbf
00000150: c6e8 08bf 45c7 8dbf ac67 3a3f b250 a93f
00000160: 9270 3d3f b2bc 293f cd1f 67bf 9581 153e
00000170: a0e3 a3be dc08 2ebf 67fd 4fbf 4324 b43f
00000180: b6fb 973f 8088 2340 c6be 39bf 71d9 48bf
00000190: 3799 77bf f400 d8be 6acf 0cbf 7f54 e1be
000001a0: 8044 01bf deb6 81bf 4f73 203f b85a 9a3f
000001b0: deaa 873c 5fad b0be edf0 c73f bdb7 c93f
000001c0: 2ecd 1c3e eed0 66bf fffe d8bd ecc0 dabe
000001d0: fa53 25bf ef64 1cbf 3993 c13f f820 ee3a
000001e0: 8067 59bf 654e 6b3f dff0 90bf 7a9f 5bbf
000001f0: 9c2f dd3f e856 be3f 18dc ed3f b6ad 30bf
00000200: f993 f43f 1fb2 95bf 0c2e a43f bd15 aebe
00000210: 06d9 cb3e f695 733f f5f5 e5bf c8e4 5d3f
00000220: ecdf 2f3e 9697 193f b89f 81bd db0c ae3f
00000230: d017 e73f 4508 3dbf 3aa4 933e 1c7c 803f
00000240: 371d d83f 6586 3dc0 dfcc 5f3f f33a 72bf
00000250: 73f8 14bf 5424 443f 4710 68bf 6d15 4cbf
00000260: 3756 6b3f f812 623f 264e 3dbf 2901 5f3f
00000270: 1641 16be 5a4e 95bf 0e0d 853e 9ac2 983f
00000280: 58e1 09c0 1e4c aabf ce8c 3dbf 9c37 7fbf
00000290: f22c 26bf 9d74 eebe 1fa7 66be 163d 67bf
000002a0: f2cd 943e c1e1 abbe 57a7 953f 3499 08bf
000002b0: b336 debf 518e 8cbf dff7 0a40 b36b 783e
000002c0: a32e 833f c51f c7c0 1f20 653f a227 9a3f
000002d0: 996e 6e3f 889f f9be cb57 babe 16b6 ddbe
000002e0: ecb2 8e3f 6304 43bf 3cb7 8cbe a1a3 da3f
000002f0: ecce 21bf 1c56 8b3f 963a 943f 2aa1 833f
00000300: def2 b13d 2884 a1be a018 4fbf 3ffe 6740
00000310: 599f b93f 260b 5cbf 40be 6f3f 512b 5ebf
00000320: 88ce 95bf 65b5 7bbe c19b 40bf 9ee3 35bf
00000330: a9d7 52bf e610 0940 dbac b23e ee15 c140
00000340: d74c 35bf 0df0 4ebe b8d3 543f 0e5b 413f
00000350: 0c06 aa3f fe54 b33f 51f4 6ac0 705b 6cbf
00000360: 2048 44bf 7510 813f 7ee2 7c3f f58e c13f
00000370: bff9 37bf 7bcf aabe edda 2ebf e140 113c
00000380: 9683 e3be 952b d43e 915b bebf a231 4bbf
00000390: 21e3 5fbf 6853 62bf 4fe1 15bf 9263 803f
000003a0: 604e 0dbf a354 633f 05d3 973e bc8c fc3f
000003b0: 00ea 20bf 326d 583f 5c89 453f fb3d 393f
000003c0: 9588 e33f 31ec a73f c55a 7ebf 620f ad3f
000003d0: 7b96 783f 1e2c a33f 6d35 ea3e 405f c63f
000003e0: 9b8e c53f d08e 23bf 78fa ae3d 2215 15bf
000003f0: 9470 b1bf 015d 59bf 92b6 b63f 3353 47bf
-0.514903 -0.66274315 1.1281707 0.6982922 1.1833088 1.1946392 9.058656 -0.3002021
-5.3320527 0.733086 -0.57653767 -0.7270169 -0.41513282 1.3130369 -0.7555208 -0.87436
-0.7624444 -0.9131489 -0.3716792 -1.2624264 0.8287841 0.5791251 0.67794794 -0.57485294
-0.47463575 0.44140512 5.840938 -0.39973477 0.9827791 -0.7428464 4.121082 0.9814509
-0.57315934 0.91064185 -0.5875254 -0.98306143 -0.20248267 0.8813497 -0.88869774 1.7560048
0.8895952 -0.7902868 -0.4033406 -0.46981618 -0.4527841 -1.577262 0.13325796 -6.7027936
-0.9461371 1.000981 2.0436654 -0.8415345 3.6003273 0.7757777 1.4961259 1.0174768
0.88856643 0.91636187 -0.6799987 0.928359 -0.84424174 -0.7653683 0.9766689 0.06875537
3.6361814 1.6944224 -8.841727 1.0258728 -1.0346417 -0.5123481 -4.850159 1.0877961
0.56085014 -1.0852205 -0.7099925 -0.2896062 0.9454092 -0.59559387 1.0476334 1.57946
-1.2464243 0.9616623 -0.9573497 -0.9229898 -0.53480184 -1.1076437 0.7281444 1.3227751
0.73999894 0.6630355 -0.902829 0.14600213 -0.32009602 -0.6798227 -0.81246036 1.4073566
1.1873691 2.5552063 -0.7255672 -0.7845679 -0.9671816 -0.42188227 -0.5500399 -0.44009778
-0.5049515 -1.0133932 0.62675947 1.2058935 0.016560968 -0.34507272 1.56204 1.5759197
0.15312645 -0.9016255 -0.10595512 -0.42725313 -0.64581263 -0.6109151 1.5123054 0.0018167784
-0.84923553 0.91916496 -1.1323508 -0.85790217 1.7280154 1.4870272 1.8582792 -0.6901506
1.9107658 -1.1694983 1.2826552 -0.3400096 0.39814013 0.951507 -1.7965685 0.8667722
0.17175263 0.59996927 -0.06329292 1.3597673 1.8054142 -0.73840743 0.28836232 1.0037875
1.6883916 -2.9613278 0.87421983 -0.946212 -0.58191603 0.7661793 -0.9064984 -0.79720193
0.9192843 0.88310194 -0.7394737 0.87111145 -0.14673266 -1.1664536 0.25986522 1.1934388
-2.154379 -1.3304479 -0.74042976 -0.9969423 -0.6491233 -0.46573344 -0.22524689 -0.90327585
0.29063374 -0.33570674 1.1691693 -0.5335877 -1.7360443 -1.0980932 2.1713789 0.24259834
1.0248607 -6.222628 0.8950214 1.2043345 0.9313751 -0.48754525 -0.36395106 -0.43302983
1.1148353 -0.7617857 -0.27483547 1.7081186 -0.6320636 1.0885653 1.1580379 1.0283558
0.08688901 -0.3154614 -0.8089695 3.624893 1.4501754 -0.8595451 0.93649673 -0.86784846
-1.1703653 -0.24580915 -0.7523766 -0.7105044 -0.8236032 2.1416564 0.34897503 6.033927
-0.70820373 -0.2020876 0.8313556 0.75529563 1.3283095 1.4010313 -3.671162 -0.9232702
-0.76672554 1.0083147 0.987831 1.5121752 -0.7186546 -0.3336142 -0.68302804 0.008865566
-0.4443633 0.414395 -1.4871694 -0.7937261 -0.87455946 -0.8840852 -0.5854692 1.0030386
-0.55197716 0.8880102 0.29653183 1.9730449 -0.62857056 0.8454162 0.7716272 0.723602
1.7776057 1.3118955 -0.99357253 1.352032 0.97104615 1.2747838 0.45743886 1.5497818
1.5434145 -0.6388979 0.08543867 -0.5823537 -1.3862481 -0.8490754 1.4274466 -0.77861327

TextModel.3.running_mean f4 [512]
00000000: 39fe 5840 7c05 0340 ebb6 ab41 6357 a441
00000010: b543 a23f dbcb e43e ff06 e740 328f 1140
00000020: 1629 9140 b785 6940 2601 9140 51e2 aa3f
00000030: 2adb 2439 7e52 8541 526b 4041 92f5 3841
00000040: 1afc 7140 7e6b 3741 e703 a640 5646 4f41
00000050: 40b3 fd40 2bcd b440 7c4d 6b40 00e0 1540
00000060: 0a11 aa40 a628 ce3f 9f87 7541 5c5c db40
00000070: 92dc 2c41 1e75 903a dbcf 183f fbbe c83e
00000080: 024d 6d40 8627 053f db80 c53f eda2 0e41
00000090: e646 c840 30db 0e40 1ce3 c440 63f6 8a40
000000a0: 3206 9b40 81e0 1d41 cdb3 3040 5c85 5e40
000000b0: c21a 3341 c01f b341 4d51 bd3f 4ce5 4141
000000c0: 098a 3741 99b4 3841 dca0 fb40 56b5 3c40
000000d0: 0e21 5041 ca52 0d40 a1d6 8d41 403d a141
000000e0: be13 a841 91b8 4241 b1ff 4441 ef0d a53f
000000f0: aa37 3341 f43c ca40 91fc fc3f 0b33 0240
00000100: d93b b040 f48b 0741 fc87 7740 9b43 b540
00000110: 4761 3e41 cf5e 4140 94cf 4f41 33a5 f840
00000120: d149 9340 e872 aa40 59c8 3c41 6973 8540
00000130: b6e3 0d3f ea19 cf40 bace 473f 2b91 b13f
00000140: c7ac 1941 2e07 a041 6b17 6b40 044e 3941
00000150: 64b2 ba40 200d 003f 030f 5f41 0321 9740
00000160: 58de 1b41 3990 8640 f0ed de3e e18a c43e
00000170: 130b 1c41 86be 1140 e4b5 b440 2f37 a640
00000180: ddd4 1540 71e1 a241 cafd ce40 d49d 4340
00000190: 2162 cb40 d2f3 fa3f b76d 983f 8341 2640
000001a0: ed68 3340 0506 3b41 5b8c 5640 a06a ba3f
000001b0: 91f1 e640 3749 053f bbff c240 e432 6741
000001c0: 06ce b840 5a83 3741 fe8f 273f fccf b140
000001d0: ee34 b03e 3938 d440 625e 7141 e7b3 0b41
000001e0: 4452 7d40 1495 cb40 9bf5 3a41 7cee 2a3f
000001f0: 0408 2f41 63a6 5c41 0101 8f3f 6dd3 4641
00000200: f3b7 f940 54db 4740 70dd 0b41 f37f 7640
00000210: be93 b03d 7d12 9b41 f868 f440 1223 a241
00000220: 475f 7740 a7f5 8640 3fa5 9d3f 842e ca40
00000230: 342d 2d40 607d bd40 8d99 2440 ab6d c43f
00000240: 9faa af40 9b93 ff40 97e7 053f e6ba b640
00000250: cef8 1941 7381 963f 0aaf 3741 53e9 fc40
00000260: 16a3 8141 e0dd 9d3e 23f2 e140 d764 2841
00000270: cb28 a740 0e6a cb40 370a 3240 4102 5640
00000280: bab1 6541 53c7 e640 576f 0040 04fd 3941
00000290: 580a 8d40 aa5b a840 f495 cb3e f0f2 ad40
000002a0: c992 3140 770d 3c41 8a10 a741 f8e2 5340
000002b0: 69ee 1d41 2ea7 b240 1bba f640 ca37 2840
000002c0: f3ea 8c3e 8b7f 0041 c83d 8f40 d069 643f
000002d0: 6de3 7340 7adc 8e40 c56d 953f e7ae 8a40
000002e0: 63e9 c93f 59c4 3b41 2305 bf40 3b7a df40
000002f0: a23c 3f41 7d15 7840 7b2f 4e40 82ad 783f
00000300: 6417 9b3f e420 5740 fc27 3a41 941d fd40
00000310: f92e 9141 2f2d 8741 ebc3 793f 5cc4 3841
00000320: 9eeb 9940 673e be40 df1e 7340 ec28 7e40
00000330: 0b1b 0941 63d8 9b3f 4182 9840 7244 2441
00000340: 60d0 df40 6a55 0d40 d1b8 9740 c0a6 883e
00000350: a384 5e41 3f41 4e41 dd90 e240 a014 3241
00000360: bc3f 6040 14e4 e940 5afd 4e3f a4fd 9441
00000370: ab70 a440 130a 2541 26ba b73f 98e7 ab40
00000380: d472 d03f ed5e a841 9e7a 963f afd0 4841
00000390: 3d7f 2240 a00e 3f41 b20f 7340 19eb 9440
000003a0: 4df3 8e3e 5308 7d3e a0ac 0841 2a42 8241
000003b0: 336b c240 fa3a b040 0f7f ac40 9a2f b83f
000003c0: 0bfe 0d41 834c 6c41 c6c1 6540 0792 5d41
000003d0: b178 9641 d1fd 8e40 4507 1d40 c49c ae40
000003e0: 983d 1f40 499b 9740 92e3 2140 d4a5 5141
000003f0: e094 7a3f c5aa 4040 56d8 0740 dc5f 8340
3.3905165 2.0472097 21.464315 20.54267 1.2676913 0.4468678 7.219604 2.274365
4.5362654 3.6487863 4.53139 1.3350316 0.00015721904 16.66528 12.026201 11.559954
3.781012 11.463743 5.1879764 12.954672 7.928131 5.650045 3.6766043 2.3417969
5.31458 1.6106155 15.345611 6.8550243 10.80385 0.0011021232 0.5969216 0.39208207
3.7078252 0.5201343 1.5429949 8.914777 6.2586546 2.2321281 6.1527233 4.3425765
4.8445063 9.867311 2.7609742 3.4768896 11.194033 22.390503 1.4790436 12.118481
11.4712 11.544091 7.863386 2.9485679 13.00807 2.208178 17.7298 20.154907
21.00964 12.17006 12.312425 1.2894877 11.20109 6.3199406 1.9764577 2.0343654
5.5073056 8.471668 3.8676748 5.6645026 11.898749 3.0214117 12.988178 7.770166
4.602761 5.3265266 11.798913 4.170338 0.55425584 6.4719133 0.78049815 1.3872427
9.604682 20.003506 3.6733043 11.581547 5.834276 0.5002003 13.941165 4.7227798
9.741783 4.2051053 0.43540907 0.38387206 9.752704 2.2772536 5.6472034 5.1942363
2.3411171 20.360079 6.46848 3.056508 6.3557286 1.9605658 1.1908482 2.5977485
2.8032792 11.68897 3.3523166 1.4563789 7.216988 0.5206484 6.093717 14.449924
5.7751493 11.469568 0.6545409 5.5566387 0.34415382 6.631863 15.085543 8.731421
3.958146 6.361948 11.684962 0.6677015 10.939457 13.790622 1.1172181 12.426618
7.8037047 3.1227617 8.741562 3.8515594 0.086219296 19.384027 7.6378136 20.267124
3.8651903 4.217487 1.2316054 6.318178 2.705884 5.9215546 2.571872 1.5345968
5.489578 7.9867682 0.52306503 5.7103148 9.623243 1.1758255 11.480234 7.903482
16.204632 0.3083334 7.0608077 10.524619 5.2237296 6.356696 2.7818735 3.3438876
14.35589 7.2118316 2.0067956 11.624271 4.4075127 5.2611895 0.39762843 5.4359055
2.774584 11.753287 20.883076 3.310728 9.870706 5.5829077 7.710218 2.628405
0.27523002 8.031138 4.4762917 0.8922396 3.810756 4.4644136 1.1674124 4.3338504
1.5774349 11.735436 5.969377 6.9836707 11.952303 3.8763115 3.221648 0.9713975
1.2116513 3.3613825 11.634762 7.9098606 18.147936 16.897062 0.9756457 11.547939
4.810012 5.9451175 3.7987592 3.9712477 8.569102 1.2175411 4.7659 10.26671
6.9941864 2.2083383 4.7413106 0.2668972 13.907382 12.890929 7.0801835 11.130035
3.50389 7.3090916 0.80855334 18.623848 5.1387534 10.31496 1.4353683 5.3720207
1.6285043 21.04635 1.175617 12.550948 2.539016 11.941071 3.797833 4.6536984
0.2792 0.24710207 8.542145 16.282307 6.075586 5.5071993 5.39051 1.4389527
8.874522 14.76868 3.589952 13.848151 18.808931 4.4684834 2.4535687 5.4566364
2.4881344 4.7377057 2.5295148 13.102985 0.97883415 3.010423 2.122579 4.1054516

TextModel.3.running_var f4 [512]
00000000: 2d84 9342 20af 3c42 e9ab 9343 6721 9d43
00000010: 38fb f641 8b1c 3940 fc4c 5744 e8c5 7942
00000020: 760d c743 8d87 fe42 c67b 8842 5a3b c541
00000030: 1a10 8c3b 39e8 8943 f2cc 8844 8da8 8744
00000040: 9ad8 d543 504d 7844 d05b 1843 2a6c b243
00000050: 1592 0e43 adfd fe42 bb80 5e43 973f e342
00000060: 5773 c942 8c91 d141 1eca 0b44 db69 2343
00000070: ac80 3e44 469a 303d 7d2c c140 7375 b940
00000080: 72a1 a142 260c 0241 3454 c041 d8a0 f943
00000090: b6d0 0844 3460 df41 f11f 5043 bd7a d542
000000a0: 4f80 cc42 c155 4343 81f3 b242 7e3a 7242
000000b0: 1517 c743 3992 fa44 5ead 5042 a381 2844
000000c0: bfce 6a44 eb10 7043 b292 1943 c977 0b43
000000d0: bd3e c143 fcc9 8142 2073 8743 448d a043
000000e0: 5a50 a743 9e31 c643 01f0 8a44 8034 ac41
000000f0: 7257 6e44 3be4 e542 e1c9 5a42 3b3b d041
00000100: c6a7 8444 e900 4643 a415 af43 2375 0043
00000110: 85c6 8644 ca1b ea42 9bf8 ee43 8f94 7043
00000120: 50d5 ba44 a5ad e843 8a08 8444 9075 7c42
00000130: 0cd1 bf41 59ef 1b43 8355 6241 a637 0c42
00000140: ca1d 4143 82b0 9c43 f49e 4944 3e1c 7744
00000150: 4224 c642 93fb 3d40 ef96 d443 e402 1343
00000160: 35e9 c344 f00f a842 c986 6c41 4561 f740
00000170: 2c8d 7043 68ef 4342 6fb2 3d43 2fcf a842
00000180: 3195 0c42 d9e3 6844 61b2 6a43 b6f5 9842
00000190: 1702 4644 f02b f341 e9e9 3443 23ee 0443
000001a0: dd8a 4042 563a 7144 80f9 a843 ffc3 4e43
000001b0: 2208 3c43 cca8 b241 887b cc42 d5f6 a443
000001c0: d34d ff42 f425 6d44 99b9 a442 c635 c442
000001d0: b63e aa40 85cb 9843 75cd 8d43 f33e 1743
000001e0: 1a39 8042 05c8 d942 cd63 7944 e2dd 6f41
000001f0: 7eba 6f43 7caf 7f43 0fb2 b641 6983 8444
00000200: 47d2 1f43 4fc7 f542 6822 1043 cb6f 1543
00000210: 0c3a fc3f ca11 7743 e4a5 0243 2d40 9a43
00000220: d6f6 e143 3abb 9f42 fa78 b341 63d2 d142
00000230: b6c2 4b42 6b0f 0643 65df f743 3b40 8141
00000240: 06a9 be42 6959 a943 d6d3 4d41 7863 a542
00000250: 61ab b043 e499 8141 6d96 8744 58a1 0344
00000260: a9cd aa43 b801 a040 f090 9743 52c4 8d43
00000270: d202 a642 972b 0344 61bf 6942 98c0 fe42
00000280: 2746 d443 20d3 a643 e8d3 3a42 9888 6a44
00000290: 07b5 b042 81d7 0f43 3bb0 2a41 fc10 ea42
000002a0: 9a7d 9442 4656 6544 91b5 ac43 bab2 8642
000002b0: 49f3 a943 ca8f b743 3309 0f43 d818 1343
000002c0: 31f4 9b40 7c71 3144 79ec 2643 0808 0942
000002d0: 9b34 8a43 c9b2 c742 88e5 5042 bf10 7942
000002e0: 8289 eb41 19ed 7644 c511 e842 bb73 1143
000002f0: b063 8144 86b9 fc42 ae86 9d42 6410 ba41
00000300: 0e27 7e41 7df4 3442 965f 7a44 a4bd 2443
00000310: b7b7 ac43 77c0 1744 34af bf41 3807 7644
00000320: a0b5 b243 4e4c 3b43 958c 2643 e7f4 1943
00000330: 75d6 5b43 7533 0642 d6da 2243 4c5f db44
00000340: d807 fe42 9bf0 1042 71b6 4a43 4eee 9940
00000350: b6b3 6543 444e af43 d28b 1144 cb5c 7044
00000360: 479c 5742 316e ff43 e635 9441 2e82 9543
00000370: eb40 df42 3d14 0a44 daf4 c941 b66d f342
00000380: bf36 e741 cd13 9643 95cf cb41 f6f5 9644
00000390: f713 8c42 3324 8144 c868 2243 933b 6842
000003a0: 24c3 ef40 1268 6f40 2a8f 8243 ca11 cc43
000003b0: 7af9 8143 ab02 4e43 3993 c642 23d7 7142
000003c0: 6395 5a43 b58e 9f43 26c1 1c44 fb43 8743
000003d0: edc3 7b43 86a2 1943 0de4 e941 cc73 8843
000003e0: fd20 5742 de80 aa42 fc95 8842 f444 a144
000003f0: 85d3 c242 e5d2 a742 30ab 5142 83b7 e242
73.758156 47.17102 295.34305 314.26096 30.872665 2.8923671 861.2029 62.443268
398.10516 127.26475 68.241745 24.65398 0.0042743804 275.81424 1094.4045 1085.2672
427.6922 993.208 152.35864 356.84503 142.57063 127.49546 222.50285 113.6242
100.72527 26.196068 559.1581 163.4135 762.0105 0.043115877 6.0366807 5.795587
80.81532 8.127966 24.041115 499.2566 547.2611 27.921974 208.12477 106.73972
102.2506 195.33498 89.47559 60.55712 398.18033 2004.5695 52.169304 674.0256
939.2304 240.06609 153.57303 139.46791 386.49014 64.8945 270.8994 321.10364
334.62775 396.38763 1111.5001 21.525635 953.36633 114.94576 54.697147 26.028921
1061.2429 198.00356 350.16907 128.45757 1078.2037 117.054276 477.94223 240.5803
1494.666 465.3566 1056.2668 63.114807 23.977074 155.93495 14.145877 35.054344
193.11636 313.37897 806.48364 988.4413 99.070816 2.9684799 425.17917 147.01129
1567.2877 84.03113 14.782907 7.7306237 240.55145 48.983795 189.697 84.404655
35.145695 931.5601 234.6968 76.479904 792.03265 30.396454 180.91371 132.93022
48.13561 964.9115 337.94922 206.76561 188.03177 22.33242 102.24127 329.92838
127.652 948.593 82.362495 98.10503 5.320155 305.59 283.60513 151.2459
64.11153 108.89066 997.5594 14.991671 239.72849 255.68549 22.836943 1060.1066
159.8214 122.889275 144.1344 149.43669 1.9705215 247.06949 130.64801 308.50137
451.9284 79.86568 22.43407 104.91091 50.940147 134.06023 495.74527 16.156363
95.330124 338.69852 12.864218 82.694275 353.3389 16.200142 1084.7008 526.521
341.60672 5.00021 303.13232 283.53375 83.00551 524.6811 58.436893 127.37616
424.54807 333.6494 46.70694 938.1343 88.35357 143.84181 10.668025 117.03317
74.245316 917.348 345.4185 67.349075 339.90067 367.12335 143.03593 147.09705
4.8735585 709.7732 166.92372 34.257843 276.41098 99.84919 52.22415 62.266354
29.442142 987.70465 116.034706 145.45207 1035.1152 126.36235 78.76305 23.258003
15.884535 45.238758 1001.4935 164.74078 345.43527 607.00726 23.960548 984.1128
357.41895 187.29807 166.54915 153.95665 219.83772 33.55025 162.85483 1754.978
127.01532 36.234966 202.71266 4.81034 229.702 350.61145 582.1847 961.4499
53.902615 510.86087 18.526318 299.01703 111.62679 552.3162 25.244556 121.71428
28.901731 300.1547 25.476358 1207.6863 70.038994 1033.1312 162.4093 58.058178
7.492571 3.740727 261.11847 408.13898 259.94904 206.01042 99.287544 60.460094
218.58354 319.1149 627.01794 270.5311 251.76534 153.63486 29.236353 272.90466
53.782215 85.25169 68.29294 1290.1548 97.413124 83.9119 52.417175 113.35842

TextModel.4.weight f4 [64, 512]
00000000: 2634 e4bf 6d06 a7be 3b7e 9dbf bb14 cbbc
00000010: 2ae7 223e 8ca2 e3be 5db5 b73f cae5 f2bf
00000020: b73b 4ec0 946a 48bf 3ad0 0f40 8bae 07be
00000030: 0054 4f3f 44e6 c13f ae24 81c1 3451 98c1
00000040: 072a fcbf 3dff 98c1 6b55 97c0 a645 d13f
00000050: 88f6 7840 bd19 cdbe 8122 573f 79da e7bf
00000060: 758b 16bf 88c8 0740 608a 9640 107a c8bf
00000070: beb9 1b40 0bf1 0ebe bc14 ae40 3a63 a63e
00000080: 75a5 a33f 9aee 4b41 fea5 5d3e dbc6 1a40
00000090: dcd6 87c1 44d8 bd3f 7331 ebbe 9961 3dbf
000000a0: dc5e 7a3f 1e03 d3bf 57d5 2fc0 2c9a 763f
000000b0: 2c67 f7c0 0f67 663d dff1 1340 3211 e6bf
000000c0: 48da 77c1 967a a2bf 9134 6b40 552a b3bf
000000d0: 7f12 9b3d 49a6 51be fa68 b53f 1898 cc3d
000000e0: 48bd 28bf 5204 bebf 667b 74c1 6b64 a43e
000000f0: d5ea 74c1 b962 dabe 0155 bc3e e4c2 35bc
00000100: 2e9b 473e 1097 6a3f 3472 22c0 5eec 47bf
00000110: c8bf 9ec1 5740 74c0 0ce4 d0bf c38a 263f
00000120: e9cd b5be 97d2 99c1 bd93 87c1 f1f0 5fbd
00000130: 239f 2640 12d0 e9bf 1597 89bf 02bf 183f
00000140: 7a74 98c0 8a07 c3bd e594 6bbf f786 5ec1
00000150: 01cd 47bf 0fd4 6dbf 3a6d 2d3d 3497 0d3e
00000160: f497 9ebf d6c6 40bd dd01 d33f f03b 6bc0
00000170: 82a9 b93f d8e1 27bf 46e1 e0bf f4e3 9a3d
00000180: 2816 5a3f bf62 92bf 0378 7ec0 9049 993e
00000190: 4447 8d3e bb3d 9b3f 512e 4cc0 6c3c 183f
000001a0: f350 51bc f25e 5fc1 ae98 55bf b6b4 0c40
000001b0: 02e0 bd3f 390c 753f 5db3 ad3f 7d0d 703f
000001c0: c448 c9bf ddd9 68c1 3875 ab40 704e 813f
000001d0: a7b4 13bf 1586 39c1 e030 d43b dbad 393f
000001e0: 66fe ee3e b397 c03d a8d5 88c1 55a7 d73e
000001f0: 41a2 983f ae93 be3d a3f8 b6c0 6b49 96c1
00000200: 3210 8f40 1593 86c0 7a4e b63f 79ee e7c0
00000210: 3dcc a640 b0b7 243f 9a23 65c0 fadf ba3d
00000220: 07b0 85bf 3e85 02bf ea18 97c0 8318 9340
00000230: c8a2 d3be 7146 b43c c4d3 5abf 86f2 b23f
00000240: 8433 2240 7bd6 31c0 9692 0540 2e3d 863f
00000250: 84d2 30c0 ca2b 9340 0ea9 73c1 f786 933f
00000260: 9e13 4cbf d7f2 49c0 1878 28c0 96c6 84bf
00000270: f784 a93f 15ed bfc1 4b78 9840 6bbd 44bf
00000280: 1b50 0bc0 8ca0 69c0 82b9 0ac0 e5bf 8ec1
00000290: d694 a0bf 2af1 18c0 daa9 11be 95a6 503e
000002a0: 99dc 1a40 ad0f 42c1 3d63 58bf 86e0 a4be
000002b0: d600 50be c58a 99c1 118a fd3f 5f59 a7be
000002c0: 6709 6f3e f475 06c0 2615 fcbe 5e96 9d3f
000002d0: b5b7 12bd 882e fabe 9abe 9bc0 82e8 bfbf
000002e0: 268c 0e3e 4d4d 52c1 caef f3be d249 903f
000002f0: 4835 6ec1 47d4 cfbf 0abf 473a a2e0 2c3f
00000300: a34d 7dbf 6047 d3bd 0a24 6ec1 91e6 7b40
00000310: 4ec0 593f e894 6bc0 ccaf bf40 1834 55c1
00000320: cd4e bdc1 c665 e0be 5adb cbbf d826 223e
00000330: 7758 0ec0 6976 7f40 cca8 babe 8144 5f3f
00000340: 9bea e6be 2a96 69c0 6b33 bdbe c5d6 e240
00000350: 86e9 e23f b283 3040 09be 2dc0 9326 67c1
00000360: c2fd bebf 7354 993e da1d abbf 296a 813f
00000370: b215 a1bf 2a20 a63e 8e56 093f c3bd e1bf
00000380: 01fe c6be 5601 43bf 8deb 8ec0 4a90 5bc1
00000390: 7dc6 e83e 01c9 5fc1 9335 993c 7e6d 6940
000003a0: a8fb 0140 3cbe 8a3e 6513 f0be 4ffd e33e
000003b0: 64e7 6ebf 6d7d e0bf f48a 5ebf 0368 9bbc
000003c0: 0790 213f 3ab5 81bf 5514 81bf 0f8a 8abe
000003d0: 3f5b 8abf 70eb 693f 3c41 1740 7ca3 bfbe
000003e0: b1fb 783f bb86 78bf 77d5 89bf 5eb7 7ac1
000003f0: 97b1 05c0 446d 863e 1260 83bf 5975 08c0
-1.7828414 -0.3262209 -1.2304147 -0.024790158 0.15908495 -0.4445995 1.4352223 -1.8976376
-3.2223947 -0.78287625 2.2470841 -0.13250177 0.8098755 1.5148396 -16.14291 -19.03965
-1.9700326 -19.124628 -4.729177 1.634938 3.890047 -0.400587 0.84037024 -1.8113548
-0.58806545 2.1216145 4.7043915 -1.566225 2.4332118 -0.13959138 5.440031 0.3249758
1.2784868 12.745752 0.21645352 2.4183872 -16.979912 1.4831624 -0.45936164 -0.7397705
0.97800994 -1.6485326 -2.7473962 0.96329 -7.731344 0.056250628 2.3116376 -1.7973998
-15.490791 -1.269366 3.6750834 -1.3997294 0.07571887 -0.20473589 1.4172661 0.09989947
-0.6591382 -1.4845068 -15.280127 0.32107863 -15.307332 -0.42653444 0.36783603 -0.011093829
0.1949279 0.91636753 -2.5382204 -0.7809504 -19.843643 -3.816427 -1.6319594 0.65055484
-0.3550866 -19.227827 -16.947138 -0.05467314 2.603463 -1.8266623 -1.0749232 0.59666455
-4.7642183 -0.09522922 -0.9202407 -13.90795 -0.78047186 -0.929017 0.042340495 0.1382721
-1.2390122 -0.047064625 1.6484944 -3.6755333 1.4504855 -0.65578985 -1.7568748 0.0756301
0.8519006 -1.1436385 -3.976075 0.29938936 0.27593434 1.2128214 -3.190327 0.59467196
-0.012775647 -13.96068 -0.83436096 2.1985297 1.4833987 0.95721775 1.3570362 0.9377058
-1.5725331 -14.553189 5.358059 1.0102062 -0.5769753 -11.595235 0.006475553 0.7253091
0.46678466 0.09403934 -17.104324 0.42119852 1.1924516 0.093055114 -5.717851 -18.785849
4.470727 -4.2054543 1.4242699 -7.2478604 5.2124314 0.64342785 -3.580298 0.091247514
-1.0444344 -0.5098456 -4.7217913 4.596742 -0.4133513 0.022006245 -0.8547938 1.3980262
2.5343943 -2.7787158 2.087072 1.048742 -2.7628489 4.5990953 -15.228773 1.1525563
-0.79717433 -3.1554468 -2.63233 -1.0373104 1.3243703 -23.990763 4.764684 -0.7685153
-2.1767642 -3.650424 -2.1675725 -17.843699 -1.2545421 -2.3897195 -0.1422495 0.20376046
2.4197142 -12.128827 -0.84526426 -0.32202548 -0.20312819 -19.192759 1.980776 -0.32685372
0.2334343 -2.1009493 -0.49234885 1.2311513 -0.035819728 -0.48863626 -4.867017 -1.4992831
0.1392065 -13.143872 -0.47643882 1.1272528 -14.888008 -1.6236657 0.00076197146 0.6753026
-0.9894659 -0.10316348 -14.883799 3.9359477 0.8505906 -3.6809635 5.9902096 -13.325218
-23.663477 -0.43827647 -1.5926316 0.1583513 -2.2241495 3.9916022 -0.36456907 0.87213904
-0.45100865 -3.6497903 -0.3695329 7.088717 1.7727516 2.758038 -2.7147238 -14.446918
-1.4921191 0.29947242 -1.3368485 1.0110523 -1.2584746 0.32446414 0.53647697 -1.7636036
-0.38865665 -0.76173913 -4.4662538 -13.722727 0.45463935 -13.986573 0.018702304 3.6473079
2.0309849 0.27098262 -0.46889797 0.44529197 -0.93321824 -1.7538277 -0.86930776 -0.018970495
0.63110393 -1.0133431 -1.008433 -0.27058455 -1.0809096 0.91374874 2.3633566 -0.37429416
0.9725905 -0.9708058 -1.0768269 -15.669767 -2.0889642 0.26255238 -1.0263693 -2.1321623

TextModel.4.bias f4 [64]
00000000: 18fe 7740 3785 ec3e 6b5e ff3f 721d 2440
00000010: 019d b23e 183b 2140 052e 7840 474d 153f
00000020: c7ab 6840 fda6 af3e 79d3 293f 2d2e 95c0
00000030: 4ee1 1a3e 5c5d 18bf f724 8ebf 374d d8bf
00000040: 0a7b 5540 c9a2 7fc0 8042 51b9 fb88 343f
00000050: d75d 0a40 6eda 57c0 53ae 29c0 6e47 4640
00000060: 2a21 92c0 8dd6 b1c0 d0a9 99be 4fd8 75c0
00000070: 1ada 91bf 3312 69c0 fa9a 3c40 6e06 9440
00000080: 15f0 00bf 56d8 7040 a46a 0f40 c890 17c0
00000090: aea0 9140 cdcc a43f 6cb4 35be 607a e03f
000000a0: 2d61 c0bf b71f 88be fbb7 b23f 2e2f eb3f
000000b0: d6ed 8040 a62a 973f f39d 1740 f368 91c0
000000c0: 4fa2 d63f c00b 1bbe 56cb 0e40 f666 9f3f
000000d0: 6512 8940 49f7 02bf 1907 3f40 85ff a740
000000e0: 3777 d3bf 5fe8 b23f 4614 8340 b687 7b40
000000f0: 9c85 6b40 00b8 fe3f e8f6 a9bf ccfb 0140
3.8748837 0.46195385 1.9950689 2.5642972 0.3488541 2.5192318 3.8778088 0.5832104
3.6354845 0.3430709 0.66338307 -4.6618867 0.1512501 -0.59517455 -1.1105031 -1.6898564
3.3356347 -3.9943106 -0.00019956566 0.70521516 2.1619775 -3.372707 -2.651265 3.0981097
-4.5665483 -5.5574403 -0.3001237 -3.8413274 -1.1394684 -3.6417358 2.946959 4.625785
-0.50366336 3.763204 2.2408838 -2.3682117 4.550864 1.2875 -0.17744607 1.7537346
-1.5029656 -0.26586697 1.3962396 1.8373773 4.0290327 1.180989 2.3690155 -4.544061
1.6768283 -0.15141201 2.2311606 1.2453296 4.2834954 -0.5115858 2.9848082 5.2499413
-1.6520756 1.3977164 4.096225 3.9301581 3.6800299 1.9899902 -1.3278475 2.0309935

TextModel.7.weight f4 [64]
00000000: 6833 2343 0440 2343 44e9 2d43 9e65 2d43
00000010: 69e6 2d43 29cf 2d43 b79a 2d43 4132 2343
00000020: 981c 2343 b89a 2d43 21ca 2d43 66c0 2d43
00000030: bf21 2e43 3e31 2343 1572 2d43 962c 2343
00000040: 1820 2e43 3bbb 2d43 a731 2343 7155 2343
00000050: c8bf 2d43 3d5c 2343 5007 2343 1343 2343
00000060: 3099 2d43 faed 2d43 d337 2343 1bd4 2d43
00000070: b5ef 2d43 dceb 2d43 5e31 2343 8540 2343
00000080: 26db 2d43 5456 2343 d1f1 2243 934e 2343
00000090: 8b4a 2343 bf33 2343 6890 2d43 f0e2 2d43
000000a0: cddb 2d43 9b2a 2343 96de 2d43 4cd1 2243
000000b0: 2733 2343 c52d 2343 314a 2343 dc29 2e43
000000c0: f505 2e43 59b3 2d43 8122 2343 7fcb 2d43
000000d0: d317 2343 e8c9 2d43 a4eb 2d43 1b3d 2343
000000e0: affa 2243 68f1 2d43 cf44 2343 f229 2343
000000f0: db3d 2343 0553 2343 7763 2343 0084 2d43
163.2008 163.25006 173.9112 173.39694 173.90004 173.80922 173.60435 163.1963
163.1117 173.60437 173.78957 173.75156 174.13182 163.19235 173.44563 163.17416
174.12537 173.73137 163.19395 163.33376 173.74915 163.3603 163.02856 163.26201
173.59839 173.9296 163.21806 173.82854 173.93636 173.92133 163.19284 163.25203
173.85605 163.33722 162.9446 163.30693 163.29118 163.20213 173.56409 173.88647
173.8586 163.16643 173.86948 162.81757 163.19981 163.17879 163.28981 174.16351
174.02327 173.70058 163.13478 173.7949 163.09306 173.7887 173.92047 163.2387
162.97923 173.943 163.26878 163.16385 163.24162 163.3243 163.38853 173.51562

TextModel.7.bias f4 [64]
00000000: 4a57 00c3 d075 00c3 3cb1 0043 c4d5 0043
00000010: 21af 0043 457e 0043 0590 0043 9569 00c3
00000020: fc5f 00c3 a992 0043 15b8 0043 1097 0043
00000030: 3d8f 0043 6b6a 00c3 02b9 0043 0753 00c3
00000040: 5ba0 0043 a572 0043 d275 00c3 a251 00c3
00000050: b0ad 0043 1869 00c3 502c 00c3 fd73 00c3
00000060: 02be 0043 77a9 0043 9772 00c3 b7a5 0043
00000070: f184 0043 7c8c 0043 005b 00c3 1f57 00c3
00000080: c48a 0043 d14d 00c3 5333 00c3 116b 00c3
00000090: 686c 00c3 9c75 00c3 2d8b 0043 8a76 0043
000000a0: e380 0043 726e 00c3 288e 0043 6219 00c3
000000b0: 6a52 00c3 2c6a 00c3 c768 00c3 207d 0043
000000c0: fe81 0043 978a 0043 286e 00c3 8696 0043
000000d0: c06a 00c3 96ae 0043 8eab 0043 8548 00c3
000000e0: 7a1d 00c3 9c94 0043 6e45 00c3 9758 00c3
000000f0: 6a55 00c3 025b 00c3 5175 00c3 5060 0043
-128.34097 -128.4602 128.69232 128.83502 128.6841 128.49324 128.56258 -128.41243
-128.37494 128.57289 128.71907 128.59009 128.55952 -128.4157 128.72269 -128.32433
128.62639 128.44783 -128.46024 -128.31888 128.67847 -128.41052 -128.1731 -128.45308
128.74222 128.66197 -128.44762 128.64732 128.5193 128.54877 -128.35547 -128.34032
128.54205 -128.30397 -128.20049 -128.41823 -128.42346 -128.45941 128.54366 128.46304
128.50346 -128.43143 128.5553 -128.09915 -128.32193 -128.41473 -128.40929 128.48877
128.50778 128.54137 -128.4303 128.58798 -128.41699 128.68198 128.67014 -128.28328
-128.11514 128.5805 -128.27121 -128.34605 -128.33365 -128.3555 -128.45827 128.37622

TextModel.7.running_mean f4 [64]
00000000: 2009 0445 a962 db44 9151 9543 53c2 9d43
00000010: e962 6443 e4d0 8743 0c4e bd43 5f94 c844
00000020: bad7 1045 d1ca 9643 2c58 8e43 dfe2 0f43
00000030: ef51 5b43 7569 c744 3d03 5e43 795a b244
00000040: faa9 a343 f569 f042 aaec f044 33bd cf44
00000050: ccfb 9b43 5f51 8944 7d1c a444 48d6 0445
00000060: 439a 1443 34b6 d142 4ba9 ca44 04d0 f442
00000070: d6e6 0643 3d48 e642 06af 0d45 ca26 1245
00000080: c9b8 5843 618b ff44 dce8 0a45 6b42 b844
00000090: ef94 0e45 14d0 0145 578a 6b43 ebff 8743
000000a0: 9e41 5143 c11e f144 4d5e 7443 3721 0045
000000b0: f296 0145 6c5d 0745 9ba6 0a45 603b c942
000000c0: c4e3 6043 3860 3c43 4efb ef44 3d4f 8b43
000000d0: f984 1045 30a5 4843 50bf 9943 7899 1445
000000e0: 7cd3 cb44 a3c0 6243 6f5a 0845 ce86 0b45
000000f0: e24a 1045 805c f944 fd26 db44 7c68 8743
2112.5703 1755.0831 298.63724 315.51816 228.38637 271.63196 378.60974 1604.6366
2317.483 301.5845 284.68884 143.88622 219.32005 1595.2955 222.01265 1426.8273
327.32794 120.20695 1927.3958 1661.9125 311.96716 1098.5428 1312.8903 2125.3926
148.60258 104.855865 1621.2904 122.40628 134.9017 115.14109 2266.939 2338.4243
216.72182 2044.3556 2222.5537 1474.0756 2281.3083 2077.005 235.54039 271.99936
209.25632 1928.961 244.36836 2050.076 2073.434 2165.8389 2218.4128 100.61597
224.88971 188.37585 1919.8533 278.61905 2312.3108 200.64526 307.49463 2377.5918
1630.6089 226.75249 2181.652 2232.4253 2308.6802 1994.8906 1753.2184 270.81628

TextModel.7.running_var f4 [64]
00000000: 323c 274a fd64 044a af4d 8649 95c8 9449
00000010: dd68 4b49 7af9 7349 9129 aa49 0900 f049
00000020: 557d 3c4a ec88 8d49 ee38 8649 c7a3 e348
00000030: b331 5249 91bb f049 5060 4849 a819 c749
00000040: 9e4a 9e49 06d6 ac48 093d 164a 04fd 014a
00000050: 4308 8f49 9e4e 8549 e7b0 b149 85a8 2a4a
00000060: aa1f e948 dd96 9548 54b6 ec49 95b2 b348
00000070: 5ead c248 52be a848 56b3 394a 4131 3f4a
00000080: 4ee2 4449 3ef3 294a 94c6 334a 8be5 d249
00000090: 2abd 384a 1b43 284a 3ac3 5749 8e27 7e49
000000a0: b352 3c49 4925 164a 5be4 6549 615e 224a
000000b0: 1cdc 2f4a f030 2e4a 298a 324a ad48 8648
000000c0: d8b0 4a49 5057 1849 a1aa 164a 0a46 7d49
000000d0: 1731 444a c84c 3049 91d8 8a49 71cd 3a4a
000000e0: 6b6e ed49 1283 4149 4a9d 2d4a acbb 354a
000000f0: 1430 414a ef54 1a4a 7f74 034a 9e4d 7449
2.7399805e+06 2.1691512e+06 1.1002139e+06 1.2188346e+06 833165.8 999319.6 1.3939701e+06 1.9660811e+06
3.0882132e+06 1.1594535e+06 1.0995498e+06 466206.22 860955.2 1.9720821e+06 820741.0 1.631029e+06
1.2967238e+06 353968.2 2.4615062e+06 2.129729e+06 1.1717204e+06 1.0920518e+06 1.4556449e+06 2.7960652e+06
477437.3 306358.9 1.9391465e+06 368020.66 398698.94 345586.56 3.0425175e+06 3.1324962e+06
806436.9 2.7844635e+06 2.945445e+06 1.7276654e+06 3.0267625e+06 2.7568068e+06 883763.6 1.0410169e+06
771371.2 2.4599862e+06 941637.7 2.6602482e+06 2.881287e+06 2.853948e+06 2.9251942e+06 275013.4
830221.5 623989.0 2.4685202e+06 1.0374086e+06 3.2144058e+06 722124.5 1.1374261e+06 3.0605722e+06
1.9450374e+06 792625.1 2.8444985e+06 2.977515e+06 3.165189e+06 2.5285718e+06 2.1537598e+06 1.0006659e+06

TextModel.8.weight f4 [1, 64]
00000000: 75d5 0ec3 05e6 0ec3 e700 1a43 67f8 1943
00000010: 92fe 1943 cf18 1a43 07de 1943 3ad5 0ec3
00000020: 38ee 0ec3 9de5 1943 e9f3 1943 d2f3 1943
00000030: e03d 1a43 4feb 0ec3 9223 1a43 b60c 0fc3
00000040: 4721 1a43 fa21 1a43 a7d5 0ec3 4af0 0ec3
00000050: 39ee 1943 2cf1 0ec3 d833 0fc3 c8d9 0ec3
00000060: a5da 1943 eb11 1a43 a1d6 0ec3 51fc 1943
00000070: 5730 1a43 fc18 1a43 48cb 0ec3 c3e1 0ec3
00000080: 1311 1a43 1ef4 0ec3 a916 0fc3 c0df 0ec3
00000090: 68e0 0ec3 11d1 0ec3 2fdf 1943 d431 1a43
000000a0: eb1a 1a43 b4da 0ec3 bc0e 1a43 f22c 0fc3
000000b0: 6fe1 0ec3 4bd8 0ec3 d2e5 0ec3 db5b 1a43
000000c0: 7348 1a43 a0fe 1943 4904 0fc3 d2f5 1943
000000d0: 7ded 0ec3 f5f3 1943 bd04 1a43 acf1 0ec3
000000e0: 6e3b 0fc3 d905 1a43 c1fc 0ec3 4aff 0ec3
000000f0: a4da 0ec3 1cde 0ec3 70e8 0ec3 f756 1a43
-142.83382 -142.89851 154.00352 153.97032 153.99442 154.09691 153.8673 -142.83292
-142.93054 153.89693 153.95277 153.95242 154.2417 -142.91917 154.13895 -143.04965
154.12999 154.13272 -142.83458 -142.93863 153.93056 -142.94208 -143.20251 -142.85071
153.85408 154.06999 -142.8384 153.98561 154.18883 154.0976 -142.79407 -142.88188
154.0667 -142.95358 -143.08852 -142.87402 -142.87659 -142.81667 153.87181 154.19464
154.10515 -142.85431 154.05756 -143.17557 -142.8806 -142.8449 -142.89774 154.35881
154.283 153.99463 -143.01674 153.96024 -142.92769 153.95296 154.01851 -142.94403
-143.23215 154.02284 -142.98732 -142.99722 -142.85406 -142.86761 -142.90796 154.3397
