models/MLPModel_Regularization/state_dict.pt (torch, 17455 bytes, 5 tensors)

TextModel.0.weight f4 [64, 25]
0.3463179 0.6527993 0.17733753 0.43618953 -0.65597224 -2.6312447 -0.039265916 1.4078567
1.3378477 1.2108892 1.9319363 2.3232074 3.2650063 1.9573555 2.5968251 3.2331483
11.430843 4.3484545 2.9999142 0.6663669 3.0068355 0.9927073 0.90490973 1.5541257
0.8933695 -0.053282436 0.2329903 0.05916904 0.66004825 -0.86983865 -2.178368 -0.77765954
1.1486 0.8907929 1.1645825 1.5394253 2.3334644 3.2849197 1.968967 2.2828577
3.3962977 11.401382 4.3325915 3.1005235 0.75131136 3.1435087 1.1372193 0.7177367
1.2752376 0.6701235 -0.8110466 0.2145996 -0.29832846 0.25753006 -1.7660912 -1.146348
1.4563575 0.5183648 2.3726106 -2.0177474 0.62544006 2.3759181 0.7802859 0.7809396
1.9024193 3.7523115 10.643526 1.4703445 1.231072 -2.750937 3.796794 -2.0959287
1.6629175 -0.78434426 1.3797169 -0.09939955 0.047060013 0.27361384 0.42059675 -0.63691735
-4.502519 -0.73038995 0.6513878 0.012937355 1.957779 1.8601881 2.3752685 1.9451871
2.1462386 1.9103067 3.2476444 11.586947 4.0592046 3.4312787 -1.0636497 3.0056765
-0.30394074 0.12401304 1.5123658 0.03100594 0.31789124 -5.8399553 0.90224326 2.0452013
-3.4008322 -3.0848877 -0.52125496 1.2310985 -0.1333749 5.3162923 3.945399 -6.4512873
-5.8242435 -1.0966985 -3.2364028 -1.0063121 5.5584507 -14.029464 3.1549597 -10.058235
-0.93729174 -10.150165 -4.8167143 0.16182484 -4.5775943 -0.5463894 0.80283684 -0.48365632
0.59180874 -0.96568 -1.8827344 0.21789375 0.2291541 1.41908 0.71093065 1.1901406
2.0507267 2.077679 2.0012014 2.4809442 3.397335 11.175756 4.308974 2.5366259
-0.15254699 3.2335818 0.4022145 1.2900875 1.333014 1.0071982 0.37124118 0.29612297
0.4218776 0.12856461 -0.22491078 -4.500221 0.47731844 1.0604722 -0.16621365 1.538779
2.253246 2.1077545 1.9458073 2.31624 2.2710369 3.2253237 12.041066 4.4495945
3.3650422 -1.3768941 3.0397003 -0.86903185 0.14412723 1.4893396 0.017040089 -0.29805014
-0.076387055 -0.02417403 0.4309835 -0.922149 -2.4791763 0.26089886 0.5216374 0.09470822
1.4806288 1.5524759 2.306444 2.8167427 1.8749301 2.334805 3.2233965 11.35996
4.3263793 2.9850283 0.38187528 3.0791202 0.83298695 0.73535913 1.3425028 0.8400524
-0.48056567 -0.059292424 0.041633043 0.30023226 -1.0301524 -5.383039 -0.65804183 0.43110573
-1.5139918 1.8409218 2.3449695 1.9319178 1.1835942 2.2513561 1.3010515 3.081461
11.9328785 3.7939188 3.3958988 -2.114513 2.6016433 -1.4072609 -0.50461704 1.8038756
-0.55385315 -0.0464002 -5.5142994 0.47462863 2.4236505 -3.4135625 -1.9835215 -0.09895433
1.0623004 0.29518285 5.397545 3.8230884 -6.3924522 -6.27759 -1.9196583 -3.5690124
-1.2547699 5.400179 -13.676659 2.8504958 -9.5490055 -1.4919869 -9.808197 -3.8122907
0.1026059 -3.3790302 -0.043284018 0.18916486 0.1156598 0.095038235 -0.78062075 -3.5906186
00000000: 9450 b13e db1d 273f f897 353e 3c54 df3e
00000010: cced 27bf 5066 28c0 4cd5 20bd a634 b43f
00000020: 983e ab3f 6bfe 9a3f b049 f73f 6eaf 1440
00000030: ddf5 5040 a08a fa3f 6232 2640 e7eb 4e40
00000040: bce4 3641 8a26 8b40 98fe 3f40 0597 2a3f
00000050: fe6f 4040 1122 7e3f 2aa8 673f 97ed c63f
00000060: ddb3 643f af3e 5abd 0295 6e3e 3c5b 723d
00000070: ecf8 283f bfad 5ebf 626a 0bc0 b214 47bf
00000080: 5305 933f 010b 643f 0a11 953f e30b c53f
00000090: 7b57 1540 203c 5240 1c07 fc3f 571a 1240
000000a0: f15c 5940 106c 3641 97a4 8a40 fa6e 4640
000000b0: f155 403f 3f2f 4940 6790 913f 98bd 373f
000000c0: fc3a a33f 378d 2b3f c0a0 4fbf ffbf 5b3e
000000d0: 82be 98be fbda 833e 470f e2bf 88bb 92bf
000000e0: ec69 ba3f 8eb3 043f dad8 1740 c622 01c0
000000f0: d71c 203f 0b0f 1840 d1c0 473f a8eb 473f
00000100: 7a82 f33f df25 7040 e24b 2a41 4034 bc3f
00000110: c493 9d3f 5a0f 30c0 acfe 7240 b223 06c0
00000120: 7bda d43f c9ca 48bf 909a b03f fe91 cbbd
00000130: 00c2 403d 1d17 8c3e 7558 d73e 040d 23bf
00000140: a314 90c0 d6fa 3abf 5ac1 263f 33f7 533c
00000150: 8198 fa3f a51a ee3f 6604 1840 e4fb f83f
00000160: f95b 0940 ee84 f43f 68d9 4f40 2364 3941
00000170: 01e5 8140 129a 5b40 ac25 88bf 015d 4040
00000180: 1f9e 9bbe 8cfa fd3d 3495 c13f 2b00 fe3c
00000190: a4c2 a23e eae0 bac0 6af9 663f 94e4 0240
000001a0: 3ca7 59c0 cd6e 45c0 f770 05bf a394 9d3f
000001b0: 6e93 08be 111f aa40 6b81 7c40 f270 cec0
000001c0: 3460 bac0 9e60 8cbf 3921 4fc0 d6ce 80bf
000001d0: d4de b140 af78 60c1 dcea 4940 88ee 20c1
000001e0: 5af2 6fbf 1367 22c1 8622 9ac0 69b5 253e
000001f0: a77b 92c0 2de0 0bbf b786 4d3f cda1 f7be
00000200: c780 173f ce36 77bf 71fd f0bf 8a1f 5f3e
00000210: 5fa7 6a3e 6aa4 b53f 8dff 353f 8756 983f
00000220: 1b3f 0340 b1f8 0440 af13 0040 cac7 1e40
00000230: f06d 5940 e6cf 3241 1de3 8940 1458 2240
00000240: 4735 1cbe 01f3 4e40 0fef cd3e 9621 a53f
00000250: 34a0 aa3f dfeb 803f 5313 be3e 6e9d 973e
00000260: 5700 d83e 71a6 033e 034f 66be cf01 90c0
00000270: 1563 f43e 8ebd 873f e933 2abe b6f6 c43f
00000280: 2f35 1040 73e5 0640 3710 f93f 473d 1440
00000290: ab58 1140 b46b 4e40 35a8 4041 1463 8e40
000002a0: da5c 5740 113e b0bf 738a 4240 df78 5ebf
000002b0: 1796 133e aea2 be3f a897 8b3c 079a 98be
000002c0: d170 9cbd 9e08 c6bc dfa9 dc3e f511 6cbf
000002d0: d3aa 1ec0 8994 853e 078a 053f 62f6 c13d
000002e0: 3f85 bd3f 88b7 c63f c79c 1340 8345 3440
000002f0: b6fd ef3f 726d 1540 214c 4e40 65c2 3541
00000300: b371 8a40 b40a 3f40 2885 c33e 4e10 4540
00000310: a23e 553f 7f40 3c3f 22d7 ab3f ad0d 573f
00000320: b40c f6be 9ddc 72bd 6987 2a3d 0bb8 993e
00000330: 09dc 83bf db41 acc0 6e75 28bf e4b9 dc3e
00000340: 7cca c1bf 53a3 eb3f fb13 1640 1549 f73f
00000350: 0480 973f 3816 1040 db88 a63f a836 4540
00000360: 12ed 3e41 91cf 7240 6856 5940 2e54 07c0
00000370: 5381 2640 2021 b4bf 952e 01bf 65e5 e63f
00000380: 52c9 0dbf 230e 3ebd 2475 b0c0 8602 f33e
00000390: 171d 1b40 cf77 5ac0 08e4 fdbf 91a8 cabd
000003a0: 76f9 873f 3522 973e b0b8 ac40 7bad 7440
000003b0: f88e ccc0 04e2 c8c0 5db7 f5bf b36a 64c0
000003c0: 4d9c a0bf 44ce ac40 98d3 5ac1 866e 3640
000003d0: bac8 18c1 6df9 bebf 60ee 1cc1 92fc 73c0
000003e0: 0b23 d23d 0842 58c0 954a 31bd 6fb4 413e
000003f0: 0cdf ec3d 68a3 c23d c3d6 47bf b2cc 65c0

TextModel.0.bias f4 [64]
13.582977 14.196885 16.802376 13.407417 11.217161 15.043491 13.339674 14.120783
12.936401 12.090711 13.967927 11.238777 13.572516 14.6426115 13.763631 13.642768
13.256291 14.055335 14.320928 14.681412 13.62129 14.15608 11.014371 13.733134
13.696019 13.17428 14.492301 13.604653 14.068233 14.197363 14.274084 12.345534
14.097445 14.408796 13.998144 13.764949 13.900633 14.667039 14.469903 11.78786
9.938081 14.110678 13.899964 13.69134 14.815403 12.5938635 14.4338045 14.001288
13.918984 13.774502 14.868202 13.41603 13.92596 14.266455 14.575125 13.64417
14.169802 15.180502 13.979515 14.653739 13.629456 14.488777 14.209605 14.076986
00000000: e053 5941 7126 6341 446b 8641 c884 5641
00000010: 7e79 3341 24b2 7041 4e6f 5541 baee 6141
00000020: 80fb 4e41 8d73 4141 a17c 5f41 08d2 3341
00000030: 0729 5941 2348 6a41 d537 5c41 c748 5a41
00000040: c519 5441 a7e2 6041 8522 6541 10e7 6a41
00000050: cef0 5941 4e7f 6241 dd3a 3041 ebba 5b41
00000060: e522 5b41 dac9 5241 77e0 6741 a9ac 5941
00000070: 7b17 6141 6628 6341 a662 6441 4f87 4541
00000080: 228f 6141 6e8a 6641 66f8 5f41 3b3d 5c41
00000090: fe68 5e41 31ac 6a41 b984 6741 139b 3c41
000000a0: 6102 1f41 56c5 6141 4166 5e41 bb0f 5b41
000000b0: e40b 6d41 7780 4941 ddf0 6641 4705 6041
000000c0: 29b4 5e41 5c64 5c41 28e4 6d41 0fa8 5641
000000d0: bbd0 5e41 6643 6441 b633 6941 854e 5a41
000000e0: 82b7 6241 56e3 7241 18ac 5f41 b775 6a41
000000f0: 4012 5a41 08d2 6741 8b5a 6341 563b 6141

TextModel.3.weight f4 [32, 64]
5.3757486 5.6231422 7.4820547 5.8719683 8.407723 5.4775553 5.8484755 5.476861
5.8882766 8.561942 5.7675695 8.4128475 5.4292183 7.982353 6.1266365 5.4599576
5.5550237 5.63939 5.7345285 5.4089503 5.259052 5.744513 8.417793 5.58631
5.5279026 8.435365 5.285158 5.581626 5.5484176 5.8421884 5.6136894 11.465253
5.483614 8.031928 5.534389 5.5299273 5.483979 8.1349325 5.6992035 8.382885
8.595505 5.5568194 5.5638585 5.474491 5.3865795 6.176327 5.6035414 6.091296
5.4862967 5.595166 6.264084 5.504364 5.533744 5.6862917 5.4810724 5.4958644
5.5521507 8.111574 5.4721656 7.8406854 5.1061144 5.8243747 5.572309 5.62104
5.515348 5.4174953 7.4697294 5.986704 8.517518 5.696009 6.0223255 5.5031195
6.148423 8.469787 5.5904946 8.278513 5.437297 8.191684 6.023039 5.452365
5.6328874 5.6483917 5.6107326 5.378629 5.495461 5.5587215 8.592477 5.817278
5.4834743 8.357999 5.5017242 5.5022964 5.604214 5.680361 5.90335 11.927197
5.451376 7.8027124 5.4525485 5.506738 5.2313585 8.064564 5.476931 8.519034
8.6092 5.580827 5.405758 5.756577 5.3838196 6.020435 5.7388453 6.043302
5.4269743 5.5979323 6.0503044 5.4250855 5.5992084 5.650102 5.2934847 5.7382445
5.4825845 8.0311575 5.7365804 7.936588 5.288478 5.311156 5.374169 5.608941
-0.046677593 -0.087237805 -0.05844019 -0.09942772 -0.054529898 -0.064804696 -0.002485594 -0.03312494
-0.042277567 -0.027908184 -0.01350807 -0.030072406 -0.08311482 -0.038826287 -0.0017623224 -0.05392608
0.028030967 -0.08289461 -0.062113263 0.024906954 -0.03489778 -0.032932267 -0.014095179 0.0512495
-0.030451737 -0.045619577 0.0135912495 -0.0042038695 0.028260604 -0.083840884 -0.09004353 -0.030788815
0.018359907 -0.048472524 0.008436175 -0.03992294 -0.042154573 -0.056009326 0.0048197154 -0.031955067
-0.046488743 -0.021856574 -0.040405426 -0.007467084 -0.058219098 -0.018466376 -0.04991885 -0.029213976
-0.047538172 -0.033211187 -0.052623596 0.011176573 -0.024880381 -0.015501758 -0.038179792 -0.057238474
0.020657726 -0.02577334 -0.0023151317 -0.023272917 0.0018582449 0.0023853488 -0.03542891 -0.07230665
5.3746743 5.4046936 7.2847843 5.7112737 8.32108 5.600012 5.8076077 5.223412
5.6531262 8.442884 5.514544 8.217658 5.2108145 7.9255195 6.2233706 5.4887905
5.2464848 5.562619 5.319552 5.3237915 5.4058113 5.475048 8.467067 5.4995856
5.2447214 8.149399 5.3222055 5.630831 5.2707343 5.693013 5.610689 11.581207
5.5588446 7.9358983 5.651845 5.706785 5.4200006 8.091039 5.42523 8.182415
8.596216 5.359336 5.3885126 5.5285997 5.47998 6.0677667 5.337707 6.0230985
5.515584 5.4328256 5.780378 5.560996 5.375382 5.7107687 5.2461295 5.395671
5.521121 7.778377 5.4614177 7.8560805 5.3005424 5.520894 5.4599843 5.5114703
00000000: 2206 ac40 c8f0 b340 fe6c ef40 2ae7 bb40
00000010: 0986 0641 2248 af40 b626 bb40 7242 af40
00000020: c36c bc40 b7fd 0841 ee8f b840 069b 0641
00000030: 28bc ad40 706f ff40 680d c440 f9b7 ae40
00000040: c1c2 b140 e275 b440 4281 b740 1f16 ad40
00000050: 274a a840 0dd3 b740 48af 0641 0dc3 b240
00000060: 94e4 b040 41f7 0641 0420 a940 ae9c b240
00000070: a38c b140 35f3 ba40 58a3 b340 ad71 3741
00000080: c479 af40 c782 0041 b719 b140 2af5 b040
00000090: c27c af40 af28 0241 e05f b640 4c20 0641
000000a0: 3087 0941 77d1 b140 210b b240 082f af40
000000b0: dc5e ac40 79a4 c540 3650 b340 e6eb c240
000000c0: be8f af40 9a0b b340 6073 c840 c023 b040
000000d0: 6e14 b140 1af6 b540 f264 af40 1fde af40
000000e0: 38ab b140 02c9 0141 fb1b af40 e5e6 fa40
000000f0: 4a65 a340 4761 ba40 5b50 b240 8fdf b340
00000100: bb7d b040 1f5c ad40 0608 ef40 1493 bf40
00000110: c147 0841 b545 b640 e4b6 c040 8e19 b040
00000120: e2bf c440 3f84 0741 55e5 b240 ca74 0441
00000130: 56fe ad40 2311 0341 bcbc c040 c679 ae40
00000140: 9d40 b440 a0bf b440 1f8b b340 bb1d ac40
00000150: d1da af40 0ce1 b140 c97a 0941 2427 ba40
00000160: 9f78 af40 5dba 0541 200e b040 d012 b040
00000170: b955 b340 84c5 b540 3ee8 bc40 cdd5 3e41
00000180: ac71 ae40 d2af f940 477b ae40 3337 b040
00000190: 4a67 a740 7408 0141 0543 af40 f74d 0841
000001a0: 48bf 0941 2396 b240 f8fb ac40 e135 b840
000001b0: 4048 ac40 67a7 c040 9fa4 b740 bb62 c140
000001c0: c6a9 ad40 4322 b340 189c c140 4d9a ad40
000001d0: b72c b340 a3cd b440 3a64 a940 b39f b740
000001e0: 5571 af40 9f7f 0041 1192 b740 87f8 fd40
000001f0: 363b a940 fdf4 a940 31f9 ab40 727c b340
00000200: 0131 3fbd bca9 b2bd fb5e 6fbd c3a0 cbbd
00000210: be5a 5fbd 53b8 84bd 59e5 22bb 04ae 07bd
00000220: 3e2b 2dbd b49f e4bc f450 5dbc 685a f6bc
00000230: 1a38 aabd 5008 1fbd bafd e6ba 98e1 5cbd
00000240: 33a1 e53c a6c4 a9bd 7a6a 7ebd ab09 cc3c
00000250: f9f0 0ebd fce3 06bd 77ef 66bc ffea 513d
00000260: ec75 f9bc 98db 3abd d5ad 5e3c 9dc0 89bb
00000270: c882 e73c c5b4 abbd be68 b8bd d338 fcbc
00000280: 8467 963c 208b 46bd e237 0a3c 3d86 23bd
00000290: 46aa 2cbd 096a 65bd b4ee 9d3b 51e3 02bd
000002a0: fb6a 3ebd 8f0c b3bc 2980 25bd 71ae f4bb
000002b0: 2677 6ebd cc46 97bc b577 4cbd 2652 efbc
000002c0: 63b7 42bd 7408 08bd d78b 57bd f21d 373c
000002d0: f1d1 cbbc 16fb 7dbc 6a62 1cbd e472 6abd
000002e0: 643a a93c 9d22 d3bc 77b9 17bb d8a6 bebc
000002f0: 5a90 f33a 8353 1c3b e81d 11bd 8215 94bd
00000300: 55fd ab40 40f3 ac40 f41c e940 c1c2 b640
00000310: 2523 0541 4c33 b340 ecd7 b940 3126 a740
00000320: 69e6 b440 0e16 0741 2577 b040 877b 0341
00000330: febe a640 db9d fd40 da25 c740 2ca4 af40
00000340: 34e3 a740 fa00 b240 c539 aa40 805c aa40
00000350: 68fc ac40 9833 af40 1b79 0741 9bfc af40
00000360: c2d4 a740 f063 0241 824f aa40 c42f b440
00000370: dba9 a840 2a2d b640 c48a b340 a04c 3941
00000380: 0ee2 b140 e1f2 fd40 eadb b440 fc9d b640
00000390: a570 ad40 e574 0141 7c9b ad40 2ceb 0241
000003a0: 1a8a 0941 ae7f ab40 b26e ac40 4aea b040
000003b0: ff5b af40 252b c240 7fce aa40 39bd c040
000003c0: aa7f b040 b5d9 ad40 dbf8 b840 aef3 b140
000003d0: 2103 ac40 9ebe b640 4be0 a740 56a9 ac40
000003e0: 06ad b040 77e8 f840 efc3 ae40 0365 fb40
000003f0: 0b9e a940 2aab b040 31b8 ae40 f75d b040

TextModel.3.bias f4 [32]
20.230219 20.122515 -0.1318376 20.14376 20.24223 20.232964 20.076607 -2.2994652
-0.10226398 21.002981 2.926953 20.302048 -0.18472035 -0.23408751 20.2874 20.294357
20.409357 3.5173807 20.410864 20.167204 19.984957 20.277449 20.138554 -0.12975475
20.159895 6.415725 -0.12963168 20.248907 20.489334 20.13293 -0.10044011 20.128504
00000000: 7dd7 a141 e9fa a041 7000 07be 6c26 a141
00000010: 16f0 a141 1cdd a141 e49c a041 702a 13c0
00000020: c76f d1bd 1b06 a841 3353 3b40 986a a241
00000030: 5527 3dbe a3b4 6fbe 984c a241 d85a a241
00000040: 5d46 a341 c41c 6140 7349 a341 6f56 a141
00000050: 31e1 9f41 3738 a241 c21b a141 6ede 04be
00000060: 7747 a141 9f4d cd40 2bbe 04be c3fd a141
00000070: 28ea a341 3e10 a141 8bb3 cdbd 2d07 a141

TextModel.6.weight f4 [1, 32]
7.1067195 7.1955814 -0.00034424913 7.096179 7.2637873 7.2234554 7.237581 -2.1742349
0.0064023505 7.470157 1.5003531 7.2500405 0.008411136 -0.028490774 7.239708 7.262721
7.3337536 1.5247059 7.2608204 7.236007 7.3170104 7.1271157 7.363813 -0.015652597
7.346686 2.4560828 -0.022465201 7.163118 7.2890005 7.2085347 -0.0031439273 7.3205566
00000000: 3f6a e340 3442 e640 567c b4b9 e613 e340
00000010: f270 e840 8c26 e740 439a e740 aa26 0bc0
00000020: cfca d13b 870b ef40 920b c03f 5500 e840
00000030: ddce 093c 7c65 e9bc b0ab e740 3668 e840
00000040: 1cae ea40 9029 c33f a458 e840 5f8d e740
00000050: f324 ea40 5511 e440 5ba4 eb40 e039 80bc
00000060: 0d18 eb40 7630 1d40 f108 b8bc 4338 e540
00000070: 7e3f e940 51ac e640 590a 4ebb 0042 ea40
