models/MLPModel/state_dict.pt (torch, 17455 bytes, 5 tensors)

TextModel.0.weight f4 [64, 25]
0.83723986 0.86128026 0.3317261 0.50888205 -1.1054218 -1.2131977 -0.3774395 1.351456
2.143775 0.2627076 1.198062 2.9276 4.4988995 0.4192977 3.10046 3.1225057
12.790864 4.5448604 2.6661606 1.64512 2.807012 2.1123788 1.3874899 0.981226
1.4779812 -0.041379914 0.63671356 -0.37625247 0.287062 -1.4801723 -0.9201601 -0.6747974
1.3850464 2.0266113 0.41139725 1.0772625 2.81599 4.661933 0.3884398 3.0732992
3.1094086 12.485309 4.552866 2.8805308 2.0172222 2.7063124 2.5433202 1.59688
0.91237915 1.6079031 0.21617007 0.5655552 -0.008079778 0.5098053 -1.1551334 -0.6336049
1.1822858 1.3390863 3.5959668 -0.75254166 0.5525339 2.5284874 3.852146 0.24391718
2.9067585 2.9900863 12.831734 4.233643 2.062432 0.72563547 2.9496598 1.4855978
1.5991702 0.2212939 1.3727918 0.4722907 0.024797114 0.57023054 0.07079594 -1.0375634
-5.2802424 -0.7743986 1.1353999 -0.29656413 1.5899718 2.0968091 2.7963855 1.6425031
1.425738 1.7276398 3.136437 13.796631 4.7613792 3.9508164 -2.2204614 2.7567768
-1.3007087 -0.2825264 1.8831743 -0.27599895 0.45584399 0.23413935 0.42250177 0.05648334
-1.1130568 -5.7695994 -0.7499989 0.54204214 -0.31414354 1.300307 2.502929 2.8486736
2.0576835 1.3955399 0.953497 3.216649 14.098514 4.033625 3.8501732 -2.4840162
3.051229 -1.8206301 -0.23860922 1.8511537 -0.22614577 -0.90506583 0.25624758 -1.0792735
0.36626536 -2.041877 -0.18449086 0.42429504 -0.18683039 0.729027 -0.5876044 0.84074736
2.7374458 1.7222642 0.73598903 2.2733538 3.372751 12.929218 4.80705 2.198172
-1.6579924 3.0635293 -0.9331172 1.1922494 0.9429884 1.0426946 0.71105677 0.3248114
0.44592458 -0.0059766397 -1.0475787 -4.2255373 1.0076513 0.9572747 0.65663385 0.8182994
1.8533547 2.780166 2.505952 1.0141441 2.2244673 3.0332747 13.380623 4.8992496
3.3884695 -1.3253689 2.7294383 -0.6435935 0.5037981 1.492237 0.42832816 0.36210325
0.5148688 0.2378694 0.41285875 -1.3698596 -2.2535088 0.49845368 0.55419415 0.43347296
1.0220125 1.4666644 2.9425738 3.79063 0.7567781 2.7501707 3.1114166 12.926379
4.7543845 3.2744079 0.79377127 2.851146 1.3723155 1.1919254 1.3035759 1.4238148
-0.838219 0.19952515 0.31815627 1.015301 -2.7960038 -8.064602 -0.4979813 0.89455605
-0.8388828 2.5820327 3.4122617 3.3724983 0.46752572 1.4827547 1.0610107 3.9686213
14.356634 3.9131615 4.8475013 -3.4900901 3.3674233 -2.6869822 -0.15381725 2.3975387
-0.12636782 1.2468308 -5.128527 1.9309208 1.3527795 -3.1539254 -0.01903287 -0.098615184
-0.35563678 0.59515834 5.4880958 4.090093 -6.7801905 -4.767911 -4.6250076 -4.639003
0.42401877 6.332383 -16.457386 2.1495903 -9.404133 0.027953986 -9.702541 -2.9334533
-0.25946736 -2.345912 0.2917348 0.33714294 0.16340405 0.08905051 -1.4485052 -3.5758407
00000000: 5a55 563f dd7c 5c3f 01d8 a93e 1846 023f
00000010: 767e 8dbf 104a 9bbf c03f c1be 83fc ac3f
00000020: 9c33 0940 9c81 863e 185a 993f cc5d 3b40
00000030: fcf6 8f40 30ae d63e f06d 4640 22d7 4740
00000040: 61a7 4c41 7f6f 9140 60a2 2a40 4b93 d23f
00000050: 16a6 3340 3731 0740 4599 b13f a131 7b3f
00000060: 7d2e bd3f fc7d 29bd a9ff 223f 2aa4 c0be
00000070: caf9 923e 4976 bdbf 9d8f 6bbf 86bf 2cbf
00000080: 3349 b13f 00b4 0140 a9a2 d23e bde3 893f
00000090: 2e39 3440 8e2e 9540 95e1 c63e efb0 4440
000000a0: 8d00 4740 d3c3 4741 14b1 9140 9e5a 3840
000000b0: 2b1a 0140 3934 2d40 c2c5 2240 9066 cc3f
000000c0: ae91 693f c5cf cd3f b05b 5d3e 3ac8 103f
000000d0: 0c61 04bc 9a82 023f 69db 93bf ee33 22bf
000000e0: 2455 973f 2e67 ab3f 5224 6640 92a6 40bf
000000f0: dd72 0d3f bdd2 2140 8f89 7640 6dc5 793e
00000100: 5508 3a40 935d 3f40 c84e 4d41 017a 8740
00000110: e3fe 0340 3fc3 393f 3ac7 3c40 1228 be3f
00000120: 9cb1 cc3f de9a 623e a4b7 af3f 16d0 f13e
00000130: 5123 cb3c a1fa 113f 76fd 903d e1ce 84bf
00000140: bff7 a8c0 fd3e 46bf c954 913f 41d7 97be
00000150: 3284 cb3f 1f32 0640 fbf7 3240 8b3d d23f
00000160: 957e b63f 4d23 dd3f 62bb 4840 00bf 5c41
00000170: 385d 9840 2dda 7c40 0a1c 0ec0 086f 3040
00000180: 9f7d a6bf 4da7 90be db0b f13f bc4f 8dbe
00000190: 6264 e93e 3ac2 6f3e 2752 d83e 135b 673d
000001a0: a578 8ebf 8fa0 b8c0 eeff 3fbf 46c3 0a3f
000001b0: 6cd7 a0be 7670 a63f fd2f 2040 ab50 3640
000001c0: 16b1 0340 0da1 b23f 6118 743f 94dd 4d40
000001d0: 8393 6141 7513 8140 3d69 7640 1ffa 1ec0
000001e0: 5647 4340 680a e9bf fa55 74be 9bf2 ec3f
000001f0: c292 67be 65b2 67bf e232 833e a225 8abf
00000200: 2287 bb3e 1dae 02c0 2ceb 3cbe 333d d93e
00000210: 7750 3fbe 83a1 3a3f 3e6d 16bf 383b 573f
00000220: 5032 2f40 2773 dc3f c769 3c3f a17e 1140
00000230: 27db 5740 14de 4e41 5bd3 9940 daae 0c40
00000240: 1839 d4bf dd10 4440 c5e0 6ebf a19b 983f
00000250: b067 713f 0477 853f d107 363f ae4d a63e
00000260: 3a50 e43e b0d7 c3bb 0f17 86bf 9a37 87c0
00000270: b8fa 803f f40f 753f 2819 283f 127c 513f
00000280: ba3a ed3f 3dee 3140 8461 2040 79cf 813f
00000290: ac5d 0e40 2c21 4240 0817 5641 a7c6 9c40
000002a0: afdc 5840 b0a5 a9bf 1eaf 2e40 8bc2 24bf
000002b0: eaf8 003f 9f01 bf3f d44d db3e 9965 b93e
000002c0: 71ce 033f 0994 733e 3962 d33e 8f57 afbf
000002d0: 7d39 10c0 5235 ff3e abdf 0d3f 2bf0 dd3e
000002e0: 4ed1 823f a9bb bb3f 2153 3c40 af99 7240
000002f0: 36bc 413f cc02 3040 7321 4740 73d2 4e41
00000300: eb23 9840 e68f 5140 9834 4b3f 2d79 3640
00000310: 09a8 af3f 0391 983f 93db a63f 903f b63f
00000320: 8595 56bf 5250 4c3e 61e5 a23e 62f5 813f
00000330: baf1 32c0 9c08 01c1 68f7 febe a001 653f
00000340: 06c1 56bf 0640 2540 7f62 5a40 03d7 5740
00000350: 885f ef3e e8ca bd3f 33cf 873f e4fd 7d40
00000360: c6b4 6541 3d71 7a40 bb1e 9b40 a35d 5fc0
00000370: dd83 5740 84f7 2bc0 4582 1dbe 4671 1940
00000380: 9166 01be 2798 9f3f e51c a4c0 6a28 f73f
00000390: e127 ad3f ead9 49c0 d2ea 9bbc c2f6 c9bd
000003a0: 0616 b6be 4c5c 183f 7b9e af40 0be2 8240
000003b0: 52f7 d8c0 ba92 98c0 1000 94c0 b672 94c0
000003c0: fd18 d93e e2a2 ca40 baa8 83c1 e392 0940
000003d0: 5477 16c1 c2ff e43c 9c3d 1bc1 b3bd 3bc0
000003e0: e8d8 84be 6c23 16c0 445e 953e 009e ac3e
000003f0: 6453 273e 1d60 b63d 9e68 b9bf 93da 64c0

TextModel.0.bias f4 [64]
15.078435 15.514731 16.000292 12.08783 11.613201 16.094774 13.261049 14.51591
10.301294 13.8314 13.852768 11.660161 14.76247 14.57269 11.937204 13.76833
12.549688 14.506799 16.162653 16.285583 10.919536 15.423552 8.13804 14.398853
14.389667 14.114071 14.460172 15.527324 14.421875 14.342938 14.061515 13.771926
15.00402 14.355439 14.008844 15.02001 16.575123 14.618744 14.604797 12.793166
11.207758 14.228464 14.970138 14.324689 15.074051 13.760533 14.937147 13.879074
13.3294115 13.369343 14.703522 12.124559 15.704569 13.569096 15.618395 14.346409
16.96055 14.575537 14.196068 14.364783 14.039885 13.230338 16.978899 11.630141
00000000: 4541 7141 573c 7841 9900 8041 c067 4141
00000010: accf 3941 19c2 8041 422d 5441 2b41 6841
00000020: 1ad2 2441 6a4d 5d41 f0a4 5d41 0590 3a41
00000030: 1433 6c41 bd29 6941 cafe 3e41 144b 5c41
00000040: 86cb 4841 d91b 6841 1d4d 8141 e048 8241
00000050: 6bb6 2e41 dec6 7641 6935 0241 b461 6641
00000060: 133c 6641 3cd3 6141 dd5c 6741 eb6f 7841
00000070: 00c0 6641 ad7c 6541 f7fb 6041 cf59 5c41
00000080: 7710 7041 e1af 6541 3a24 6041 f651 7041
00000090: da99 8441 60e6 6941 40ad 6941 cfb0 4c41
000000a0: fa52 3341 caa7 6341 af85 6f41 ed31 6541
000000b0: 502f 7141 252b 5c41 8efe 6e41 b010 5e41
000000c0: 4545 5541 d4e8 5541 a041 6b41 32fe 4141
000000d0: ea45 7b41 041b 5941 f2e4 7941 e48a 6541
000000e0: 35af 8741 6635 6941 1823 6341 27d6 6541
000000f0: 5ea3 6041 77af 5341 c9d4 8741 0f15 3a41

TextModel.2.weight f4 [32, 64]
6.350277 6.4951663 6.6294985 7.054849 7.333343 6.8454075 6.6005006 6.4642105
8.353016 9.553231 6.74865 9.732514 6.447853 9.468837 7.7747674 6.520614
6.8500867 6.7034125 6.6942058 6.6858106 7.930726 6.5928693 10.19681 6.574826
6.4476113 9.406943 6.490076 6.5056753 6.6093645 6.791252 6.535703 8.88084
6.5457864 9.375781 6.654895 6.383807 6.6222463 9.419027 6.783675 9.302323
7.758165 6.6177998 6.4819703 6.4762936 6.4761257 9.771583 6.661905 6.9517193
6.5219274 9.1385145 6.9633136 11.678185 6.546453 6.8313518 6.566637 6.4116616
7.489144 9.60762 6.4670753 9.22904 6.4093227 9.3029375 7.002711 7.8590627
6.503017 6.432575 6.6753526 7.0942144 7.396668 6.866033 6.712986 6.461985
8.482062 9.474173 6.6269283 9.755812 6.446173 9.646704 7.6602025 6.6442533
6.9982195 6.815329 6.6532335 6.726759 7.9365067 6.5814934 10.457299 6.719776
6.539379 9.49649 6.644406 6.548439 6.6470356 6.6275344 6.7149944 9.088744
6.4608088 9.269817 6.563355 6.413872 6.6089582 9.341079 6.7197857 9.47131
7.7948737 6.6439314 6.4495726 6.4266257 6.3900228 9.702666 6.7181387 6.8516946
6.5656166 9.021456 6.8381934 11.682946 6.6384416 6.8652368 6.394947 6.503628
7.5073185 9.535491 6.6482134 9.417708 6.3722215 9.14358 6.9294405 7.8493176
-0.21723871 0.0077963215 -0.10630762 -0.13960698 -0.13080168 -0.1794721 0.030924948 -0.11932832
-0.15058808 -0.1625077 -0.026251024 -0.11176478 -0.10074605 -0.13460009 -0.141072 -0.059037257
7.104402e-05 -0.1573434 -0.09556264 -0.19693133 -0.15147656 0.020864712 -0.06648872 0.030134868
-0.10022959 -0.13633627 -0.15796982 0.0041502193 -0.19865766 -0.013358133 -0.069938414 -0.054776378
-0.024161166 -0.115749046 -0.026220417 -0.2047204 -0.14619984 0.018138794 -0.059556488 -0.092581995
-0.10347733 -0.16196704 -0.028242923 -0.10561462 -0.07958044 -0.06123254 -0.010543232 -0.12921767
-0.141012 0.008458666 -0.0088959215 -0.1460074 -0.22119388 -0.057065174 -0.035244565 -0.055350047
-0.01419651 -0.1820931 -0.03799445 -0.16252477 -0.03272946 0.014687103 -0.06517729 0.024437124
6.3873196 6.379745 6.595267 7.0559072 7.368665 6.7978435 6.748066 6.5459743
8.31854 9.592035 6.7150707 9.667884 6.536319 9.69339 7.746839 6.6736364
6.9503555 6.7540646 6.5024886 6.6196556 7.8396406 6.585569 10.344577 6.5886407
6.4947615 9.287888 6.6839366 6.6187353 6.5953374 6.648747 6.6012673 8.917499
6.625523 9.275015 6.762338 6.51591 6.5998635 9.366929 6.6502843 9.291567
7.7696056 6.5511703 6.5020213 6.418847 6.5416102 9.576592 6.53058 6.8422933
6.668133 9.158372 6.789238 11.785261 6.4556556 6.8798833 6.3898077 6.4430375
7.5773106 9.415092 6.472175 9.360533 6.5019364 9.206902 7.039022 7.8797646
00000000: 7835 cb40 67d8 cf40 da24 d440 53c1 e140
00000010: bfaa ea40 940d db40 4d37 d340 d0da ce40
00000020: f4a5 0541 09da 1841 f1f4 d740 61b8 1b41
00000030: d054 ce40 5b80 1741 e5ca f840 dfa8 d040
00000040: e933 db40 5b82 d640 ef36 d640 29f2 d540
00000050: 82c8 fd40 c9f8 d240 2226 2341 f964 d240
00000060: d552 ce40 d782 1641 b4ae cf40 7e2e d040
00000070: ea7f d340 f051 d940 7b24 d140 ec17 0e41
00000080: 1577 d140 3303 1641 e6f4 d440 2648 cc40
00000090: 71e9 d340 56b4 1641 de13 d940 51d6 1441
000000a0: e342 f840 04c5 d340 4d6c cf40 cc3d cf40
000000b0: 6c3c cf40 6758 1c41 532e d540 7c74 de40
000000c0: a1b3 d040 5b37 1241 77d3 de40 d9d9 3a41
000000d0: 8b7c d140 6f9a da40 e421 d240 552c cd40
000000e0: 11a7 ef40 d0b8 1941 48f2 ce40 26aa 1341
000000f0: 2c19 cd40 d5d8 1441 3516 e040 717d fb40
00000100: b718 d040 a8d7 cd40 7d9c d540 ce03 e340
00000110: 81b1 ec40 8bb6 db40 c8d0 d640 95c8 ce40
00000120: 87b6 0741 3696 1741 cc0f d440 ce17 1c41
00000130: 0d47 ce40 e658 1a41 6120 f540 b99d d440
00000140: 6af1 df40 2d17 da40 4ae7 d440 9c41 d740
00000150: ddf7 fd40 989b d240 1951 2741 6808 d740
00000160: 9842 d140 9ff1 1741 f99e d440 d08c d140
00000170: 84b4 d440 c314 d440 3ce1 d640 7f6b 1141
00000180: f2be ce40 2c51 1441 0107 d240 703e cd40
00000190: 967c d340 0f75 1541 7c08 d740 7c8a 1741
000001a0: 9b6f f940 169b d440 e662 ce40 eba6 cd40
000001b0: 117b cc40 1f3e 1b41 fefa d640 1541 db40
000001c0: 8819 d240 e257 1041 7bd2 da40 59ed 3a41
000001d0: 1d6e d440 05b0 db40 68a3 cc40 b81d d040
000001e0: f43b f040 5f91 1841 2abe d440 efae 1641
000001f0: 3de9 cb40 1b4c 1241 fabd dd40 9c2d fb40
00000200: d373 5ebe 4978 ff3b cfb7 d9bd 22f5 0ebe
00000210: e0f0 05be 89c7 37be 5156 fd3c 6862 f4bd
00000220: c333 1abe 6b68 26be 630c d7bc efe4 e4bd
00000230: f253 cebd 9bd4 09be 2e75 10be 0dd1 71bd
00000240: 78fd 9438 a11e 21be 58b6 c3bd 5ea8 49be
00000250: ac1c 1bbe 79ec aa3c 3d2b 88bd 66dd f63c
00000260: 2c45 cdbd bc9b 0bbe d7c2 21be 90fe 873b
00000270: ea6c 4bbe 12dc 5abc df3b 8fbd 325d 60bd
00000280: a3ed c5bc d60d edbd 33cc d6bc 39a2 51be
00000290: 69b5 15be cf97 943c 81f1 73bd a19b bdbd
000002a0: eceb d3bd b0da 25be b45d e7bc 7a4c d8bd
000002b0: 12fb a2bd f9ce 7abd 85bd 2cbc a351 04be
000002c0: 7365 10be 3796 0a3c 33c0 11bc f782 15be
000002d0: a680 62be 2cbd 69bd 9b5c 10bd bbb6 62bd
000002e0: 7b98 68bc 9d76 3abe 12a0 1bbd e56c 26be
000002f0: 540f 06bd 2da2 703c ac7b 85bd 5d30 c83c
00000300: ec64 cc40 df26 cc40 6d0c d340 fec9 e140
00000310: 1bcc eb40 ef87 d940 28f0 d740 9f78 d140
00000320: bd18 0541 fa78 1941 dce1 d640 a7af 1a41
00000330: 8629 d140 2018 1b41 1be6 f740 6e8e d540
00000340: 5069 de40 4c21 d840 6314 d040 38d4 d340
00000350: 56de fa40 fbbc d240 6383 2541 25d6 d240
00000360: 16d5 cf40 309b 1441 cfe2 d540 aecc d340
00000370: 010d d340 89c2 d440 953d d340 13ae 0e41
00000380: 4904 d440 7666 1441 1365 d840 5682 d040
00000390: 1532 d340 f1de 1541 21cf d440 42aa 1441
000003a0: 9ca0 f840 30a3 d140 8f10 d040 3267 cd40
000003b0: df54 d140 b939 1941 83fa d040 11f4 da40
000003c0: 5861 d540 b188 1241 7041 d940 6e90 3c41
000003d0: bb94 ce40 0128 dc40 4e79 cc40 5d2d ce40
000003e0: 5479 f240 38a4 1641 0f1c cf40 bec4 1541
000003f0: dd0f d040 784f 1341 ab3f e140 0827 fc40

TextModel.2.bias f4 [32]
10.145041 10.203222 -0.004522954 10.134186 10.181866 10.061854 10.051602 -0.029617345
-0.01630115 -0.21613085 -0.013124355 10.2137375 -0.09634372 -0.004979836 10.146779 10.142002
-0.19439237 -0.011036952 10.296714 9.996644 9.908485 10.156171 9.963625 -0.04813834
10.018677 -0.07792686 -0.015099995 10.038244 -0.10523667 9.955036 -0.055513695 9.911602
00000000: 1752 2241 6640 2341 4a35 94bb a025 2241
00000010: ece8 2241 5bfd 2041 5dd3 2041 13a0 f2bc
00000020: fd89 85bc 6851 5dbe 8907 57bc 786b 2341
00000030: db4f c5bd e42d a3bb 3559 2241 a445 2241
00000040: cb0e 47be 55d4 34bc 57bf 2441 41f2 1f41
00000050: 2889 1e41 ad7f 2241 026b 1f41 b52c 45bd
00000060: 804c 2041 1e98 9fbd f865 77bc a69c 2041
00000070: 5386 d7bd d447 1f41 5462 63bd ec95 1e41

TextModel.4.weight f4 [1, 32]
7.4492226 7.4704185 -0.01155855 7.4927716 7.4912796 7.5571675 7.5543003 -0.04619257
-0.067917906 0.27547905 -0.04141316 7.500253 -0.04352172 -0.052013863 7.49551 7.550664
0.02723204 -0.09676683 7.4659443 7.528845 7.576679 7.461436 7.5670223 -0.080622114
7.606895 -0.053800236 -0.049612287 7.553306 0.0265625 7.548991 -0.039195124 7.561493
00000000: 0860 ee40 ab0d ef40 1360 3dbc c9c4 ef40
00000010: 90b8 ef40 51d4 f140 d4bc f140 6c34 3dbd
00000020: 8b18 8bbd 970b 8d3e d8a0 29bd 1302 f040
00000030: d543 32bd 7d0c 55bd 38db ef40 0a9f f140
00000040: ba15 df3c b02d c6bd 04e9 ee40 4cec f040
00000050: 2874 f240 15c4 ee40 0c25 f240 351d a5bd
00000060: af6b f340 a35d 5cbd 4136 4bbd afb4 f140
00000070: 9a99 d93c 5691 f140 118b 20bd c0f7 f140
