models/MLPModel/state_dict.pt (torch, 17455 bytes, 5 tensors)

TextModel.0.weight f4 [64, 25]
000000 ba 40 e8 3e f0 08 19 3f 95 16 aa 3e 5e 67 c6 3e
       0.45361882 0.5977926 0.33220354 0.38750738
000010 e2 c8 22 bf 16 0d 05 c0 ad 3c 9f be 4f 13 a6 3f
       -0.6358777 -2.0789237 -0.3110098 1.2974643
000020 5c 97 c0 3f eb aa 02 3f 12 d5 a4 3f 64 10 23 40
       1.5046191 0.5104205 1.2877524 2.5478754
000030 88 38 7f 40 f4 f7 4b 3f 00 7d 2a 40 fd dc 45 40
       3.9878254 0.7967522 2.6638794 3.091613
000040 e6 0b 4d 41 bd 3f 8c 40 fb 18 2b 40 67 20 87 3f
       12.815405 4.3827806 2.6733997 1.0556763
000050 ce 7b 33 40 d2 7f c2 3f 40 6a 51 3f 56 67 85 3f
       2.8044314 1.5195258 0.8180275 1.0422161
000060 16 0e 54 3f c9 a8 75 be 3c 6f cc 3e 09 62 2a be
       0.82833993 -0.23990168 0.39928615 -0.1663896
000070 9d 5a 40 3e 45 9b 70 bf 20 dd 97 bf 97 8e 0a bf
       0.18784566 -0.9398692 -1.1864357 -0.54123825
000080 57 5b 9f 3f 4c ba 00 40 c0 f9 be 3e 98 f1 6a 3f
       1.244975 2.0113707 0.3729992 0.9177489
000090 b8 86 1e 40 4f 2c 8a 40 39 ef 0c 3f b3 c9 2d 40
       2.4769726 4.317909 0.55052525 2.7154357
0000a0 f5 25 49 40 e4 31 46 41 de ed 8b 40 e0 84 27 40
       3.1429417 12.38718 4.3727865 2.617485
0000b0 71 d8 d8 3f a4 e2 30 40 d9 b7 0d 40 ed 4b 9b 3f
       1.6941053 2.763833 2.2143462 1.2132546
0000c0 85 18 3d 3f b6 3f 93 3f fd 35 2a 3d af 98 9b 3e
       0.7386554 1.1503818 0.041555393 0.30389926
0000d0 a4 6a 29 3f d2 42 99 3e 89 75 20 c0 88 72 86 bf
       0.66178346 0.29933792 -2.5071738 -1.0503702
0000e0 0b 2d 29 40 b0 b3 35 c0 bc 97 11 40 a3 cd c0 c0
       2.6433742 -2.8390923 2.2748861 -6.025102
0000f0 67 ee 72 bf 7b 57 c1 40 7e 8f 75 3f 36 94 99 bf
       -0.94895023 6.041929 0.95922077 -1.1998355
000100 ca 6e a0 3f 03 99 de 40 e2 90 2f 41 56 2e 35 3e
       1.253381 6.956178 10.972872 0.17693457
000110 6e 18 e3 bd 08 8b 9d c0 66 a2 de 40 89 75 80 c0
       -0.11088644 -4.9232216 6.957324 -4.0143476
000120 e2 73 98 40 81 13 8c c0 43 76 90 40 54 05 38 3e
       4.764146 -4.377381 4.5144362 0.17970783
000130 43 b8 71 3e 0f f8 18 3f e6 a4 f9 3d 06 8e ef be
       0.23605447 0.5975351 0.12189655 -0.46788043
000140 d7 98 89 c0 f9 cb 30 bf ea fe 55 3f 84 7e 54 3e
       -4.299907 -0.6906124 0.83592093 0.20751387
000150 ab 61 a9 3f e3 d7 cd 3f 83 22 25 40 7c ba ff 3f
       1.3232931 1.6081508 2.5802314 1.9978786
000160 aa ae 9a 3f e6 d5 e0 3f 3a eb 4c 40 30 2f 53 41
       1.2084553 1.7565277 3.201857 13.19902
000170 83 84 93 40 3f b7 59 40 c6 4e d0 bf 08 42 36 40
       4.6099257 3.4018095 -1.627404 2.8477802
000180 e3 3f 3e bf d2 a8 de bd 93 c0 b2 3f 45 d0 27 be
       -0.74316233 -0.10872044 1.3965019 -0.16388042
000190 1d 93 71 bf dc 26 6b 3d 16 4d ac be 0a bf 13 3f
       -0.943651 0.057410106 -0.33652562 0.5771338
0001a0 36 ab ea bf df 14 e2 c0 a5 5b 1f bf 39 2e 65 3f
       -1.83335 -7.0650477 -0.62249213 0.89523655
0001b0 25 f6 2f bf 4c bf 07 40 ad ba 3f 40 f5 37 39 40
       -0.6873496 2.1210508 2.9957688 2.8940403
0001c0 68 8f db 3f 5c 9e bc 3f c4 c3 ef 3e 7f ec 6d 40
       1.7153139 1.4735827 0.46829045 3.7175596
0001d0 fd 89 5c 41 01 f6 53 40 00 7d 82 40 51 10 3a c0
       13.783689 3.31189 4.077759 -2.9072459
0001e0 63 83 63 40 85 31 12 c0 94 81 1e bf 3b 70 f1 3f
       3.5548942 -2.2842724 -0.6191647 1.8862375
0001f0 d2 80 31 bf 57 79 a6 bf fe cc 93 3e b6 31 8f bf
       -0.6933719 -1.300578 0.28867334 -1.1187046
000200 e0 82 95 3e 43 67 b0 bf 81 92 2d bf 44 60 03 3f
       0.29201412 -1.3781513 -0.6780167 0.51318765
000210 e1 3a 82 bc 6e 45 cb 3f 1f 38 a9 be 05 1c 26 3f
       -0.015897216 1.5880563 -0.3305063 0.64886504
000220 88 95 15 40 c0 a7 13 40 6c 32 50 3f bb cd 07 40
       2.3372517 2.3071136 0.8132694 2.1219318
000230 4f 76 55 40 4c f4 49 41 3a ae 90 40 1b 70 00 40
       3.335346 12.622143 4.521268 2.0068424
000240 52 fe 41 bf 43 3b 43 40 95 11 7a bd 83 91 79 3f
       -0.75778687 3.050492 -0.061051924 0.9748766
000250 58 93 44 3f 83 54 40 3f 9a 17 a2 3e f3 60 4f 3e
       0.7678733 0.75128955 0.31658632 0.20251827
000260 f0 16 ce 3e 01 d2 14 3d fd d5 ef be 8d dc 67 c0
       0.40251875 0.036333088 -0.46842948 -3.6228364
000270 00 8a 5b 3f 2c 6f 58 3f 8c 56 7a 3f 70 a9 2a 3f
       0.85757446 0.84544635 0.9778831 0.6666479
000280 5f 62 c5 3f 30 3a 23 40 c6 7d 2c 40 6b ab 6e 3f
       1.5420645 2.5504265 2.6951766 0.93230313
000290 bc 41 02 40 fb 20 4a 40 ef 58 4f 41 3d da 95 40
       2.035262 3.158263 12.959212 4.6828904
0002a0 bd 35 40 40 2e 9b 65 bf 0c 6e 37 40 85 65 6e be
       3.00328 -0.8968991 2.8660917 -0.23280914
0002b0 05 4e 03 3f b2 c8 8e 3f 9c 1e bb 3e f5 1a 81 bd
       0.51290923 1.1154997 0.3654679 -0.0630397
0002c0 a3 f5 7e 3e 52 b1 51 3e 5e 7e 9d 3e 75 f8 6f bf
       0.2489839 0.20477799 0.30760473 -0.9373849
0002d0 8f 29 23 c0 4b f9 1d 3f ef 00 01 3f 0c 30 2e 3f
       -2.5494115 0.61708516 0.5039205 0.68042064
0002e0 c4 d3 6d 3f 06 0e a9 3f 63 22 23 40 77 73 53 40
       0.92901254 1.3207405 2.5489738 3.3039224
0002f0 f3 5e 67 3f da 55 12 40 6b 8f 46 40 2c c6 4c 41
       0.90379256 2.28649 3.1025035 12.798382
000300 4e 18 91 40 ba da 40 40 af f3 6f 3e 23 86 37 40
       4.534217 3.01335 0.23432802 2.867562
000310 4d 48 4f 3f a7 96 38 3f c5 53 8c 3f c9 46 60 3f
       0.809697 0.7210488 1.0963064 0.8760801
000320 60 61 1d be 8a 8e e0 3d 14 53 d2 3e e9 c7 3c 3e
       -0.15369177 0.10964687 0.4107901 0.18435635
000330 88 0e 39 bf f6 15 b3 c0 42 6b 05 bf 70 95 43 3f
       -0.722878 -5.596431 -0.5211679 0.763999
000340 c9 04 34 bf b9 a1 e0 3f c3 e1 10 40 07 ad 20 40
       -0.703198 1.7549354 2.2637794 2.5105608
000350 2f fc cc 3f fd 61 b9 3f e4 54 9f 3f ea 71 59 40
       1.601446 1.4483029 1.2447782 3.3975778
000360 23 e0 58 41 3a 22 87 40 c3 21 70 40 13 e6 07 c0
       13.554721 4.222928 3.7520607 -2.1234176
000370 90 41 37 40 ac 1a a9 bf 1e 6a 04 bf f3 1a e4 3f
       2.8633766 -1.3211265 -0.5172442 1.7820724
000380 e7 38 12 bf 03 71 81 3f e7 5a b1 c0 97 fa d0 3f
       -0.57118076 1.0112613 -5.5423465 1.6326474
000390 20 cc d0 3f 4f 91 40 c0 74 f3 ef bd ca fa 11 be
       1.6312294 -3.008869 -0.11716357 -0.14255825
0003a0 73 d1 41 3f f0 0d 7c 3e 0d 69 be 40 f9 d0 87 40
       0.7571022 0.24614692 5.9503236 4.2442594
0003b0 22 38 d7 c0 8f b5 b4 c0 3a fc 7e c0 ad 8a 9e c0
       -6.725602 -5.647163 -3.9841447 -4.954428
0003c0 07 ea 7e bf cc 82 b5 40 2e 34 7e c1 86 69 13 40
       -0.9957585 5.6722164 -15.887739 2.3033156
0003d0 ed 03 1e c1 e1 31 a5 bf 25 6d 23 c1 a7 ce 52 c0
       -9.875958 -1.2905847 -10.214147 -3.293863
0003e0 0e f3 36 3e 08 66 30 c0 c8 42 0f be 80 a3 23 3e
       0.17866156 -2.7562275 -0.13990319 0.15980339
0003f0 6b 87 fd 3d a8 af b9 3d d4 e1 60 bf 99 3d 70 c0
       0.123793446 0.09066707 -0.87844586 -3.7537596

TextModel.0.bias f4 [64]
000000 49 62 64 41 0b 64 74 41 8b 0f 48 41 a1 38 4c 41
       14.273995 15.274425 12.503795 12.763825
000010 88 3c 27 41 2e 96 7c 41 9b e9 57 41 0f 66 64 41
       10.452278 15.786665 13.494533 14.274917
000020 65 b0 3b 41 31 df 64 41 eb 74 59 41 41 f5 46 41
       11.730565 14.30449 13.591044 12.434876
000030 c4 95 66 41 23 0e 80 41 af ae 4d 41 44 d6 5e 41
       14.411564 16.006903 12.855147 13.927311
000040 9e 82 4f 41 9c fe 67 41 da 0e 7f 41 7f e8 78 41
       12.969389 14.4996605 15.941126 15.556762
000050 e3 1a 5f 41 a7 7a 71 41 82 ac fc 40 3c 02 63 41
       13.944064 15.092444 7.896058 14.1880455
000060 50 db 5e 41 62 a6 78 41 3c 06 63 41 ff 38 6e 41
       13.928543 15.540621 14.189022 14.888915
000070 ab 65 60 41 4d 42 67 41 a2 03 62 41 c8 bb 6b 41
       14.024821 14.453687 14.125887 14.733345
000080 17 2a 6e 41 5b ca 7d 41 b3 a1 64 41 16 3f 68 41
       14.885276 15.861903 14.289477 14.515402
000090 8e 5d 77 41 e6 ed 7f 41 09 3a 69 41 82 f4 4b 41
       15.4603405 15.995581 14.576669 12.747194
0000a0 27 a2 3f 41 10 7e 60 41 1a 58 69 41 74 df 5f 41
       11.977088 14.030777 14.584009 13.992054
0000b0 66 42 6e 41 f9 53 da 40 fa 45 6d 41 41 ec 53 41
       14.891211 6.8227506 14.829584 13.245179
0000c0 bb f7 57 41 b8 45 5b 41 7e 7a 6c 41 05 63 56 41
       13.497981 13.704521 14.779905 13.399175
0000d0 c9 de 75 41 d6 45 ee 40 47 31 78 41 79 ed 64 41
       15.366891 7.446025 15.512031 14.307977
0000e0 bb 7c 74 41 e7 a9 81 41 dd bb 60 41 6f 8d 7d 41
       15.280452 16.20796 14.045865 15.84703
0000f0 21 a5 5a 41 91 72 5c 41 21 e7 75 41 2e 3f 49 41
       13.665315 13.77797 15.368928 12.577925

TextModel.2.weight f4 [32, 64]
000000 84 a8 ca 40 3d 77 ce 40 9a c5 35 41 bc dc d9 40
       6.3330708 6.4520555 11.360743 6.808195
000010 7e c0 03 41 b0 09 d6 40 84 d9 d0 40 15 9b cf 40
       8.234495 6.6886826 6.526552 6.487681
000020 03 45 e1 40 38 83 25 41 04 8e d5 40 f7 58 1f 41
       7.0396743 10.344536 6.673586 9.95922
000030 77 8e cd 40 5e d9 0f 41 0c d9 e3 40 77 e4 cd 40
       6.4236407 8.990568 7.120245 6.434139
000040 e0 b4 d4 40 de 16 d1 40 ec e3 d5 40 04 55 d3 40
       6.6470795 6.5340414 6.6840725 6.604128
000050 1d b5 d2 40 63 d5 d2 40 ff 8b 21 41 c8 e9 d2 40
       6.5846086 6.588548 10.096679 6.5910378
000060 35 b3 cf 40 e9 c4 12 41 8c 44 ce 40 d1 65 ce 40
       6.490626 9.173074 6.4458675 6.4499288
000070 6a e4 d3 40 25 b6 d5 40 f3 9e cf 40 ac 7e 0f 41
       6.6216326 6.6784844 6.488153 8.968426
000080 6c 24 d2 40 ee 65 12 41 7f e3 d0 40 5c 4e cd 40
       6.566946 9.149885 6.5277705 6.4158154
000090 45 28 ce 40 7d a9 12 41 f4 a0 d8 40 ed 2d 21 41
       6.4424157 9.166379 6.7696476 10.073712
0000a0 ce b0 e6 40 97 2c d3 40 58 bb ce 40 88 b1 cd 40
       7.2090826 6.599193 6.460369 6.4279213
0000b0 a5 43 cf 40 f1 7f 2f 41 90 30 d2 40 15 2b df 40
       6.4770074 10.968736 6.568428 6.974009
0000c0 e1 9b cf 40 d5 97 1a 41 34 b7 f4 40 32 e2 d3 40
       6.487778 9.662068 7.6473637 6.6213617
0000d0 75 b1 d1 40 c3 6e 28 41 07 d8 d2 40 e2 be cd 40
       6.552912 10.527041 6.5888705 6.429551
0000e0 b4 ca d2 40 8d ec 11 41 b0 77 ce 40 62 3f 0f 41
       6.587244 9.120252 6.4521103 8.952974
0000f0 14 33 cb 40 89 18 1b 41 1b 35 d5 40 d5 4d dd 40
       6.349985 9.69349 6.6627326 6.915751
000100 23 2d ce 40 f1 5a cb 40 98 b7 35 41 13 d1 d9 40
       6.44301 6.3548512 11.357323 6.8067718
000110 63 0c 04 41 8f 6b d5 40 b1 0e d3 40 d4 69 ce 40
       8.253024 6.6693797 6.5955434 6.4504185
000120 43 0a e4 40 82 87 23 41 95 73 d0 40 6e 0e 1f 41
       7.1262527 10.220583 6.514109 9.941023
000130 61 58 cc 40 e1 1d 12 41 9b d5 de 40 33 92 d0 40
       6.3857884 9.132295 6.963575 6.5178466
000140 06 45 d8 40 01 5d d3 40 51 7d d3 40 21 7a d3 40
       6.7584257 6.605103 6.6090474 6.6086583
000150 62 90 d1 40 df 3e d1 40 a3 f3 24 41 90 21 d6 40
       6.548875 6.5389247 10.309482 6.691597
000160 44 d8 d0 40 d9 8c 13 41 87 ef d1 40 d2 c8 ce 40
       6.5263996 9.221887 6.560489 6.462014
000170 76 fe d3 40 14 37 cf 40 21 11 d4 40 f4 25 12 41
       6.624812 6.4754734 6.627091 9.134266
000180 dc 1d ce 40 b8 1a 10 41 da f3 cc 40 6c 59 cd 40
       6.441145 9.006523 6.404767 6.4171658
000190 6e 90 cc 40 33 c9 10 41 ce 5b d5 40 6b 1f 23 41
       6.3926306 9.049121 6.6674566 10.19517
0001a0 d8 7f e6 40 f2 cf d2 40 b8 91 cc 40 e0 08 cb 40
       7.203106 6.587884 6.392788 6.3448334
0001b0 d0 74 cb 40 40 c9 2d 41 df d4 d2 40 38 b0 da 40
       6.3580093 10.861633 6.5884852 6.834011
0001c0 b4 bd cf 40 26 2c 18 41 9f 4a ef 40 8a b1 d2 40
       6.491907 9.510778 7.477859 6.5841722
0001d0 e0 99 d3 40 2f 35 28 41 44 34 cc 40 7f 84 cf 40
       6.6125336 10.512984 6.38138 6.484924
0001e0 f1 44 d2 40 df 27 10 41 40 f1 d2 40 25 ae 11 41
       6.5709157 9.009734 6.5919495 9.105016
0001f0 dc c7 c8 40 da d6 17 41 c0 c5 d1 40 08 8d db 40
       6.274397 9.489954 6.5553894 6.8609657
000200 05 26 0c be 50 cf 15 3d b1 2a bf bd da a0 af bd
       -0.13686378 0.03657466 -0.093343146 -0.08575602
000210 3c 7e 8a bd bb 56 07 be ba 06 8a 3d 87 7c 70 bd
       -0.067623585 -0.13216679 0.06739564 -0.05871251
000220 2f ec ba bd cf 33 ef bd d8 9a 2a 3d 30 ab 94 bd
       -0.0912708 -0.116798036 0.041651577 -0.07259214
000230 bc f1 29 bd 4a a5 85 bd 12 26 a7 bd 5f da 05 bb
       -0.0414903 -0.06525667 -0.08161558 -0.0020424349
000240 d7 74 8a 3d e3 19 c1 bd c7 c1 ac bd d8 cf 04 be
       0.06760567 -0.094287656 -0.084353976 -0.12969911
000250 b3 d8 06 be b5 58 e0 3a 8a 99 b1 bc 0c 5a cb 3d
       -0.13168602 0.001711628 -0.021679658 0.099292845
000260 18 81 37 bd da 3d b5 bd 76 17 c9 bd ef 60 c7 3c
       -0.044800848 -0.08849688 -0.09818928 0.024338214
000270 e5 a3 07 be 77 b6 25 3d 3f a0 b8 bc 21 6e 3a bd
       -0.13246115 0.040457215 -0.022537349 -0.045515183
000280 33 03 4b 3b 86 8e 6f bd 5d aa 02 3d c4 70 14 be
       0.0030977249 -0.05848553 0.031900752 -0.14496142
000290 95 36 ea bd a5 54 91 3d f3 9b ac 3a 2f b3 90 bd
       -0.11436192 0.07096223 0.0013169035 -0.070654266
0002a0 c5 a8 56 bd 61 ae d1 bd fb 93 9d 3c db c0 28 bd
       -0.052407045 -0.10238338 0.019235602 -0.041199546
0002b0 d1 28 2c bd 35 6b f4 bc 2a 9f 57 3d 26 68 ae bd
       -0.042031113 -0.029836277 0.052642025 -0.085159585
0002c0 13 33 9a bd e6 2f 68 bb 71 cc 72 3c b1 af b1 bd
       -0.07529273 -0.003542894 0.01481925 -0.086760886
0002d0 aa f1 48 be 42 70 04 bd 14 1d 07 bd 0c cd 67 bd
       -0.19623438 -0.03233362 -0.032986715 -0.056592032
0002e0 0f 35 b2 3c 06 05 fa bd f2 78 bc 3c 7d 74 ce bd
       0.021753816 -0.122079894 0.02300689 -0.10080812
0002f0 4d 9f 1b 3d 78 46 0b 3d 92 df 94 bc 5b 87 9f 3d
       0.037993718 0.03400275 -0.018173013 0.07789489
000300 cb 28 ca 40 68 3d c9 40 06 58 34 41 9e 4f d8 40
       6.3174796 6.288746 11.27149 6.759719
000310 df 83 03 41 44 13 d3 40 00 d4 d3 40 1d a0 d0 40
       8.219695 6.5961018 6.619629 6.519545
000320 c1 8d de 40 25 60 25 41 4f bf d2 40 a2 a4 1d 41
       6.954804 10.335973 6.585853 9.852694
000330 fa b7 ce 40 f8 cf 12 41 22 70 e1 40 4c 33 d1 40
       6.459958 9.175774 7.044938 6.537512
000340 dd 6c d6 40 69 f5 d0 40 6f 4b ce 40 cb a2 cf 40
       6.700789 6.5299573 6.446708 6.488622
000350 2c 38 ce 40 ed 17 d1 40 76 1c 23 41 62 b1 d1 40
       6.444357 6.5341706 10.194448 6.552903
000360 55 2e cf 40 2d 46 10 41 25 b7 d2 40 e2 94 d0 40
       6.474406 9.017133 6.5848565 6.518174
000370 4b f4 d1 40 61 68 cf 40 f5 30 d0 40 db 4f 0f 41
       6.561071 6.4814916 6.505976 8.956996
000380 12 f9 d2 40 e7 20 10 41 cb b4 d2 40 e2 41 d0 40
       6.592904 9.008033 6.5845695 6.5080423
000390 63 fb cb 40 7c 30 11 41 24 c7 d2 40 8f 37 20 41
       6.374437 9.074337 6.586809 10.013564
0003a0 f8 7c e5 40 8b 6d cf 40 00 cf cd 40 4d 5b ca 40
       7.171505 6.482122 6.4315186 6.323645
0003b0 6d df cf 40 a5 a8 2b 41 80 56 cc 40 cb 0f da 40
       6.4960237 10.728673 6.385559 6.814428
0003c0 37 8d d2 40 ee 42 1a 41 db 6f ed 40 1d 62 d5 40
       6.579738 9.64134 7.419904 6.6682267
0003d0 dd 7b cd 40 d5 4c 28 41 7c d5 cb 40 86 62 cd 40
       6.42137 10.518758 6.36981 6.418277
0003e0 f2 23 d4 40 09 55 0e 41 99 16 cd 40 67 a9 10 41
       6.629388 8.895761 6.4090085 9.041358
0003f0 78 5e cc 40 9b 98 18 41 ac d9 d4 40 95 2a dc 40
       6.386532 9.537257 6.6515713 6.880198

TextModel.2.bias f4 [32]
000000 ef ee 43 41 ab 88 44 41 94 c7 df bd 8c 82 43 41
       12.245833 12.283366 -0.109267384 12.219372
000010 8a 2a 44 41 4f a4 42 41 51 72 42 41 d9 13 9c bd
       12.2603855 12.165114 12.152909 -0.07620973
000020 f1 8f 92 bd 34 f7 ad 40 8f 92 b9 bd 71 c0 44 41
       -0.07156361 5.436426 -0.09061157 12.296983
000030 18 d7 f5 bd 57 4e 47 40 6e b6 43 41 c3 d4 43 41
       -0.120039165 3.1141565 12.2320385 12.239444
000040 c1 0d 33 be b4 07 0d be 12 1e 46 41 92 76 41 41
       -0.17485715 -0.1377247 12.382341 12.091448
000050 dd 6a 40 41 df da 43 41 3e 16 41 41 d6 ba 63 bd
       12.02609 12.240935 12.06793 -0.055598103
000060 c1 71 42 41 85 e3 8d bd b8 1e c9 bd 57 76 42 41
       12.152772 -0.069281615 -0.09820312 12.153892
000070 a9 84 5f bf be eb 40 41 65 41 06 be 20 83 40 41
       -0.873118 12.057554 -0.13110884 12.032013

TextModel.4.weight f4 [1, 32]
000000 e7 33 f1 40 9e 3e f2 40 b6 6a 8c bc a3 13 f3 40
       7.5375857 7.5701437 -0.017140727 7.596147
000010 d6 36 f3 40 12 e5 f5 40 94 78 f5 40 8d cb bb bd
       7.600444 7.6842127 7.670969 -0.091696836
000020 d9 53 9e bd a6 2f 08 41 46 fd 45 bc 64 b4 f3 40
       -0.077308364 8.511633 -0.012084311 7.6157703
000030 81 24 ac bc 0d 0b e9 c0 e8 0b f3 40 59 67 f5 40
       -0.0210135 -7.282599 7.5952034 7.6688657
000040 fb 7c 02 3c 97 f2 a4 3b 69 d1 f1 40 8b af f4 40
       0.007964368 0.005033802 7.556813 7.6464286
000050 7c 7f f6 40 80 be f1 40 0c 17 f6 40 95 50 07 be
       7.703062 7.5545044 7.6903133 -0.13214333
000060 fc 0b f7 40 de 81 2f bd f0 2c d4 bc b8 78 f5 40
       7.720213 -0.04284846 -0.025900334 7.670986
000070 98 00 a8 3f 4c 40 f5 40 d0 df 46 bc 7e 2d f6 40
       1.3125181 7.6640987 -0.012138322 7.6930532
