models/MLPModel/state_dict.pt (torch, 18925 bytes, 7 tensors)

TextModel.0.weight f4 [32, 25]
00000000: f523 c73e 5950 413e 7ee5 723e 890b 5d3e
00000010: ccf2 a8be 35e3 9fbf 79f5 46be 927a e93e
00000020: 2125 ba3e 4c0f 453e 56ed 2b3f 5088 293f
00000030: 0fc8 5a3f 1dcb 8c3e 6c1f 2e3f 2099 183f
00000040: aad2 9d40 5546 e33f cb2a 773f 24d2 d1be
00000050: 0057 de3e c8b6 69be 8731 d4be ffba 083f
00000060: 600b eabe 1f38 cebe 1c75 5d3e cbc7 c9be
00000070: 7d92 a23d 81e4 16bf 21e7 aabe 3239 adbe
00000080: 3e8b ed3e e84c 9b3e 2c2f f03e afe1 043f
00000090: 4a5d 243f 31c5 c33f aa79 403c cf9e 8c3f
000000a0: 8be7 303f 4145 8a40 180e fe3f 6455 9d3f
000000b0: 34d5 383f e107 e03e 53c9 723f 2d8e a63e
000000c0: cae4 e03e 0d11 623e 2aea cf3e c6c4 0ac0
000000d0: 492e 323f 569a 183f 9337 8ebf 7c6f f33e
000000e0: eccc 933d ecf8 41bd b345 033f 246f b83f
000000f0: 9606 803f 6457 2ec0 2a97 e8bf 4f4b 4fbf
00000100: 683b 4dbe c74d ebbd 8c27 0540 fc52 a6c0
00000110: cf07 913e b8e6 62c0 4f5d f53c 81b2 5bc0
00000120: 0062 1cbf 7f29 48bf 8851 4ebf b7d6 923d
00000130: 849e d1bd ef98 e13e 8d44 9fbc 7811 273d
00000140: 3895 10c0 fecd 6ebe f485 ee3e 3e26 19be
00000150: 1fdb 493f 5810 283f 1027 8e3f 0668 003e
00000160: 5f47 473e 1ad2 0e3f 47cd 863f 1473 9a40
00000170: c7f3 f13f b37e b13f 658f 6bbf 6e7a 4d3f
00000180: 4283 a4be 5ce8 33be 2527 f03e bbbc 88be
00000190: 390a cc3e 64cf b2bf 0446 263f 2a60 273f
000001a0: b8a6 85bf 3043 15c0 4cf2 0dbf fff5 6a3e
000001b0: 24e9 20bf a433 3540 8db1 2840 83b7 afbf
000001c0: cdda 16bf 083d babf f229 bdbf c2eb 653f
000001d0: 90ee 1540 587b aac0 220d 1840 16e8 90c0
000001e0: cc21 743f 984c 90c0 5608 27c0 a15f a73e
000001f0: 19f7 20c0 6e53 cf3e 149f dcbf 5626 1c3f
00000200: 55d8 273f 85cd 7dbf 713a 8e3f f229 c6bd
00000210: a19f 20bf cc3b 363f ee73 9b3f 5676 503f
00000220: 988b fdbf 537c 0bc0 7cb9 e5bf 5621 9ebf
00000230: b492 223f 32f9 d73f 4901 88c0 8935 c7bd
00000240: 8547 59c0 a569 0a3f 27c1 57c0 bf1f edbe
00000250: 47cb 8abc 58df 14bf d1ca 823e d368 a33d
00000260: efaa 683e 506f 1abd bbb1 1fbc fe4f b8bf
00000270: 1b73 403f cc91 883e 1fd5 6c3e 347c a43e
00000280: f3a7 353f 9bb9 363f 3cf9 3c3f 34cb f23c
00000290: 0a85 643f d72a 313f b069 9340 85fc 0840
000002a0: 83b6 943f ddb0 0fbf 5b11 033f 4f03 49be
000002b0: d391 d93d 04cc ce3e f573 a9bd 0a88 2abe
000002c0: afdb be3d 7b29 973c 0495 3d3e ba13 13bf
000002d0: 25fc 71bf b664 1b3f 033e c43d 11e2 38be
000002e0: 92ed 363f fcaf 183f 1c3c 353f 9e1d 723f
000002f0: caca ee3d beba 643f e984 243f e08f 9140
00000300: 7965 0240 2b66 a43f fb1e 28bd ff13 073f
00000310: 444c 6a3e 3f38 bc3d ed84 083f 691a 563e
00000320: e478 ca3c dea8 25bd 0081 df3e cd50 5a3d
00000330: 6841 65be 574c f7bf d3d9 74bd 7ba9 d43e
00000340: 90dc 9cbe 9075 213f 77ca 433f 3365 803f
00000350: 35b0 873e b45e 5a3e 9012 f83e 9894 913f
00000360: 8a96 9d40 6b64 d93f 62bf a03f 3b36 54bf
00000370: bba2 373f e005 b2be 30a2 7fbe 9446 033f
00000380: 5661 a4be 970b b73e 7f31 95bf 7e26 0b3f
00000390: 1609 e13e 4759 66bf d460 ad3e f7a7 ec3d
000003a0: 7aeb aabe 7942 f33e 5e94 bc3f ad37 8c3f
000003b0: 5767 b0bf 874c c5bf 10e7 f1bf 58ce d0bf
000003c0: a584 443f 0998 0440 6503 9ec0 0c14 e43d
000003d0: 580e 5fc0 74ab fd3e 743e 6bc0 9fca 4abf
000003e0: 5bc3 c1bd 269d 05bf 032b d0be 2913 3d3d
000003f0: d504 89be e6a4 aa3d 2dc6 f0be 04aa c4bf
0.3889462 0.18878306 0.23720357 0.21586432 -0.3299774 -1.2491213 -0.19429578 0.45601326
0.36356452 0.19244117 0.6715902 0.6622362 0.85461515 0.27498713 0.68016696 0.5960865
4.931966 1.7755839 0.9654967 -0.40980637 0.4342575 -0.22823632 -0.41444036 0.53410333
-0.45711803 -0.40277192 0.21626705 -0.39410242 0.07938097 -0.5894242 -0.33379462 -0.338327
0.46395296 0.30332112 0.4691099 0.51906866 0.6420485 1.5294553 0.011747757 1.0985965
0.69103307 4.320954 1.9848051 1.2291684 0.7220032 0.4375601 0.94838446 0.32530347
0.43924552 0.22076817 0.4060834 -2.16826 0.69601876 0.596105 -1.111071 0.47545993
0.0721682 -0.04735653 0.5127823 1.4408917 1.000201 -2.724084 -1.8171132 -0.80974287
-0.20042193 -0.11489444 2.0805387 -5.19763 0.2832627 -3.545332 0.02995172 -3.43277
-0.61087036 -0.7818832 -0.80593157 0.0716986 -0.102353126 0.44061992 -0.019441867 0.040788144
-2.2591076 -0.23320767 0.46586573 -0.14955994 0.7884998 0.6564994 1.1105671 0.12539682
0.1946082 0.5578934 1.0531396 4.8265476 1.890252 1.386679 -0.9201568 0.8026494
-0.32131392 -0.17569107 0.46904865 -0.2670649 0.3985155 -1.396954 0.64950585 0.6538111
-1.0441504 -2.3322258 -0.5544784 0.22945403 -0.62855744 2.831277 2.6358368 -1.3727878
-0.58927613 -1.4549875 -1.4778426 0.8981286 2.3426857 -5.3275566 2.3758016 -4.528331
0.9536407 -4.50935 -2.6098838 0.32690147 -2.5150816 0.4049334 -1.7236047 0.60995996
0.6556447 -0.9914172 1.1111585 -0.09675969 -0.62743574 0.7118499 1.2144754 0.81430566
-1.9808226 -2.1794631 -1.794723 -1.2353923 0.635051 1.6872923 -4.250157 -0.09727008
-3.3949902 0.5406745 -3.371164 -0.46313283 -0.016942633 -0.58153296 0.25545362 0.07978978
0.22721456 -0.037703812 -0.009746964 -1.4399412 0.75175637 0.26673734 0.23128174 0.3212601
0.70959395 0.7137696 0.738178 0.02963791 0.892655 0.69205993 4.6066513 2.1404126
1.1618198 -0.56129247 0.5119836 -0.19630168 0.10623517 0.40390027 -0.0827407 -0.16653457
0.09319245 0.018452397 0.18513876 -0.57451975 -0.9452537 0.6070055 0.0958214 -0.18054987
0.71456254 0.5964353 0.70794845 0.9457644 0.11659773 0.89347446 0.64265305 4.548813
2.0374434 1.2843679 -0.04104517 0.52764887 0.22880656 0.091904156 0.5332783 0.20908512
0.024715848 -0.040444247 0.43653107 0.053299714 -0.22388232 -1.9320172 -0.059778046 0.41535553
-0.30637026 0.6307001 0.7648081 1.0030884 0.26501623 0.21325189 0.48451662 1.1373472
4.9246264 1.698377 1.2558405 -0.8289525 0.7173268 -0.34770107 -0.24964213 0.5127957
-0.3210551 0.3575103 -1.165573 0.5435561 0.43952245 -0.89979976 0.33862936 0.11555474
-0.3338278 0.47511652 1.4732778 1.0954491 -1.3781537 -1.5413979 -1.889864 -1.6312971
0.767649 2.0717795 -4.9379144 0.11136636 -3.4852505 0.4954487 -3.6756868 -0.79215425
-0.09461089 -0.52192914 -0.40657815 0.04616085 -0.267615 0.08332233 -0.47026196 -1.5364385

TextModel.0.bias f4 [32]
00000000: 9587 7140 0215 9440 fc95 8d40 2ffb 5e40
00000010: b179 1240 3755 8d40 1700 7f40 3bf8 8940
00000020: baee 6d40 445e 8b40 5f2e 7340 5a04 8640
00000030: 29b4 9440 e862 5640 4b5e 5e40 bbac 8a40
00000040: 72d4 8440 0e75 9940 a338 8f40 eaf2 a940
00000050: e724 4b40 f605 9f40 9969 4440 e7be 8140
00000060: 9b48 4f40 0351 9040 3c38 9040 7d81 8a40
00000070: f2e0 8440 3d0e 8d40 1e3f 8640 4735 b740
3.7739003 4.6275644 4.4245586 3.484081 2.2886775 4.416652 3.9843805 4.3115516
3.7176957 4.355257 3.7997053 4.188031 4.646992 3.3497868 3.4745052 4.3335853
4.1509333 4.795539 4.4756637 5.3109026 3.1741273 4.9694777 3.0689452 4.0545535
3.2388065 4.509889 4.5068645 4.3283067 4.152459 4.407988 4.1952047 5.7252536

TextModel.2.weight f4 [64, 32]
00000000: 17f6 0840 542d e53f 25ec 1640 740c 2840
00000010: 93a0 5f40 139b 2240 921f 0640 f8cf ec3f
00000020: 9bcb 1a40 4003 2440 7a3c f53f 86e5 2040
00000030: b592 f53f 4602 b140 1291 3640 4c12 fc3f
00000040: 8bb5 0540 19f0 0d40 f20c f93f edb1 f23f
00000050: 81f5 3a40 ba8b 0140 01a4 4b40 18ad 1040
00000060: 9bd6 2c40 8005 3140 fdbb 1240 59e5 0940
00000070: 0efb 0140 27c3 eb3f cb43 0f40 ec8e 0c40
00000080: 196d 1340 593c 0840 ef09 3140 2d74 2c40
00000090: 9249 6e40 bde5 2240 d480 0840 c03b 0d40
000000a0: ca73 2040 9d45 3740 a522 0640 3081 2f40
000000b0: c051 0a40 ce73 b640 e02f 4240 617d 0440
000000c0: 9460 0b40 b44d 0e40 9e57 0040 465e 0a40
000000d0: ef02 5340 de48 0e40 acbd 6040 600e 0e40
000000e0: b0f8 2140 6997 3540 56c5 0d40 f41f 0240
000000f0: f480 0340 6cfe 0340 aa64 1340 e2de 1b40
00000100: 8096 1240 4ff2 f03f b2df 2240 73bf 2140
00000110: 26d0 7440 7a1a 2f40 da82 1140 aa5e 0040
00000120: 131b 1d40 dfd3 3640 7d83 f73f b70d 3140
00000130: ccdc 0040 1e94 b140 74ee 2e40 07fa 0d40
00000140: 984f 0d40 ca9d 0c40 4f5d 0740 0058 f93f
00000150: 466e 4740 e702 0640 5640 5340 4e27 0c40
00000160: ecc5 1f40 2454 3340 0b74 0440 d55f 0340
00000170: 7f74 0e40 f6a9 fb3f ec40 0540 e89b 1c40
00000180: 983b 863f 7c9f 323f 49d3 e63f dc28 ab3f
00000190: 6934 2740 b220 bb3f 3c1e 533f 1146 313f
000001a0: 4161 8f3f 0d1a ee3f a1bd 653f 1338 e23f
000001b0: 5f88 2c3f 0aff 9840 1acd d63f 063a 483f
000001c0: 3a76 2d3f da3c 6c3f cfe5 093f d030 233f
000001d0: abc3 f73f 2fe0 5b3f a43e 1240 865d 703f
000001e0: 4eb4 ce3f f8d8 ee3f cbf7 873f 7c6a 203f
000001f0: 0cc0 313f 77ed 3a3f 381a 863f 8d53 8e3f
00000200: 8ce4 0f40 de1b fd3f e402 1f40 252a 2640
00000210: 1c3b 6a40 9afa 3540 ceb5 0c40 260e 0040
00000220: 3159 1f40 d4b3 3240 03a8 0c40 9d92 3740
00000230: be51 0640 7ecf b340 6f3d 4440 077b 0440
00000240: a6c0 0140 bf65 1040 d27a 0740 8a43 0e40
00000250: c44e 4f40 9f61 ff3f 6066 5d40 bc2f 1a40
00000260: 8ae6 1f40 4cc1 3140 66ef 0540 b5fb 0640
00000270: abd3 0940 07d5 0040 11f5 0940 2d27 1d40
00000280: 86cb 1540 9f13 e83f 7efc 2f40 7f72 2240
00000290: 381e 6b40 c241 2c40 fcf9 0740 b9fa ec3f
000002a0: f2d9 2140 05c7 2f40 6f78 0140 64bf 3440
000002b0: a0b0 f73f f1e0 b240 a400 3640 9d3f 0140
000002c0: d6c8 0040 d614 0540 3f47 0040 82c5 f03f
000002d0: 1224 4440 26e3 0240 9235 5840 3fce 1540
000002e0: f677 2240 0aae 3540 6717 1340 b9a9 0940
000002f0: 8ac2 f33f cd6f fa3f d884 0040 e41b 1040
00000300: 95ef 1d40 1e0f f83f 65ee 2b40 bd76 2140
00000310: 424f 6e40 a790 2440 9e5d 0e40 bc96 f83f
00000320: 96c9 1940 9367 2b40 df6d 0740 b709 3d40
00000330: e6e0 0740 118d b240 fdfa 3940 7237 0440
00000340: 25e9 f83f 8f7b 1140 f17e fb3f 487c 0440
00000350: 1a72 4640 2de9 fa3f 2bc7 5840 d21d 1440
00000360: daed 2c40 87eb 2c40 bae1 1740 9178 0240
00000370: 4adb fa3f f70e fa3f 4f4d 1540 3669 1740
00000380: 6d94 1640 c337 f33f 69cb 2440 f23a 1f40
00000390: 140a 6440 59a2 3240 1f0e 1340 c3b7 0c40
000003a0: cc1c 1540 e539 3c40 b226 0140 b4d0 3940
000003b0: aa3b 0b40 ee55 ba40 ddc0 4240 0318 0d40
000003c0: ce5a 0640 325e 0e40 e178 f43f b3ba 0740
000003d0: 9735 4840 ab3f 0340 ea01 4e40 e05f 0d40
000003e0: d8e4 2440 058a 2f40 ca34 0640 ad2f f53f
000003f0: 84df 0540 0751 0a40 6443 1540 66ad 1e40
2.1400201 1.7904458 2.358163 2.62576 3.4941757 2.540715 2.095677 1.8500967
2.418677 2.5626984 1.9159081 2.514009 1.9185396 5.5315275 2.8526044 1.9693084
2.0892055 2.2177794 1.9457076 1.8960549 2.9212344 2.0241532 3.181885 2.2605648
2.7005985 2.7659607 2.292724 2.1546233 2.0309482 1.8418931 2.2385128 2.1962233
2.3035338 2.1286833 2.7662313 2.6945908 3.7232404 2.545272 2.132863 2.2067719
2.5070672 2.8636239 2.0958645 2.74226 2.1612396 5.7016363 3.034172 2.0701525
2.1777697 2.2234926 2.0053477 2.162004 3.297054 2.2231975 3.5115767 2.2196274
2.5308037 2.8373663 2.2151694 2.0332003 2.0547457 2.0624037 2.303019 2.4354787
2.2904358 1.8823947 2.5449033 2.5273101 3.8252044 2.735991 2.2736115 2.0057778
2.4547775 2.8566816 1.9337002 2.766462 2.0134764 5.5493307 2.733304 2.2183855
2.207983 2.1971307 2.11507 1.947998 3.1161056 2.0939271 3.3008018 2.189899
2.4964552 2.8020105 2.0695827 2.0527241 2.2258604 1.9661243 2.0820875 2.4470158
1.0486937 0.69774604 1.8033229 1.3371844 2.6125739 1.4619353 0.8246801 0.6924754
1.1201555 1.86017 0.89742476 1.7673362 0.67395586 4.7811327 1.6781342 0.78213537
0.67758524 0.9228035 0.53866285 0.63746357 1.9356588 0.8588895 2.2850733 0.93892705
1.6148775 1.8659964 1.0622495 0.6266248 0.69433665 0.7301859 1.0476751 1.1119248
2.2483244 1.9774129 2.4845514 2.5963223 3.6598577 2.8434205 2.1985965 2.0008636
2.4898188 2.7922258 2.1977546 2.8683236 2.0987391 5.6190786 3.0662496 2.070009
2.0273833 2.25621 2.1168714 2.2228723 3.2391825 1.9951667 3.4593735 2.4091635
2.498446 2.777423 2.0927367 2.109113 2.1535442 2.0130022 2.1555827 2.455516
2.340547 1.8130988 2.749786 2.5382383 3.6737194 2.6915135 2.1246328 1.8514014
2.5289273 2.7465222 2.0229757 2.8241816 1.9350777 5.5899587 2.843789 2.0195076
2.012258 2.0793967 2.0043485 1.8810275 3.0647016 2.045114 3.3782697 2.3407133
2.5385718 2.8387475 2.2983034 2.150984 1.9043744 1.9565369 2.0081081 2.2517023
2.467748 1.9379613 2.6864254 2.5228722 3.7235875 2.5713289 2.224464 1.9421
2.4029288 2.6781967 2.116081 2.953718 2.1231017 5.57972 2.905944 2.065884
1.944615 2.2731664 1.9648114 2.0700855 3.1007142 1.960241 3.3871562 2.31432
2.7020173 2.7018754 2.3731523 2.0386088 1.9598172 1.9535817 2.3328435 2.3657966
2.3528092 1.9001392 2.5749152 2.4879727 3.5631151 2.791159 2.297737 2.198716
2.3298826 2.9410336 2.0179868 2.9033632 2.1755166 5.8229895 3.0430214 2.2045906
2.0992923 2.2244992 1.9099389 2.1207702 3.1282709 2.050761 3.2188668 2.2089767
2.5764675 2.742799 2.096972 1.9155174 2.0917673 2.1611955 2.3322382 2.4793334

TextModel.2.bias f4 [64]
00000000: 7f0e 3940 d8f4 3a40 5c46 3540 c76a 1e40
00000010: 3bdb 3940 c18a 4a40 ded4 4140 3eaa 3640
00000020: b63b 3a40 cf30 4040 f3bf 3a40 1c4d 3940
00000030: 2efe 3a40 86c7 3b40 ca3d 4040 a827 4040
00000040: fb9e 4840 052b 4440 0ba0 4840 0386 4040
00000050: a94b 24be 4bc4 3d40 4498 3640 64f8 4440
00000060: 7e21 3e40 1278 3a40 c6ab 3640 05af 4140
00000070: 9f6a 4540 0488 4940 1fcf 3c40 d1fb 4440
00000080: dafd 3f40 ae43 3540 4bd9 3540 bfb0 4340
00000090: 266e 3340 ce11 4340 2936 4340 5cff 2940
000000a0: bd4a 4740 eb03 4740 55e0 4340 4167 4340
000000b0: f85f 9f3f b8d5 3a40 2b67 3740 5bf7 4540
000000c0: ab6a 2240 73af 1040 18d9 3b40 c3db 3a40
000000d0: a334 3640 2292 4440 d318 3940 7542 3c40
000000e0: bdec 4940 4669 4440 b6b9 3a40 7f6c 3440
000000f0: cb02 3840 138b 3640 266a 2e40 3394 4940
2.8915098 2.921194 2.8324194 2.4752672 2.9040058 3.1647189 3.0286174 2.8541408
2.9098945 3.002979 2.9179657 2.8953314 2.921764 2.934053 3.0037713 3.0024204
3.1347034 3.0651257 3.1347682 3.0081794 -0.16044487 2.9651058 2.8530436 3.0776606
2.9707942 2.9135785 2.8542342 3.0263073 3.0846326 3.1489267 2.9501417 3.0778697
2.9998689 2.8322558 2.8413875 3.0576627 2.803598 3.0479617 3.0501807 2.656211
3.1139367 3.1096141 3.0605671 3.053177 1.2451162 2.9192944 2.8656719 3.0932224
2.5377605 2.2607086 2.9351254 2.9196632 2.8469627 3.0714192 2.8921402 2.9415562
3.1550744 3.0689254 2.917585 2.819122 2.8751705 2.8522384 2.7252288 3.1496704

TextModel.4.weight f4 [16, 64]
00000000: 85a8 b23d 7b57 c5bb 0fbd 80bc ca18 c73d
00000010: dddc 383d a5fa db3d 0219 ae3d 6c2d bbbd
00000020: dcdd 803d c21b 813d 61d0 c7bd fd53 443d
00000030: 5d52 97bd 6feb acbd 1d14 4abc e8e6 f6bc
00000040: 7e26 42bd 5b3a babd cc23 673d 1260 df3d
00000050: 00fb 2cbd 4007 c9bd d142 a5bc 28ec fdbd
00000060: af34 e9bd c06a 5fbd 596f 8a3d 2e21 dcbd
00000070: 50da 12bd 5540 9fbd d9fe ffbd bc7d 32bd
00000080: e672 b8bc 202d acbc b02b bb3d 5b2c 0b3d
00000090: 6062 9f3d 8a62 2c3d 0a8e 3dbb 16ce 6b3d
000000a0: b33b c5bd 8040 483d 64df 733d dcd8 81bd
000000b0: c093 8cbb 72a8 c1bd 4005 f5bd da24 6dbc
000000c0: f41f 5c3c 7580 14bd 5eb8 ba3c f0a1 c5bd
000000d0: 663e a4bd 8a5a 983d e1ef 0abe b560 b53b
000000e0: 5f4d ae3d d3fd ad3d f72a d53c 43a1 f9bd
000000f0: a0d3 833c 5a44 5cbd 3c33 51bd 7f7a a03d
00000100: 7328 2240 a31b 1f40 0334 2040 2034 fb3f
00000110: 08d0 2540 bc7c 3040 9298 2740 115a 1e40
00000120: 0e5f 2840 9e00 2f40 e249 2d40 1f88 2640
00000130: 74e8 1f40 6f05 2140 0f26 2b40 5da6 2140
00000140: 1fa8 2940 f95c 2540 90e0 2940 bbdc 2540
00000150: f49a 803c 1ac6 2340 b5ad 2c40 bb25 2740
00000160: ae5c 2a40 f721 2240 3bc9 2b40 72af 2640
00000170: 385d 2240 d829 2940 f16e 2240 2040 2240
00000180: 1d9f 2440 239f 2140 1fe6 2640 7895 2840
00000190: 1c22 1140 02ee 2740 5033 2d40 00a7 0740
000001a0: 00e7 2240 1390 1f40 8e28 2c40 3cd8 2d40
000001b0: 8d8e d43f 2daf 2440 1170 2240 790c 2d40
000001c0: bf19 1e40 7c2e 2340 99da 1d40 45e2 2840
000001d0: ce82 2940 ca6c 2c40 731f 2340 97db 2a40
000001e0: 0014 2340 ab2b 2540 ab12 2a40 9925 1f40
000001f0: 50be 2e40 b0a6 1040 f820 1d40 efbc 2940
00000200: 0381 2240 5b49 2540 6ce9 2340 c948 e13f
00000210: 5659 2440 df38 2c40 f6c3 2440 0e97 2140
00000220: f35b 2640 0ad6 2840 c0de 2540 5ba7 1d40
00000230: 3e82 2140 e042 2440 c253 2840 97da 2d40
00000240: 17ab 2740 84d8 2840 5584 2b40 429a 2140
00000250: 4522 893d 3411 2c40 9a19 2b40 ffce 2740
00000260: 1bd5 1f40 0d5c 2a40 2b8c 1e40 0e24 2c40
00000270: 45b8 2540 62d6 2940 b94c 1d40 2862 2240
00000280: 47e7 2840 4bf4 2740 8b62 2840 3fbd 2c40
00000290: faf7 1640 e8fc 1d40 df08 2240 5c0d 0640
000002a0: 9811 2340 5078 2a40 6de5 2340 ccf3 2440
000002b0: c6e6 b63f 2b76 2a40 0efa 1d40 81cd 1e40
000002c0: b77c 1c40 bb99 2640 b767 2740 922a 2440
000002d0: f22c 2b40 d04b 2240 5f84 2440 b63c 2540
000002e0: e9e3 2640 2e56 2d40 2fcb 2440 dd20 2c40
000002f0: 38de 2e40 1fea 0840 ba0b 2140 9aa1 2140
00000300: 1515 173d 26d0 69bd bbf6 eb3c c0b6 f43b
00000310: 4ff0 bdbd 4326 cdbd f294 0ebe 75fa a8bd
00000320: 8313 9e3c 6fb7 71bb 730d a83d 5553 00be
00000330: 2bcc 6ebc ea48 fdbd 9ed4 6dbc 9eca f43c
00000340: aa4a 02be 5dde c93d 9a67 4fbd 6772 c53d
00000350: 8e3d 15bd e425 6b3d 45a0 c83d cb48 7dbd
00000360: 3bb2 2dbd eea9 493d 6eae eebd 6c33 7f3d
00000370: 27c6 bbbd 4265 cd3d dd99 b8bd 3f55 85bd
00000380: 40e9 a03d b14a 7fbd bfe8 c23d b136 933d
00000390: a8fc e93d d955 07be c203 43bc 791a 57bd
000003a0: a26a 913c 6131 debd f9d4 243d 9dea 87bc
000003b0: bbb0 89bd 0799 f2bd e6e3 563d c6fc 6bbd
000003c0: 344c ae3d 0a33 383c 10e9 bc3c cb27 e7bc
000003d0: f380 cfbc c073 61bd a79b f7bd 5829 823d
000003e0: a073 b8bd 7a7f 8a3d 0a01 6cbd 5951 8a3d
000003f0: 169e c03d 1250 b2bd f74a b13d e73d 15bc
0.08723549 -0.0060223914 -0.01571515 0.09721525 0.045132507 0.10741166 0.085008636 -0.09139523
0.06292316 0.063041225 -0.09756542 0.04793166 -0.073887564 -0.08443343 -0.012333897 -0.030139402
-0.04739999 -0.09093162 0.056430623 0.10906996 -0.04223156 -0.09815836 -0.020173462 -0.12398559
-0.11387002 -0.054545164 0.06759519 -0.10748516 -0.03585273 -0.07775942 -0.1249978 -0.04357694
-0.022515725 -0.021017611 0.09139192 0.033977848 0.077824354 0.04208616 -0.0028923773 0.057569586
-0.09630527 0.048889637 0.059539214 -0.06340191 -0.004290074 -0.094559565 -0.11963892 -0.014474118
0.013435353 -0.03625532 0.022792991 -0.09650028 -0.08019714 0.07439144 -0.13568069 0.00553521
0.08510851 0.08495679 0.026021464 -0.12188961 0.016092122 -0.053776123 -0.05107425 0.07835864
2.5337188 2.4860618 2.5031745 1.9625282 2.5908222 2.7576132 2.6186872 2.4742472
2.6308017 2.7344127 2.7076344 2.6020582 2.4985628 2.5159566 2.674198 2.525779
2.6508863 2.5837996 2.6543312 2.5915973 0.015698887 2.5589662 2.6981022 2.611678
2.6619067 2.533323 2.6841571 2.6044583 2.5369396 2.643179 2.5380213 2.5351639
2.5722115 2.525338 2.6077955 2.6341228 2.2677069 2.6239018 2.7062569 2.1195679
2.5453491 2.4931686 2.6899753 2.716323 1.6606003 2.573192 2.53809 2.7038863
2.4703214 2.5497122 2.4664671 2.6388104 2.6486087 2.69414 2.5487945 2.6696527
2.5480957 2.5807903 2.6573894 2.4866698 2.7303658 2.2601738 2.4551373 2.6521566
2.5391243 2.5826023 2.561122 1.7600337 2.5679526 2.6909711 2.5744605 2.5248446
2.5993621 2.638064 2.5917206 2.4633396 2.5235744 2.5665817 2.6301122 2.7164667
2.6198175 2.638215 2.679952 2.5250401 0.066959895 2.68855 2.6734376 2.622009
2.497382 2.6618683 2.4773052 2.6897006 2.589372 2.65371 2.4578078 2.537241
2.639116 2.6242855 2.6310146 2.6990507 2.3588853 2.4685612 2.5317914 2.0945654
2.5479488 2.6635933 2.560878 2.5773802 1.4289176 2.6634624 2.4683871 2.481293
2.445112 2.603133 2.6157053 2.5650983 2.6746182 2.5358772 2.5705793 2.5818305
2.6076605 2.708385 2.5749013 2.6895058 2.7323132 2.1392896 2.5163407 2.5254884
0.03688534 -0.05708327 0.028804174 0.0074680746 -0.09274351 -0.100170635 -0.13924006 -0.08250896
0.019296413 -0.0036883017 0.0820569 -0.12531789 -0.014575045 -0.12367423 -0.014516024 0.029881772
-0.12723795 0.098568656 -0.05063591 0.09640961 -0.036435656 0.057409182 0.09796194 -0.061837
-0.042406302 0.049234323 -0.116543636 0.0623049 -0.09168654 0.10029079 -0.09013722 -0.065104
0.07856989 -0.06232709 0.09517049 0.07188166 0.114251435 -0.13216342 -0.011902751 -0.05251548
0.017751042 -0.10849262 0.04024217 -0.016591365 -0.06723162 -0.11845594 0.052463435 -0.05761411
0.08510628 0.011242637 0.023060352 -0.028217217 -0.025330042 -0.05504203 -0.12090235 0.06355542
-0.09006429 0.067625955 -0.05761818 0.06753797 0.094051525 -0.087066785 0.086568765 -0.009108997

TextModel.4.bias f4 [16]
00000000: ce3a c7bd b394 1a40 d1a3 1a40 8f9a 573d
00000010: b980 4fbd d016 c9bc ae2e edbd 901b 1840
00000020: 5495 1740 19a3 033d 8279 1c40 63cb 3d3d
00000030: 4e8f 2140 019d 4b3c 4af4 e03c 057a 3c3c
-0.09728013 2.4153259 2.4162486 0.052637633 -0.05065987 -0.02454701 -0.11581169 2.3766823
2.3684893 0.032137964 2.4449162 0.046336543 2.5243716 0.012427569 0.027460236 0.011503701

TextModel.6.weight f4 [1, 16]
00000000: 90b7 01be 56f2 2d40 f8fe 2e40 7b42 3fbe
00000010: 1a05 79bd 5af3 1dbe ce56 14be 24ba 3440
00000020: e704 3640 3f8a 14bc b6b2 2e40 b6c4 09bd
00000030: 6207 2d40 a507 84bc d7dc e7bd 0aeb aabd
-0.1266768 2.717916 2.734312 -0.18677704 -0.06079588 -0.15424863 -0.14486238 2.8238611
2.8440492 -0.009066164 2.7296576 -0.033634864 2.7035756 -0.016116926 -0.11321419 -0.083456114
