models/MLPModel_Dropout/state_dict.pt (torch, 23213 bytes, 7 tensors)

TextModel.0.weight f4 [32, 25]
00000000: 9c28 b03e c052 ac3e a01f 153d a09f 0a3f
00000010: 4200 9bbe a1d9 25bf 7197 f8ba f319 343f
00000020: ae8e 253f d2b4 8f3d 47c7 fb3e 2842 263f
00000030: 1b83 933f 3ad8 cf3e 25f3 443f 3da3 383f
00000040: dc58 5440 fc37 b43f 5194 243f 3522 8c3e
00000050: 9b7d 1e3f d3f4 a83e 03f3 703c e0e3 f53e
00000060: 9286 20bd 8940 edbd 6524 203e 2bfa dabe
00000070: 9283 a43d b86f 0cbf cae6 ddbe ace5 b5be
00000080: bafc 2a3f ab16 9e3e 4d12 a23e cc7d 0d3f
00000090: 36c2 203f 34c2 923f 1deb e53e 7685 3d3f
000000a0: 5939 3e3f ab4e 4540 ab6f c13f ab47 863f
000000b0: 124f 053f a62c 0d3f ff0f 253f 7eaf 4b3e
000000c0: c86e d63e 2e2c 7b3d 1982 6d3e 818e 913d
000000d0: 80aa dd3e f8d0 493e 0269 4cbf ba75 fe3e
000000e0: bcbc 2a3e d43d 89bf d44a 6d3f 2db7 12c0
000000f0: 7368 cd3d ca91 a73f b61f b63e e581 cdbe
00000100: 252c 7dbf f0ae d03f d123 0a40 ca26 70c0
00000110: db71 2abf 8ed5 8dbf 948e e93f 0e3b 48bf
00000120: 8a89 973f 227c 0ec0 1d74 553f 63dd 99bd
00000130: 1524 e2bb b125 8c3d bda4 2a3e 9daf 0bbe
00000140: 9e79 bcbf c62a c5be 2b0a ce3e abf0 b2be
00000150: ed06 123f 5f40 f13e d5da 3d3f d6b8 e33e
00000160: cdc7 db3e 4c23 0b3f 2325 443f 803d 4c40
00000170: cd91 b83f 5b72 823f 300c febe 50f4 133f
00000180: be8e f8bc 60a6 09be 4272 c33e 0ced 73be
00000190: 2cf1 083e efef 7dbf 7bb3 c13e a268 4a3f
000001a0: 86ba c9be 3393 c8be 8388 80be 3a9c 7b3d
000001b0: dcb5 7abc 5a12 a83f 784f 8d3f 6b58 87bf
000001c0: df70 01bf 4a55 49bf b444 7fbf a940 1b3e
000001d0: 4695 d33f 9dbd 7bc0 7652 183f d46c 11c0
000001e0: 7a66 683e 38df 11c0 8247 6dbf d92e 53be
000001f0: 285c 6dbf 1832 953e f3cf b3bf 8d1f c83e
00000200: 470b 553f 7f2c 2fbf eccf 033f 6ee7 133d
00000210: 9084 e1be dcc3 ff3e 55cf 5c3f 3e22 003f
00000220: e91c cebf 7af6 d4bf 5a3f 37bf 49d1 49bf
00000230: 0b3d 043f b5f3 ac3f a93f 5ec0 f4d7 c23d
00000240: 42f3 02c0 4d08 e83e a7db fbbf ffa0 f3be
00000250: 1b6f 86be fc61 2dbf b30e 1d3e bd29 55bd
00000260: 1b90 29bd 540c 30bd 273c adbd b715 9cbf
00000270: 2003 1e3f da24 8f3e 4025 5f3e 0a29 a23d
00000280: f5b8 163f 193b 3d3f 028a 453f 10c0 923e
00000290: 34a9 253f 7e8c 463f e690 4840 75e5 bc3f
000002a0: 9ddc 483f 1dc2 b5be 81b4 293f cc28 c7bd
000002b0: 9b15 703e 7568 953e 8c35 ac3c ae2f 1c3d
000002c0: 7eb9 e43d 0e2b 833d 7b6c 283e eb24 c1be
000002d0: bf37 51bf 5770 3b3f 0f41 1f3e 3c2f 24be
000002e0: 459d 273f caec 1d3f eb84 263f 7bb1 513f
000002f0: 7a5a f73e 19c0 2a3f 6b68 293f 12bd 4a40
00000300: 0b5d b93f 02e7 913f 1b20 903d 891b 1b3f
00000310: d048 5d3e 63f6 3c3d 45dd 063f 719e 083e
00000320: e705 fe3d 5fd7 e93d 50ab bf3e 74d2 ae3c
00000330: f981 09be 7602 d3bf 41cf 00be 1eed f53e
00000340: 543d 07bf 41d1 053f 5eaa 2b3f e52c 3c3f
00000350: 6f69 673e 63a4 fd3e a3c9 d83e 8f4e 643f
00000360: 778a 5a40 f16d 9c3f 86d5 7a3f 7707 29bf
00000370: 77e8 0a3f e7cf 94be eac4 2fbe 437f 013f
00000380: 36f7 8dbe 98b6 a13e aae1 6abf 6a57 ce3e
00000390: 06cd d63e faaa 25bf 264a f2be ae03 9f3d
000003a0: 5d8d 01be 09a5 a33e bf19 963f 7a41 673f
000003b0: 89d8 60bf ec38 3bbf bd86 5abf 38a2 98bf
000003c0: 3b25 1b3f 3ddb d53f 504d 80c0 47af e23e
000003d0: 0827 02c0 9782 c03e 17ab 0bc0 762f 3cbf
000003e0: 39cf 86be 7cd7 09bf 8805 743d 5d24 183c
000003f0: bcf7 96bd bd04 603c 10a6 98be 7a7b b9bf
0.34405982 0.33656883 0.036407113 0.5414982 -0.30273634 -0.647852 -0.0018966031 0.70352095
0.64670837 0.070169106 0.49175474 0.64944696 1.1524385 0.40594655 0.7693351 0.7212408
3.3179235 1.4079585 0.6428881 0.27369848 0.6191041 0.32999286 0.014706376 0.48025417
-0.039190836 -0.11584575 0.15638883 -0.42768988 0.080329075 -0.5485797 -0.4334014 -0.35526788
0.6679188 0.3087667 0.31654587 0.55270076 0.6279634 1.1465516 0.4490594 0.7403177
0.74306256 3.0829265 1.5112203 1.0490621 0.52073777 0.55146253 0.64477533 0.19891164
0.41881394 0.06132143 0.2319416 0.071072586 0.43294144 0.19708622 -0.7984773 0.49699193
0.16673559 -1.0721993 0.92692304 -2.2924302 0.10029688 1.3091366 0.3557107 -0.40138164
-0.98895484 1.6303387 2.158436 -3.7523675 -0.6657998 -1.1080797 1.8246636 -0.7821511
1.1838849 -2.2263265 0.833803 -0.07512929 -0.006901274 0.068431266 0.16664405 -0.1364121
-1.4724615 -0.38509196 0.40242133 -0.3494924 0.5704182 0.47119424 0.74162036 0.44476956
0.42925873 0.54350734 0.76619166 3.1912537 1.4419495 1.0191149 -0.49618673 0.57794666
-0.030341502 -0.13442373 0.3817311 -0.23820895 0.1337325 -0.99194235 0.37832245 0.79065907
-0.3940012 -0.39174804 -0.2510415 0.061428286 -0.015302148 1.31306 1.1039877 -1.0573858
-0.5056285 -0.78645766 -0.9971421 0.15161385 1.652993 -3.933448 0.59500825 -2.2722673
0.22695342 -2.2792492 -0.9268724 -0.2062334 -0.92718744 0.2913978 -1.4047836 0.3908657
0.8322033 -0.6842727 0.5148914 0.03610938 -0.4404645 0.49954116 0.86253864 0.5005225
-1.6102573 -1.6637719 -0.7158104 -0.7883497 0.51655644 1.3511873 -3.4726355 0.09513846
-2.0460973 0.45318833 -1.9676408 -0.47583768 -0.26256642 -0.6772764 0.15337639 -0.052041758
-0.041397195 -0.042980507 -0.08458739 -1.2194127 0.6172352 0.27957803 0.21791553 0.07917984
0.5887597 0.739183 0.7716371 0.28662157 0.6471131 0.77558124 3.133844 1.4757525
0.7846163 -0.3549966 0.6629105 -0.09724578 0.23445742 0.29181257 0.021021627 0.03813141
0.11168192 0.064046964 0.16447632 -0.3772348 -0.81725687 0.7321829 0.15552162 -0.16033643
0.6547435 0.61689436 0.65046567 0.8191144 0.48311216 0.6669937 0.66174954 3.16779
1.448152 1.1398623 0.07037374 0.6058889 0.21609807 0.04613341 0.5268138 0.1334169
0.124034695 0.11418032 0.3743539 0.021340586 -0.13428487 -1.6485126 -0.12579061 0.4803247
-0.52827954 0.5227242 0.67056835 0.73506004 0.22598813 0.4953948 0.42341337 0.8918237
3.4147012 1.2221051 0.9798206 -0.66027015 0.54260963 -0.29064867 -0.1716496 0.5058481
-0.2772767 0.3158462 -0.91750586 0.40301067 0.41953295 -0.64714015 -0.47322196 0.07764374
-0.12651582 0.3196185 1.1726607 0.90334284 -0.87830406 -0.7313373 -0.85361844 -1.1924505
0.60603684 1.6707531 -4.0094376 0.4427435 -2.0336323 0.37599632 -2.1823175 -0.7350992
-0.26329973 -0.5384443 0.059575588 0.009286013 -0.0737147 0.013673005 -0.29814196 -1.4490807

TextModel.0.bias f4 [32]
00000000: 7080 6640 54c7 6540 7810 0840 c279 5840
00000010: bc67 3640 efce 5640 4d06 5940 7583 6240
00000020: 4e9c 5340 fc98 4740 529d 5040 a926 2740
00000030: 2db8 6640 2f2c 6440 436c 5640 ea8f 6340
00000040: f470 5840 21d7 7940 047f 5c40 8a68 8740
00000050: 6a5e f83f 161e 7e40 3548 0640 dab7 5e40
00000060: e184 4a40 7c37 4140 e3be 6d40 01b0 5840
00000070: bafd 6640 593f 6240 8662 6e40 377f 9c40
3.6015892 3.590291 2.1260052 3.3824315 2.8500814 3.3563802 3.3910096 3.5392735
3.306415 3.1187124 3.259602 2.6117346 3.6049912 3.5651968 3.3503578 3.5556588
3.381894 3.9037554 3.4452524 4.231511 1.9403813 3.9705863 2.0981572 3.4799714
3.1643603 3.0190115 3.7147758 3.3857424 3.6092362 3.5351164 3.7247634 4.890529

TextModel.3.weight f4 [64, 32]
00000000: b4bb 9c3f fbbd a23f 8590 3140 2262 cb3f
00000010: ce13 fc3f ab37 e73f 922c bf3f 8c58 aa3f
00000020: 3aac d53f 6531 ed3f 60b0 b83f e83f d73f
00000030: f29e ac3f 0a9d 0140 468e ff3f da48 b63f
00000040: d1ea d13f 9978 d83f 7fbf b73f 3dc0 b13f
00000050: 8867 ed3f 41ee bc3f cfda f73f a178 e23f
00000060: 04aa e23f 1b7b 0540 1edb d63f 5719 d13f
00000070: d829 c63f 62c7 a93f 1602 db3f bba0 ef3f
00000080: e6b5 a83f 6c0e bf3f 99c9 4940 1355 d13f
00000090: eab8 0040 7f69 db3f 91da c23f 93d6 d43f
000000a0: be41 d33f bb35 fb3f f8e4 c73f 4f9f ec3f
000000b0: 3060 c93f dbc3 0040 dd63 0540 8b74 a93f
000000c0: b16c d63f bfc4 c43f b9a5 a93f 9853 ca3f
000000d0: 5dab 0b40 8898 cd3f cce2 0440 0847 d13f
000000e0: fcc0 be3f 351e fc3f b4a8 b43f 4ca2 a53f
000000f0: b16c c73f 61fd ab3f 21c1 cf3f a715 fb3f
00000100: 4f9d bd3f 4e5f a93f 1b8f 3a40 cf7d c33f
00000110: c406 1240 94f7 fa3f 516a de3f 5747 bb3f
00000120: 8c9f e93f c9b0 0240 4378 b93f 52ed ea3f
00000130: bac0 b33f 0f53 fa3f 1c82 fd3f 5ef2 d13f
00000140: f623 db3f 277e d53f d6ca c53f 5c25 bb3f
00000150: fb46 0a40 054f c33f 40b1 0340 42d7 dc3f
00000160: afbf ca3f 05a6 fc3f a5c6 b83f c200 b93f
00000170: 38dc e13f 4be0 bb3f 453e c83f 6ff5 0140
00000180: ea6a b83f 5ab9 bf3f de56 4740 17d9 ba3f
00000190: 78d3 ff3f 96aa e03f 24cc c33f af2e ba3f
000001a0: e879 c33f edb8 0840 244f ca3f a878 e63f
000001b0: 622c a43f 2d87 fd3f 3548 fe3f f608 c43f
000001c0: f0db bf3f 1ae0 c73f a0cf 9e3f 4e3f ac3f
000001d0: 9064 0040 aa8c c13f 07d3 f03f c904 d03f
000001e0: 1b6e ec3f a408 0440 0bc0 cf3f 307d 9f3f
000001f0: 6a3c c13f 23e4 b33f f962 e13f bb6f 0140
00000200: 2e87 b33f fdf0 bb3f 130d 3840 1572 c63f
00000210: e888 f33f 89ee f83f 5a22 d53f 10d8 c03f
00000220: b79c d13f 5def fa3f cf90 ce3f a953 f43f
00000230: 53de c23f 233e f73f f8ac 0d40 6887 ba3f
00000240: 0b39 cb3f e8a5 d33f 7ae4 c13f 006c dc3f
00000250: eaff 0b40 c35e be3f 752e 0240 9540 eb3f
00000260: f400 bf3f 467c f73f b785 a83f 3905 bc3f
00000270: 7bbe d73f e7a7 b63f 2e54 cf3f c989 0140
00000280: c22f c23f c55a a63f 854c 4440 79b6 c33f
00000290: eb43 fb3f 0b49 ef3f bf05 d03f 93e8 a63f
000002a0: 1142 e53f 48ca ec3f b0e9 c53f 1214 ed3f
000002b0: e44f b53f ed7c e83f 0824 fa3f d46d b23f
000002c0: c222 bd3f e8e8 bd3f bba4 b23f 5ed0 a53f
000002d0: 7c5a fb3f 5e20 ba3f a2ee f83f 7dde e23f
000002e0: 2631 c83f 89c9 fe3f ea85 cc3f 8f9a c93f
000002f0: 9759 b33f 9199 b73f 691c c33f bb63 e93f
00000300: f1c0 c63f 8ef3 b33f 2768 3f40 a8a9 b13f
00000310: 3ee3 0040 c29d e33f a179 ce3f 49bc af3f
00000320: aa6e cc3f b016 f03f 0f1c c93f 3224 fd3f
00000330: 30b0 b43f 2392 f53f e67e 0340 50be c63f
00000340: db48 c33f 29e0 d13f 565a a83f b226 c93f
00000350: 0b6c 0040 165e af3f f449 fe3f ad47 d63f
00000360: bb8d de3f b5cb eb3f e125 c93f 8695 af3f
00000370: 14fd b63f ae21 a73f b556 e03f cb06 fc3f
00000380: 86e5 a93f 8673 9d3f 4e2a 3240 bc0a 9b3f
00000390: dc60 ed3f 877a f23f 604f bc3f 9575 c73f
000003a0: c3f7 a83f c153 0340 f71a a83f bea6 ef3f
000003b0: 7429 b13f a5f5 0340 0a73 0340 ceee c63f
000003c0: d3b8 bd3f 76c8 b73f 6f99 9c3f fa83 b63f
000003d0: a830 ff3f 1581 a63f e65d e33f 681d c53f
000003e0: b6a3 c03f 047d e73f c5a2 9d3f 2b39 983f
000003f0: ed06 af3f e844 bf3f 5024 d73f 1463 f53f
1.2244782 1.2714227 2.7744458 1.5889323 1.9693544 1.8063864 1.4935477 1.3308272
1.6693184 1.8530699 1.4428825 1.6816378 1.3486006 2.02521 1.9965293 1.4240983
1.6399785 1.6911803 1.4355315 1.3886791 1.854722 1.4760209 1.936365 1.7693063
1.7708135 2.0856388 1.6785619 1.6335858 1.548152 1.3263972 1.7110012 1.8720926
1.3180511 1.4926276 3.1529295 1.6354088 2.0112863 1.714157 1.5222951 1.6627983
1.6504438 1.9625772 1.5616751 1.8486117 1.5732479 2.011954 2.0842202 1.3238691
1.675192 1.5372542 1.32537 1.5806761 2.1823342 1.6062174 2.0763426 1.6349802
1.4902644 1.9696718 1.4113984 1.2940154 1.5580045 1.34367 1.6230813 1.9615983
1.4813632 1.323221 2.9149845 1.5272769 2.281663 1.9606805 1.7376195 1.4631146
1.8251815 2.04204 1.4489826 1.8353674 1.404319 1.9556597 1.9805331 1.640209
1.712035 1.6679124 1.5452526 1.4620776 2.1605823 1.525849 2.0576935 1.7253191
1.5839747 1.9738165 1.4435622 1.4453356 1.764533 1.4677824 1.5644003 2.030605
1.4407628 1.497844 3.114677 1.45975 1.998641 1.7552059 1.5296674 1.4545497
1.5271578 2.136287 1.5805402 1.8005571 1.2826045 1.9806877 1.9865786 1.5315235
1.4988995 1.5615265 1.2407112 1.3456819 2.0061378 1.5121052 1.88144 1.625146
1.8471102 2.0630274 1.6230482 1.2460079 1.5096562 1.4053997 1.7608329 2.0224445
1.4025629 1.4682919 2.875798 1.5503565 1.9026155 1.9447795 1.6651108 1.5065937
1.637595 1.9604298 1.6137942 1.9088031 1.5224098 1.9315838 2.2136822 1.4572573
1.5876783 1.6535006 1.514785 1.7220459 2.1874948 1.4872669 2.0340855 1.8379084
1.4922166 1.93348 1.3165807 1.4689094 1.6855005 1.426999 1.6197565 2.0240347
1.5170825 1.2996451 3.0671704 1.5290061 1.9630102 1.8694166 1.6251754 1.3039726
1.7910787 1.8499231 1.5461941 1.852175 1.4165006 1.8163124 1.9542246 1.3939767
1.4776232 1.4836702 1.3956522 1.2954214 1.9636989 1.4541128 1.9447825 1.7724148
1.5639999 1.9905254 1.5978367 1.5750293 1.4011716 1.434374 1.5243045 1.823356
1.5527631 1.4058702 2.990732 1.38799 2.0138698 1.7782519 1.6130868 1.3729335
1.5971272 1.8756924 1.5711688 1.9776671 1.4116268 1.9185222 2.0546203 1.5526829
1.5256609 1.6396533 1.3152568 1.5714934 2.0065944 1.3700588 1.9866319 1.6740624
1.7387003 1.8421541 1.5714685 1.3717506 1.4295983 1.3057153 1.7526461 1.9689573
1.327317 1.230088 2.783832 1.2112651 1.8545184 1.8943642 1.4711723 1.5582758
1.3200611 2.051987 1.3133229 1.8722761 1.3840775 2.061868 2.0538964 1.5541627
1.4822029 1.4358051 1.2234324 1.4259026 1.9936724 1.3008143 1.776303 1.5399599
1.5049961 1.8085027 1.2315298 1.1892446 1.3673989 1.4942904 1.6807957 1.9170861

TextModel.3.bias f4 [64]
00000000: 7eaf b140 f85d ae40 495f ac40 3305 af40
00000010: ea47 af40 90b5 b740 9314 b440 9a18 aa40
00000020: 279e af40 227c b140 5fe2 ae40 cf6c b040
00000030: ef36 b140 7b17 b140 6b5f b140 c611 b440
00000040: b1e0 b640 bd97 b440 a028 b440 052b b540
00000050: f5a5 b240 0046 b040 84fb ae40 df19 b440
00000060: e4e8 b040 d529 af40 0f3c b040 60c1 b440
00000070: 7706 b440 4cf8 b640 0b5f b140 2f30 b240
00000080: ffde b040 0bf9 b040 7270 ae40 bc6f b740
00000090: a9b6 ad40 4ea7 b640 2c07 b740 23eb b340
000000a0: e721 b640 5bba b540 7eb9 b540 2068 b540
000000b0: 4c2e b440 8c81 b240 045f b340 7c56 b340
000000c0: 3e1b b740 5c02 b940 2d24 b040 0c7a b040
000000d0: a676 ab40 c4e5 b640 1933 aa40 0149 af40
000000e0: c578 b640 3a51 b340 94a3 b140 e846 ae40
000000f0: 44a7 ab40 f814 b640 0d99 ad40 8235 b740
5.5526724 5.448971 5.3866315 5.4693847 5.4775286 5.7409134 5.6275115 5.315503
5.4880557 5.546403 5.465133 5.5132823 5.5379558 5.5341163 5.5428977 5.6271696
5.714928 5.6435227 5.629959 5.6615014 5.5827584 5.508545 5.4682026 5.628158
5.528429 5.4738564 5.5073314 5.6486053 5.625789 5.7178097 5.542852 5.568382
5.527221 5.5304008 5.451226 5.7323895 5.4285474 5.707923 5.7196255 5.622453
5.6916385 5.6789985 5.678893 5.6689606 5.6306515 5.578314 5.6053486 5.604307
5.7220755 5.781538 5.504416 5.5148983 5.3582335 5.7155476 5.3187375 5.4776616
5.7022424 5.6036654 5.551218 5.4461555 5.364168 5.6900597 5.424933 5.7252817

TextModel.6.weight f4 [32, 64]
00000000: 8e11 e53f 6af5 df3f fc3e dd3f e675 ea3f
00000010: 4653 e63f 0e15 fb3f 9838 e03f 1732 cd3f
00000020: 51b5 ec3f 6835 e33f e2ec d63f c858 e93f
00000030: 3d27 dc3f 3b29 d93f 5fa4 d03f 58d4 e83f
00000040: 11af e73f 61f0 d33f 4acc e83f 3be6 f03f
00000050: 4790 e93f f7f0 d23f 88f4 e43f d88e da3f
00000060: e420 d83f 7765 dd3f 5c32 f33f 7f92 db3f
00000070: 4416 db3f 9a77 d63f 7f8e ce3f 9ed9 d43f
00000080: 89ed e33f 10d0 dd3f bcfb e43f 36c6 e93f
00000090: caab ef3f 76e8 e73f 995d e83f 3bf6 e73f
000000a0: 8d72 dd3f d075 dc3f c6c1 e63f 49fa da3f
000000b0: cef5 f03f 7f25 cb3f 3ccb dd3f 7be9 df3f
000000c0: 991d dd3f 2efa d63f e3d9 e43f 85d6 d63f
000000d0: c667 d13f 9f5d f83f 7ee9 ca3f 5294 eb3f
000000e0: e2d8 f23f 1719 f53f c341 da3f acda d83f
000000f0: 5488 e53f 9c72 dc3f aa36 df3f 4159 e23f
00000100: 94fc ce3f d5df c53f 4475 db3f 270f eb3f
00000110: 68c6 e13f 3d98 e83f 35fa dd3f 40d0 c83f
00000120: b708 db3f f57f ed3f 3a96 ee3f 839f e53f
00000130: 43c8 ce3f b798 e53f f364 db3f 869e dd3f
00000140: 7d45 e03f f8bf d43f 5652 d53f 7317 e43f
00000150: 24b1 db3f 3ebf c03f c5a2 ed3f 7ecb db3f
00000160: f700 e13f 9c7f d83f dd7c f13f 86cf d43f
00000170: 8a33 d33f 98c5 da3f 02fb d23f d1ee c73f
00000180: 20af dd3f 8fa6 d03f ae53 d23f c147 df3f
00000190: d784 c03f e115 e63f 814e ed3f 80ab ce3f
000001a0: 60a5 d93f 7772 bf3f 4e1c de3f 9b05 ef3f
000001b0: 0dee f03f 9165 d83f d4c6 e43f c117 f13f
000001c0: 8358 de3f ca1c d43f e982 ce3f e869 db3f
000001d0: 4d74 e13f 71d6 ee3f 988c c73f 7e0f e63f
000001e0: def4 d03f 0446 e13f 24e9 de3f aba6 cc3f
000001f0: eaaf e63f f3e9 dc3f 6a29 d43f 4a99 d53f
00000200: 43f8 df3f 567b db3f 9e6d de3f cb64 d73f
00000210: 41ec d53f 35b7 f53f 6d67 d73f ab31 cc3f
00000220: 79ce e13f d0d7 e03f 3fff dd3f 229b d53f
00000230: d474 d53f 9187 ec3f 116e da3f c8c9 ef3f
00000240: 4bc0 e63f d80b e53f eae8 e43f 78fd db3f
00000250: 6bfa e13f db75 e03f 8460 ed3f 83a4 e83f
00000260: b85f d13f 93c2 eb3f b827 dc3f b25a eb3f
00000270: da82 de3f 62fa f03f c704 ce3f 1554 c93f
00000280: b0f5 e63f 1867 ee3f 02cf da3f 6e69 f03f
00000290: 0c07 df3f 42a9 da3f 26d9 dc3f 01d3 e43f
000002a0: cfb3 e73f 4c55 f03f a4a0 d83f 6451 d73f
000002b0: f079 de3f 56d4 de3f 78ef e23f 8001 d03f
000002c0: a7e4 e13f 4490 e23f 4089 df3f 1006 e83f
000002d0: eb80 ea3f 916d dd3f b5fe ca3f 567c e93f
000002e0: 3c29 db3f 7622 ea3f a049 d23f fbe3 e83f
000002f0: 66b2 ee3f 248a d93f 0c45 e03f 9b8d cd3f
00000300: ac7c d93f af08 cd3f 6c87 da3f e78d e33f
00000310: 295b cc3f 2e4b cc3f b4d8 c03f 84c3 c23f
00000320: 1dfc e03f 18f6 df3f ca14 f13f a8a0 c43f
00000330: 925e d23f 767c d93f c761 c73f 1196 de3f
00000340: 47ca cf3f 758e ea3f 980e d93f 96bd eb3f
00000350: c418 e03f ab48 d43f cb7d f03f 2a26 dd3f
00000360: 00de d53f bffd e03f c13c cf3f 1f92 de3f
00000370: cdde c43f 7d2b f03f 9152 c93f c538 ca3f
00000380: b64b dc3f ba36 d83f 4777 e43f 0166 e63f
00000390: f213 dc3f 4e33 cc3f db95 d53f ed78 d43f
000003a0: 9881 e43f 7dc8 d63f 6d7b d83f 7e4a db3f
000003b0: ad62 da3f 8dfe c73f d4cf f13f 4d64 d53f
000003c0: aa62 ee3f 2f44 d33f 322e de3f fd08 d53f
000003d0: f5b2 db3f ee39 da3f 674c c33f a248 df3f
000003e0: 55ab c83f 4768 eb3f 817e d93f cdbb da3f
000003f0: e133 ea3f c5ee cc3f 1a79 e83f 18d2 d23f
1.7895982 1.749677 1.7284846 1.831723 1.7994163 1.96158 1.7517271 1.6030911
1.8492833 1.7750673 1.6791041 1.8230219 1.7199475 1.6965708 1.6300162 1.8189802
1.8100301 1.6557733 1.8187344 1.8820261 1.8247155 1.6479787 1.7887125 1.7074842
1.6885037 1.729659 1.8999743 1.7154082 1.711617 1.675525 1.6137236 1.6628911
1.7806865 1.7329121 1.7889323 1.8263614 1.8724301 1.8117816 1.8153564 1.8122019
1.7300583 1.7223454 1.8027885 1.7107631 1.8825014 1.5870818 1.7327647 1.7493128
1.7274657 1.6795099 1.7878994 1.6784216 1.6359794 1.9403571 1.5852506 1.8404639
1.8972437 1.9148282 1.7051319 1.6941733 1.7932229 1.7222476 1.7438557 1.7683488
1.6170831 1.5458933 1.7145162 1.8363999 1.7638674 1.817146 1.7341982 1.5688553
1.7112035 1.8554674 1.8639596 1.7939304 1.6154865 1.793723 1.7140182 1.7314003
1.7521206 1.6621084 1.6665752 1.7819656 1.7163434 1.5058362 1.8565298 1.7171476
1.757842 1.6913943 1.886623 1.6625831 1.6500103 1.7091551 1.6482852 1.5619756
1.7319069 1.630083 1.6431787 1.7443773 1.504054 1.7975427 1.8539582 1.6146088
1.7003593 1.4956807 1.7352388 1.8673586 1.8822647 1.6905996 1.7873178 1.8835374
1.7370762 1.6571286 1.6133701 1.7141695 1.7613617 1.8659192 1.5589781 1.7973478
1.6324728 1.7599492 1.7414899 1.5988363 1.8022435 1.7258896 1.6575139 1.6687405
1.7497638 1.7147014 1.7377203 1.6827635 1.6712724 1.9196535 1.6828438 1.5952657
1.7641135 1.7565861 1.734352 1.6687968 1.6676278 1.8478872 1.706484 1.8733454
1.8027433 1.789424 1.788358 1.7186728 1.7654546 1.7535967 1.8545079 1.8175205
1.6357336 1.8418754 1.7199621 1.8387053 1.7383683 1.8826411 1.6095208 1.5728785
1.8043728 1.8625212 1.7094424 1.8782175 1.7424026 1.7082903 1.7253768 1.7876893
1.8101748 1.877603 1.6924024 1.6821713 1.7380962 1.740855 1.772933 1.6250458
1.7647904 1.7700276 1.746376 1.812685 1.8320593 1.7299062 1.585898 1.8241069
1.7121959 1.8291767 1.6428719 1.8194574 1.8648193 1.6995282 1.7521071 1.605884
1.6991172 1.6018275 1.7072577 1.777768 1.596532 1.5960443 1.5066133 1.5215917
1.7576939 1.7496977 1.8834469 1.5361528 1.643511 1.6991107 1.5576714 1.7389547
1.6233605 1.8324724 1.6957579 1.8417232 1.7507558 1.6584677 1.8788389 1.7277272
1.6708374 1.7577437 1.6190416 1.7388343 1.5380493 1.8763272 1.5728322 1.5798575
1.7210605 1.6891701 1.78489 1.7999879 1.7193587 1.5953157 1.6686357 1.6599404
1.7852049 1.6779934 1.6912667 1.7132108 1.7061363 1.5624558 1.8891549 1.6671234
1.862386 1.6505183 1.7357848 1.6643368 1.7163988 1.7048929 1.5257691 1.7444041
1.5677286 1.8391198 1.6991731 1.7088562 1.8297082 1.6010367 1.8161957 1.6470366

TextModel.6.bias f4 [32]
00000000: 0af3 b640 785d b440 c412 b740 a32e ba40
00000010: 91c2 be40 f153 bb40 82b6 ccbd e805 b440
00000020: 9744 b740 53b7 f7bd 761b cc3c 7b58 b440
00000030: 896d 423d 5c1d b340 68f1 7f3c ad74 af3d
00000040: 1057 95bd 8d98 af40 59d7 cd40 a730 b040
00000050: 1fb9 b740 4df1 b140 f339 b040 1293 b840
00000060: da8f b640 a89a 77bd 1091 6ebb 5987 b640
00000070: e3f4 b640 fcec 433d be4c e6bd 27a9 c7bc
5.717168 5.6364098 5.7210407 5.818193 5.961251 5.8539968 -0.09995748 5.625721
5.727123 -0.12095513 0.024915438 5.635801 0.047467742 5.597334 0.015621521 0.08567176
-0.072919965 5.487372 6.4325376 5.505939 5.741348 5.5607057 5.507074 5.767953
5.70506 -0.060450226 -0.0036402382 5.704022 5.7173934 0.047833428 -0.11245106 -0.02437265

TextModel.9.weight f4 [1, 32]
00000000: 5200 0240 dab3 0040 49e8 fc3f 9403 f63f
00000010: 9af8 eb3f 5467 fa3f e76d 0ebe e871 fd3f
00000020: 87b4 0240 6f8b 30bd 4070 f6bd 3940 0240
00000030: 29c4 05be 8dab fb3f ae0b d7bd 55a6 ecbc
00000040: 4804 f9bc 88b8 0440 2b40 f43f 221f 0140
00000050: 5493 fa3f 5ac9 fe3f 7ff0 fd3f cec6 0040
00000060: 792e 0640 69c9 553c 560e dc3c a603 fd3f
00000070: 12f7 0540 e9ea 14bc 38bc a8bd 4edc 91bd
2.0312696 2.0109773 1.9758388 1.9219842 1.8435242 1.9562783 -0.13909112 1.9800386
2.0422685 -0.043101724 -0.12033129 2.0351698 -0.1306311 1.9661728 -0.105002746 -0.028887907
-0.03039755 2.073763 1.9082083 2.0175252 1.9576211 1.9905198 1.9839019 2.012134
2.0965865 0.013048508 0.026862305 1.9766738 2.093205 -0.00908921 -0.08239025 -0.07122098
