models/LinearModel_Adjusted/state_dict.pt (torch, 1203 bytes, 1 tensors)

TextModel.weight f4 [1, 25]
-25077.238 -20882.088 4568.85 -5424.769 49095.54 23030.799 83930.47 -33545.613
67797.945 -56953.664 -4198.9766 13738.868 150.57698 696.8737 -6126.067 -77951.68
16430.93 84942.875 -19871.543 51253.63 -78796.7 15288.733 24265.24 52215.992
27813.908
00000000: 7aea c3c6 2d24 a3c6 cdc6 8e45 2786 a9c5
00000010: 8ac7 3f47 99ed b346 3ced a347 9d09 03c7
00000020: f96a 8447 aa79 5ec7 d037 83c5 79ab 5646
00000030: b593 1643 eb37 2e44 8970 bfc5 d73f 98c7
00000040: dc5d 8046 70e7 a547 163f 9bc6 a135 4847
00000050: 5ae6 99c7 efe2 6e46 7b92 bd46 fef7 4b47
00000060: d14b d946
