models/LinearModel_Target/state_dict.pt (torch, 1203 bytes, 1 tensors)

TextModel.weight f4 [1, 25]
-7625.957 16363.192 -3904.9604 9445.711 -27909.826 -122250.94 369.60233 -16694.588
12748.385 -2638.4065 73144.41 55884.06 67749.07 84469.54 24462.107 119335.81
562643.94 93704.44 97735.305 -45021.367 110909.64 -27068.207 1924.1614 68945.34
3070.3115
00000000: a84f eec5 c5ac 7f46 5e0f 74c5 d896 1346
00000010: a70b dac6 78c5 eec7 19cd b843 2d6d 82c6
00000020: 8a31 4746 81e6 24c5 34dc 8e47 0f4c 5a47
00000030: 8952 8447 c5fa a447 371c bf46 e813 e947
00000040: 3f5d 0949 3804 b747 a7e3 be47 5edd 2fc7
00000050: d29e d847 6a78 d3c6 2a85 f044 aca8 8647
00000060: fce4 3f45
