models/LinearModel_Target/state_dict.pt (torch, 1203 bytes, 1 tensors)

TextModel.weight f4 [1, 25]
-8276.57 16224.166 -4636.4277 8937.206 -26160.908 -121639.39 633.46436 -15157.628
12504.38 -1952.5269 71754.2 58951.598 65814.92 103648.78 25035.24 118966.766
541763.2 92192.83 93948.66 -43367.793 111495.06 -27432.469 1628.3173 73429.75
2463.4353
00000000: 4852 01c6 aa80 7d46 6ce3 90c5 d3a4 0b46
00000010: d161 ccc6 b293 edc7 b85d 1e44 83d6 6cc6
00000020: 8561 4346 dc10 f4c4 1a25 8c47 9947 6647
00000030: 768b 8047 6470 ca47 7b96 c346 625b e847
00000040: 3344 0449 6a10 b447 547e b747 cb67 29c7
00000050: 88c3 d947 f050 d6c6 278a cb44 e06a 8f47
00000060: f7f6 1945
