models/LinearModel/state_dict.pt (torch, 1203 bytes, 1 tensors)

TextModel.weight f4 [1, 25]
0	0xc6d2f439	-27002.111
1	0xc6acbb93	-22109.787
2	0x45d0fca9	6687.5825
3	0xc5a34545	-5224.6587
4	0x474482a3	50306.637
5	0x46bb07dd	23939.932
6	0x47a9e094	86977.16
7	0xc7079747	-34711.277
8	0x47889ef4	69949.91
9	0xc763c2c0	-58306.75
10	0xc5898a23	-4401.267
11	0x46639cff	14567.249
12	0xc2861b84	-67.05374
13	0x43d5bbab	427.46616
14	0xc5ba4b69	-5961.4263
15	0xc7a07acc	-82165.59
16	0x4682b060	16728.188
17	0x47ac522c	88228.34
18	0xc5bb468c	-5992.8184
19	0x474560e9	50528.91
20	0xc79db8f8	-80753.94
21	0x46707b2a	15390.791
22	0x46bfd4d1	24554.408
23	0x475ad8e5	56024.895
24	0x46db9737	28107.607
