models/LinearModel/state_dict.pt (torch, 1203 bytes, 1 tensors)

TextModel.weight f4 [1, 25]
0	0xc6cc47c9	-26147.893
1	0xc6a9931c	-21705.555
2	0x4593203e	4708.0303
3	0xc5b1b1d3	-5686.228
4	0x47469f12	50847.07
5	0x46bab4ed	23898.463
6	0x47aa6ed8	87261.69
7	0xc70818cd	-34840.8
8	0x47892124	70210.28
9	0xc76741aa	-59201.664
10	0xc5857dd6	-4271.7295
11	0x4660117a	14340.369
12	0x4370ba6f	240.72826
13	0x442b7c67	685.9438
14	0xc5c2a9ae	-6229.21
15	0xc79e50c6	-81057.55
16	0x4686e1ab	17264.834
17	0x47acd530	88490.375
18	0xc5b644f8	-5832.621
19	0x4750179c	53271.61
20	0xc7a00989	-81939.07
21	0x467889b8	15906.43
22	0x46c3f60c	25083.023
23	0x47534442	54084.258
24	0x46e152c6	28841.387
