models/MLPModel_BatchNorm/state_dict.pt (torch, 29291 bytes, 19 tensors)

TextModel.0.weight f4 [32, 25]
-0.07579355 0.078402676 -0.39587662 0.05679614 0.070927136 -0.38788664 0.5305244 -0.1955668
-0.041549362 0.025260657 0.2541527 0.23325092 0.5058476 0.45931968 0.9470939 -0.079341486
0.39904615 0.12215011 0.32207316 0.3060619 0.14744414 0.43228322 0.10620123 -0.3714004
-0.0343818 1.1651363 0.12587224 -1.4236113 0.5159611 0.019412767 0.7853833 0.13822052
0.79850626 -0.18499179 -0.2755964 0.06550121 -0.19540313 -0.37575886 0.6147638 0.29132292
-0.06207313 0.09336213 -0.23717815 -0.07964171 0.4741983 -0.16842048 0.14339653 0.37654015
-0.0077679576 0.38144663 -0.1709955 -0.18111521 0.20358248 -0.021202773 -0.10064927 0.4259388
0.24273384 0.39825487 -0.58308846 -0.06420049 -0.26381847 -0.15992305 0.12426956 -0.060246594
0.20097962 -0.092002474 0.57651126 0.16407485 -0.6791193 -0.11440808 0.017427107 0.13271406
0.3607075 -0.8583686 0.03311791 0.11702961 0.025468478 -0.15913975 -0.15486851 -0.37447685
-0.2019701 0.67684674 0.039579634 0.5402289 0.7516804 -0.24515854 0.07226473 -0.21768433
0.13038172 0.13482687 0.16586462 -0.92070794 0.1256947 0.19223444 -0.029260011 -0.24457371
0.2489039 0.064897776 0.02584167 0.09958669 0.753548 -0.09095909 0.04096503 -0.35094738
-0.44503188 -0.36338902 0.030311018 0.019891823 0.15582395 0.39991808 0.09130196 -0.078253485
0.11042703 -0.74460495 -0.23011656 0.09780314 -0.8893734 -1.6040697 0.045800917 -0.12226272
0.099604666 0.11071169 0.023195697 0.035315428 -0.30865735 -0.23676567 0.13300557 0.26750082
0.39888522 -0.1342015 -0.041121762 -0.067343004 -0.096102595 0.040743098 -0.34807286 -0.041913312
0.060529877 0.06574272 0.07291476 0.004516182 -0.059938025 -2.1079865 0.12372622 0.15498194
-0.10738831 0.08473714 -0.1018842 0.35662135 0.07688213 0.05717776 -0.16234201 -0.43748742
-0.2718569 0.093776956 -0.21849312 -0.44173512 0.16008052 -0.24076375 0.33624816 0.078831784
-0.04345396 0.48692864 -0.19119242 -1.2075022 -0.13272838 0.053186726 -0.46270034 -0.33348474
0.27615035 -0.2982765 0.10558873 -0.051358566 0.3548731 -0.4160406 0.09460866 0.14124648
0.21332256 -2.6128547 -0.031965125 0.01040738 0.30036524 -0.26280233 0.5942239 -0.25861266
0.43571803 -0.26315704 0.61376417 -0.87102085 -0.4522994 -0.079339296 0.21424675 0.17605408
-0.2133072 0.35011673 0.2921647 -0.16325401 0.4927972 -0.3278865 0.059375804 -0.34812817
-0.5232975 -0.7749862 0.31475917 0.047044292 -0.19462416 -0.11872927 0.03749887 -0.1644594
-0.14385499 0.16342862 0.04573896 0.54106534 -0.26535723 -0.60535574 0.09200432 0.53082985
0.32139826 -0.4323943 0.122774474 -0.13303867 -0.1605001 0.41425592 -0.99199736 -0.03423087
-0.8126695 -0.14600109 -0.06480202 0.018075902 0.1656726 0.11563487 0.3534488 -0.060240265
0.011275199 0.05799596 0.2657266 0.46634585 0.20375553 0.0478232 -0.7281419 -0.14203817
0.18065472 -0.8816938 0.17864054 0.092735015 0.097427525 -0.0870502 -0.5910966 0.32213235
-0.71551275 0.63092226 -0.22369063 -0.15712604 0.50043976 0.052215137 -0.32068965 -0.79894954
00000000: a639 9bbd 9591 a03d 57b0 cabe 12a3 683d
00000010: 3f42 913d 1499 c6be 72d0 073f aa42 48be
00000020: aa2f 2abd 70ef ce3c 4d20 823e 54d9 6e3e
00000030: 3a7f 013f f32b eb3e bf74 723f ca7d a2bd
00000040: c74f cc3e d629 fa3d c6e6 a43e 25b4 9c3e
00000050: 99fb 163e 3a54 dd3e 0880 d93d 3128 bebe
00000060: eed3 0cbd 3023 953f a7e4 003e e538 b6bf
00000070: 0716 043f 8607 9f3c e10e 493f ae89 0d3e
00000080: e86a 4c3f 7d6e 3dbe f91a 8dbe 8025 863d
00000090: c217 48be 7763 c0be 2961 1d3f 4728 953e
000000a0: 6540 7ebd a534 bf3d d4de 72be 311b a3bd
000000b0: 1fca f23e 6b76 2cbe 8ad6 123e dfc9 c03e
000000c0: 5a8a febb f94c c33e 7219 2fbe 4476 39be
000000d0: ed77 503e 70b1 adbc 3421 cebd a714 da3e
000000e0: 388f 783e 10e8 cb3e 4945 15bf 8c7b 83bd
000000f0: 3713 87be dec2 23be 0a81 fe3d 22c5 76bd
00000100: 9acd 4d3e cb6b bcbd 3e96 133f 3d03 283e
00000110: c3da 2dbf c94e eabd 4bc3 8e3c 32e6 073e
00000120: a7ae b83e 0bbe 5bbf a5a6 073d 38ad ef3d
00000130: 45a3 d03c 88f5 22be da95 1ebe 6ebb bfbe
00000140: 40d1 4ebe d445 2d3f 411e 223d 714c 0a3f
00000150: 206e 403f d70a 7bbe 88ff 933d a4e8 5ebe
00000160: c982 053e 0e10 0a3e 6ad8 293e 84b3 6bbf
00000170: 1db6 003e 1bd9 443e b1b2 efbc 8871 7abe
00000180: aae0 7e3e 20e9 843d e9b1 d33c 1bf4 cb3d
00000190: 86e8 403f c248 babd f3ca 273d 60af b3be
000001a0: 38db e3be 200e babe d04e f83c 2df4 a23c
000001b0: 5090 1f3e 10c2 cc3e 86fc ba3d 5d43 a0bd
000001c0: 9127 e23d 6e9e 3ebf ada3 6bbe 034d c83d
000001d0: faad 63bf 2852 cdbf be99 3b3d e064 fabd
000001e0: 88fd cb3d cfbc e23d e704 be3c e9a6 103d
000001f0: 5608 9ebe b372 72be 9d32 083e def5 883e
00000200: af3a cc3e 1e6c 09be 4b6f 28bd 21eb 89bd
00000210: 70d1 c4bd 3ce2 263d 9b36 b2be 4bad 2bbd
00000220: 2dee 773d 1fa4 863d 5554 953d 7bfc 933b
00000230: 9381 75bd 40e9 06c0 2c64 fd3d 96b3 1e3e
00000240: 67ee dbbd aa8a ad3d aaa8 d0bd 1397 b63e
00000250: 6174 9d3d 3a33 6a3d fc3c 26be 5afe dfbe
00000260: d430 8bbe 220e c03d a9bc 5fbe 1b2b e2be
00000270: 26ec 233e c68a 76be b828 ac3e 8f72 a13d
00000280: c8fc 31bd b64e f93e f2c7 43be 6f8f 9abf
00000290: f3e9 07be 53da 593d 0fe7 ecbe 83be aabe
000002a0: 9463 8d3e b3b7 98be e73e d83d 5c5d 52bd
000002b0: edb1 b53e 4603 d5be 2fc2 c13d eba2 103e
000002c0: 3b71 5a3e 0339 27c0 dded 02bd b783 2a3c
000002d0: 79c9 993e 078e 86be 0f1f 183f e168 84be
000002e0: 6f16 df3e 85bc 86be a61f 1d3f 39fb 5ebf
000002f0: c993 e7be a47c a2bd 8063 5b3e 8547 343e
00000300: 346d 5abe 8042 b33e 9d96 953e 0f2c 27be
00000310: ea4f fc3e bde0 a7be 0b34 733d db3d b2be
00000320: d3f6 05bf 7f65 46bf 1d28 a13e 84b1 403d
00000330: 8e4b 47be 5528 f3bd 6a98 193d 0c68 28be
00000340: b94e 13be d559 273e c758 3b3d 4283 0a3f
00000350: e7dc 87be 98f8 1abf c36c bc3d 77e4 073f
00000360: 508e a43e c962 ddbe 2f71 fb3d 4a3b 08be
00000370: 235a 24be 5a19 d43e 8af3 7dbf ab35 0cbd
00000380: 1c0b 50bf 4f81 15be ecb6 84bd ea13 943c
00000390: 14a6 293e fad1 ec3d 3ef7 b43e 7fbe 76bd
000003a0: 9dbb 383c 2c8d 6d3d 510d 883e e2c4 ee3e
000003b0: 4aa5 503e 42e2 433d 8267 3abf 7472 11be
000003c0: 8dfd 383e afb6 61bf 8ced 363e dbeb bd3d
000003d0: 1588 c73d 6047 b2bd 1b52 17bf 88ee a43e
000003e0: d82b 37bf 1f84 213f 280f 65be a6e5 20be
000003f0: d21c 003f 8adf 553d 6f31 a4be f587 4cbf

TextModel.0.bias f4 [32]
-0.6337137 -0.9920462 -0.637427 1.0299414 0.5710316 1.0984393 1.0646217 0.07596765
0.07139234 -0.24078451 0.048455693 1.34808 0.39221963 0.7006762 0.53834814 -1.2824365
0.5588683 0.3424278 -0.28144014 -0.66768754 0.123901285 -0.29407522 0.13148881 0.70714706
0.018547919 0.39916924 1.6781005 -0.60032946 -0.5711743 0.18131834 0.90740126 -0.015802545
00000000: 103b 22bf bdf6 7dbf 6a2e 23bf 1fd5 833f
00000010: 202f 123f a999 8c3f 8645 883f ed94 9b3d
00000020: 2636 923d 3790 76be 7a79 463d e38d ac3f
00000030: 03d1 c83e 845f 333f 2fd1 093f e126 a4bf
00000040: fe11 0f3f b252 af3e ec18 90be 92ed 2abf
00000050: f5bf fd3d 0791 96be 01a5 063e 9707 353f
00000060: cef1 973c e95f cc3e ffcb d63f 31af 19bf
00000070: 7b38 12bf 84ab 393e 734b 683f 5774 81bc

TextModel.2.weight f4 [32]
0.45920512 0.63958174 0.8471812 0.86660826 0.9202516 0.881909 1.0013443 0.81458056
1.1571797 1.1454406 0.58584124 1.0696081 0.5862079 0.8354391 1.0907077 1.1759349
1.0119249 1.0485892 0.90492785 0.6016818 1.121981 1.2988834 0.77776736 0.899494
1.0580598 1.139169 1.3954074 0.74672616 0.6532164 0.6789388 1.129212 1.1059674
00000000: ef1c eb3e a1bb 233f dee0 583f 0ada 5d3f
00000010: 9c95 6b3f cac4 613f 0d2c 803f 5a88 503f
00000020: 771e 943f cc9d 923f b1f9 153f ebe8 883f
00000030: b911 163f 56df 553f 4f9c 8b3f 0985 963f
00000040: c186 813f 2c38 863f 5aa9 673f d207 1a3f
00000050: 139d 8f3f d041 a63f c31b 473f 3d45 663f
00000060: 816e 873f 4ad0 913f b69c b23f 7229 3f3f
00000070: 3139 273f efce 2d3f 058a 903f 5790 8d3f

TextModel.2.bias f4 [32]
-0.51136804 -0.14843023 0.11244773 -0.6145261 -0.6014529 0.62885165 0.6870218 -0.6947291
0.42663583 0.5739051 -0.5700519 0.30247062 -1.1540508 0.7873139 -0.36832455 -0.15663567
0.8699147 -0.0498135 0.5882385 -0.8427996 0.14217871 0.23049839 1.0089617 -0.2913388
0.23564418 0.5819427 -0.38077644 -0.067596614 -0.17909199 0.17144819 0.14011288 0.13458379
00000000: 04e9 02bf 18fe 17be ff4a e63d 9551 1dbf
00000010: d1f8 19bf 6cfc 203f a9e0 2f3f c4d9 31bf
00000020: 0370 da3e 72eb 123f ecee 11bf 6edd 9a3e
00000030: f0b7 93bf 678d 493f 0995 bcbe 1a65 20be
00000040: bbb2 5e3f 3e09 4cbd cc96 163f b7c1 57bf
00000050: 4c97 113e c507 6c3e a825 813f 5c2a 95be
00000060: b54c 713e 32fa 143f 21f5 c2be 1870 8abd
00000070: e463 37be 1d90 2f3e c079 0f3e 55d0 093e

TextModel.2.running_mean f4 [32]
0.62115425 0.28615874 0.27516413 1.1767895 1.329597 1.4491938 1.4829245 0.4932792
0.69598985 0.48130873 0.7904786 1.6171117 1.2533923 0.9754204 1.491669 0.2069617
1.0575249 0.88639444 0.5190867 0.5061043 0.5754868 0.5534181 0.73739254 1.0101087
0.651768 0.9647411 1.6363531 0.12917808 0.38199383 0.89523435 1.5115851 0.923336
00000000: f703 1f3f 6683 923e 50e2 8c3e 0aa1 963f
00000010: 3c30 aa3f 2f7f b93f 78d0 bd3f 178f fc3e
00000020: 642c 323f 196e f63e ce5c 4a3f 84fd ce3f
00000030: 296f a03f 27b5 793f 03ef be3f c5ed 533e
00000040: fa5c 873f bfea 623f dee2 043f 0d90 013f
00000050: 1a53 133f cfac 0d3f c2c5 3c3f 3e4b 813f
00000060: 45da 263f 46f9 763f 0574 d13f 4247 043e
00000070: b294 c33e 142e 653f 9f7b c13f c05f 6c3f

TextModel.2.running_var f4 [32]
1.7879591 0.61569816 0.33269748 0.8930087 0.9384357 0.70948136 1.0629382 0.42258632
0.51070917 0.7225 1.4415889 1.1939956 3.945714 1.1531188 1.995981 0.27299315
0.87075955 0.8196868 0.63162357 0.97555685 0.5517008 0.8495024 0.8063107 0.48893604
0.7232982 0.8557313 11.891395 0.091058575 0.49474376 1.2921447 1.1532817 1.2595426
00000000: d8db e43f 659e 1d3f 5357 aa3e 389c 643f
00000010: 523d 703f 92a0 353f 5c0e 883f 3c5d d83e
00000020: d6bd 023f c3f5 383f fc85 b83f d9d4 983f
00000030: 9486 7c40 6699 933f 4e7c ff3f c2c5 8b3e
00000040: 19ea 5e3f fed6 513f 15b2 213f 18be 793f
00000050: 433c 0d3f fd78 593f 616a 4e3f d355 fa3e
00000060: 122a 393f 3511 5b3f 2743 3e41 eb7c ba3d
00000070: 0e4f fd3e ff64 a53f bc9e 933f b138 a13f

TextModel.3.weight f4 [64, 32]
-0.43987256 -1.3067538 -0.07151786 -0.05250347 -0.289192 0.44610828 -0.5758989 0.3304529
0.03429439 -1.5353729 -0.3302527 -0.17554292 -0.028339768 -0.5773264 0.11170256 -0.18221821
0.44265565 0.4006505 -0.22556138 -0.23602377 -0.0022959192 0.043487266 -0.27151093 0.19132638
0.036773663 -0.0954598 0.15574494 0.55229443 0.49013394 -0.51677656 0.106165916 0.4925858
-0.39941302 0.6016662 0.48751915 0.12333154 -0.044176765 0.47022703 -0.18052053 0.88634264
0.5036112 0.28905916 0.29668725 -0.39077705 -0.21035211 0.26051813 0.31222987 0.7186935
0.004934527 0.040459912 0.010247916 0.70756453 0.21705467 0.36651504 0.12892242 -0.6044329
0.28549978 0.17688264 0.15781015 0.18338697 -0.18610957 -0.078066766 0.30949873 -0.40031138
0.18744391 -0.29680693 0.0703776 0.01286765 -0.11406871 0.004523849 -0.2738114 -0.04922791
0.25370112 0.029254695 0.3394353 -0.034574386 0.33730605 -0.022461588 0.23906805 0.07060788
-0.2621945 0.12808166 -0.112155445 0.2468109 -0.123998694 0.07370123 -0.13532536 -0.15908644
-0.0076099373 -0.09268455 -4.1144047 0.14355126 -0.13169 0.08206613 0.14622946 -0.1283657
-1.9370914 0.46998927 0.009748145 -0.094808854 -0.053888597 -0.34792528 -0.21023272 0.4255204
-0.1130494 -0.21973655 -0.53550375 0.13057627 -0.013648474 0.11007995 -0.6984922 -0.32155374
0.31626245 -0.20346576 -0.087582864 -0.51461273 0.49326274 -0.15004057 -0.6401896 -0.16598463
-0.32531244 0.13551836 -0.3698247 0.14057884 -0.3532918 -0.05490268 -0.10351427 0.16943645
-0.07647463 0.08725064 0.026612809 0.11762041 0.09691616 0.051516943 0.053802267 0.13020046
0.094212785 -0.17280038 0.091004804 0.09217397 0.109768145 -0.20923586 0.25434434 0.031274956
-0.11694098 0.20223646 -0.24578561 0.33752033 0.05827804 0.045111045 -0.49417973 -0.019228026
0.008113532 0.015121178 -0.11281244 0.024202196 -0.020276645 -0.0452327 0.059769824 0.17628114
-0.14473745 0.14342883 -0.58799714 -0.115870565 0.26214135 -0.5967454 0.34276417 0.118239835
-0.61700815 -0.50004697 -0.66465175 0.38705456 -0.118046716 -0.33870128 -0.50022215 -0.3066518
0.3532579 -0.26394746 0.13454124 -0.6622975 0.46631643 -0.21276812 -0.16396433 0.31991425
-0.7183498 0.30569074 0.13819183 -0.38882676 -0.15542911 -0.14172754 -0.38738084 0.5611571
-0.23301497 -0.29549944 0.024229145 -0.55753267 -0.60068077 -0.2292869 -0.28295508 -0.64906913
0.33471265 -0.30706966 0.20945776 0.19660702 -0.60021925 -0.25911117 0.35075635 0.010577199
0.37065926 0.4022521 0.12869295 0.16090047 -0.37255794 0.33962333 -0.43484238 -0.36908552
0.45460013 -0.43811747 0.31250808 0.09726382 0.2021943 -0.725987 0.7691282 0.036263555
0.103358574 -0.4422281 0.04932665 -0.7016569 -0.62246686 0.19838019 -0.50671417 -0.9883384
0.6890924 -0.33103767 0.11598483 0.049440432 -0.10413534 -0.3078063 0.43393221 0.1296332
0.031513948 0.4422167 0.06638733 0.096567765 -0.3807012 0.5270351 -0.5145785 -0.3715044
0.33256245 -0.58338577 -0.6329205 0.0070726196 0.38019398 -0.5541664 0.86492723 -0.08623664
00000000: fa36 e1be b543 a7bf f577 92bd e10d 57bd
00000010: f910 94be 4e68 e43e 1c6e 13bf 1f31 a93e
00000020: 4678 0c3d 1987 c4bf e216 a9be 86c1 33be
00000030: cd28 e8bc aacb 13bf 50c4 e43d 6997 3abe
00000040: c3a3 e23e 1022 cd3e 90f9 66be 37b0 71be
00000050: 2277 16bb b41f 323d 7b03 8bbe 10eb 433e
00000060: fb9f 163d 6d80 c3bd 9a7b 1f3e 2b63 0d3f
00000070: d6f2 fa3e 784b 04bf 846d d93d 3534 fc3e
00000080: dd7f ccbe cc06 1a3f 1c9c f93e 3f95 fc3d
00000090: b2f2 34bd 99c1 f03e 60da 38be 5ae7 623f
000000a0: aaec 003f 90ff 933e 64e7 973e ee13 c8be
000000b0: 8b66 57be a262 853e 98dc 9f3e 4cfc 373f
000000c0: d0b1 a13b 4bb9 253d e0e6 273c f322 353f
000000d0: 9443 5e3e dca7 bb3e 3d04 043e 1dbc 1abf
000000e0: 072d 923e b920 353e fc98 213e cbc9 3b3e
000000f0: 8293 3ebe 78e1 9fbd 9e76 9e3e 9df5 ccbe
00000100: 4cf1 3f3e 14f7 97be 2222 903d d6d2 523c
00000110: db9c e9bd cc3c 943b 0231 8cbe 34a3 49bd
00000120: 1de5 813e 8ba7 ef3c 77ca ad3e df9d 0dbd
00000130: 61b3 ac3e 5d01 b8bc 41ce 743e dd9a 903d
00000140: 5c3e 86be d727 033e c1b1 e5bd ffbb 7c3e
00000150: 07f3 fdbd acf0 963d bb92 0abe 8ee7 22be
00000160: c85c f9bb 66d1 bdbd 34a9 83c0 1aff 123e
00000170: bed9 06be 4a12 a83d 2dbd 153e 4c72 03be
00000180: 9cf2 f7bf 6fa2 f03e afb6 1f3c 252b c2bd
00000190: 4aba 5cbd 4323 b2be 3f47 57be cfdd d93e
000001a0: 7286 e7bd 9e02 61be c616 09bf c9b5 053e
000001b0: d99d 5fbc 9971 e13d 63d0 32bf b1a2 a4be
000001c0: 27ed a13e 5459 50be a55e b3bd a9bd 03bf
000001d0: ef8c fc3e 3ca4 19be 77e3 23bf e0f7 29be
000001e0: 5a8f a6be 53c5 0a3e aa59 bdbe e6f3 0f3e
000001f0: aae2 b4be a2e1 60bd 4aff d3bd c080 2d3e
00000200: bb9e 9cbd 77b0 b23d 1b03 da3c f8e2 f03d
00000210: fb7b c63d 6e03 533d c45f 5c3d 4553 053e
00000220: a2f2 c03d 95f2 30be ba60 ba3d b5c5 bc3d
00000230: 1fce e03d ed41 56be 6c39 823e 2b1a 003d
00000240: c17e efbd 1317 4f3e 39af 7bbe 77cf ac3e
00000250: f4b4 6e3d 5cc6 383d 2005 fdbe 1884 9dbc
00000260: 9fee 043c d1be 773c 350a e7bd af43 c63c
00000270: 351b a6bc ec45 39bd 34d1 743d 0b83 343e
00000280: 0e36 14be 02df 123e fb86 16bf 8c4d edbd
00000290: 6437 863e 4ec4 18bf c97e af3e ba27 f23d
000002a0: 3ff4 1dbf 1403 00bf 9e26 2abf 042c c63e
000002b0: 7ac2 f1bd 416a adbe 8f0e 00bf 7701 9dbe
000002c0: 38de b43e 1f24 87be 2ec5 093e 548c 29bf
000002d0: 07c1 ee3e e3df 59be 44e6 27be cdcb a33e
000002e0: c6e5 37bf 7f83 9c3e 2982 0d3e 4d14 c7be
000002f0: cf28 1fbe 0621 11be c856 c6be fea7 0f3f
00000300: 7a9b 6ebe b44b 97be 337c c63c 76ba 0ebf
00000310: 37c6 19bf 2fca 6abe 7ddf 90be 6529 26bf
00000320: 755f ab3e 3c38 9dbe 187c 563e 5a53 493e
00000330: f8a7 19bf 38aa 84be 5696 b33e fd4b 2d3c
00000340: 0dc7 bd3e fdf3 cd3e 16c8 033e 18c3 243e
00000350: eabf bebe 1ce3 ad3e a9a3 debe c7f8 bcbe
00000360: 59c1 e83e ef50 e0be 0f01 a03e 4132 c73d
00000370: 060c 4f3e 49da 39bf 96e5 443f 1889 143d
00000380: a9ad d33d b96b e2be be0a 4a3d c99f 33bf
00000390: fd59 1fbf 2d24 4b3e 05b8 01bf bf03 7dbf
000003a0: 5c68 303f c57d a9be 7489 ed3d 0d82 4a3d
000003b0: e944 d5bd ca98 9dbe 5d2c de3e 91be 043e
000003c0: c514 013d 3a6a e23e 15f6 873d 52c5 c53d
000003d0: 45eb c2be c6eb 063f 6bbb 03bf d335 bebe
000003e0: a045 aa3e c558 15bf 1407 22bf 6fc1 e73b
000003f0: c9a8 c23e d9dd 0dbf df6b 5d3f d69c b0bd

TextModel.3.bias f4 [64]
0.08848581 0.4842105 -0.28082466 -0.40831298 -0.7959588 0.3586366 0.26214662 -0.024594206
0.44989803 0.5401372 -0.33444065 -0.09883408 -0.89673173 -0.17750081 -0.117431015 -0.41554114
0.5546945 0.8898178 0.5804107 1.0876864 -0.6184232 -0.78246844 0.33847982 0.7708814
0.12949814 0.49338272 -0.95410156 0.8652483 -1.396513 0.28999364 0.21278931 -0.35860488
0.32874376 -0.9914248 1.5657089 -0.020738704 -0.96598256 0.8853056 0.049194682 -0.7904442
0.9946202 0.38610813 1.538584 1.3276477 0.029093543 0.13225567 0.6035759 0.45794755
0.4612022 0.40679008 0.5509909 -0.5594369 -0.2823841 -0.31498426 -0.3580508 -0.68174195
-0.48713508 0.28319073 -0.7491803 -0.24776384 -0.743853 0.2884369 -0.8235337 -0.19173265
00000000: 0c38 b53d 70ea f73e 40c8 8fbe 660e d1be
00000010: f5c3 4bbf 379f b73e 1538 863e ca79 c9bc
00000020: 0959 e63e 6e46 0a3f ce3b abbe 8669 cabd
00000030: 3690 65bf c6c2 35be ac7f f0bd cfc1 d4be
00000040: 7500 0e3f 19cb 633f cc95 143f 4f39 8b3f
00000050: fc50 1ebf da4f 48bf 3a4d ad3e 7c58 453f
00000060: 299b 043e a99c fc3e 0040 74bf ea80 5d3f
00000070: f0c0 b2bf 0c7a 943e 71e5 593e 0f9b b7be
00000080: 1a51 a83e 04ce 7dbf 2669 c83f 37e4 a9bc
00000090: a24a 77bf 63a3 623f 5d80 493d 8d5a 4abf
000000a0: 6e9f 7e3f f7af c53e 52f0 c43f 5cf0 a93f
000000b0: 9555 ee3c 086e 073e f383 1a3f 1a78 ea3e
000000c0: b222 ec3e ca46 d03e bd0d 0d3f 4237 0fbf
000000d0: a694 90be 9e45 a1be 6f52 b7be a486 2ebf
000000e0: c569 f9be 60fe 903e 48ca 3fbf ceb5 7dbe
000000f0: 266d 3ebf 00ae 933e 1bd3 52bf 9055 44be

TextModel.5.weight f4 [64]
1.2832929 0.67116815 1.0477852 0.012045314 -0.015029987 0.9249203 1.455966 0.871479
1.0399586 0.8433181 1.1525244 0.78283066 0.26104498 0.5848404 0.87723374 -0.28214368
0.968509 0.45792112 0.6018505 1.0946141 0.6201395 0.4286677 0.7156566 0.08892269
0.6979125 0.5201638 0.010608501 1.1898127 0.014790918 0.93767786 0.71586454 0.81011266
0.89572096 0.6697058 0.0243542 0.89287484 0.34616464 0.9741198 0.86200136 0.00552506
0.9295046 0.71058154 0.8520524 0.5195502 0.7821985 0.58631355 1.0313479 0.85989976
1.0422837 0.31635234 -0.018582033 0.47153455 0.45676062 0.776311 0.0017140346 0.28187916
0.51353705 0.6329407 0.67198753 0.7754791 0.7090076 0.45994464 0.20282896 0.65970427
00000000: f142 a43f add1 2b3f d31d 863f b559 453c
00000010: 5640 76bc 94c7 6c3f 185d ba3f 3f19 5f3f
00000020: 5d1d 853f b2e3 573f eb85 933f 9767 483f
00000030: b0a7 853e 1ab8 153f 6492 603f 2375 90be
00000040: 35f0 773f a374 ea3e e012 1a3f 511c 8c3f
00000050: 76c1 1e3f 557a db3e 4535 373f 191d b63d
00000060: 65aa 323f 7429 053f 47cf 2d3c c84b 983f
00000070: 9b55 723c a80b 703f e642 373f 8b63 4f3f
00000080: f84d 653f d771 2b3f 7682 c73c 7293 643f
00000090: 7e3c b13e ea5f 793f 1fac 5c3f 900b b53b
000000a0: 03f4 6d3f ace8 353f 1b20 5a3f 3e01 053f
000000b0: 293e 483f a518 163f 3503 843f 6422 5c3f
000000c0: 8d69 853f eff8 a13e 5939 98bc fa6c f13e
000000d0: 87dc e93e 51bc 463f 75a9 e03a 7752 903e
000000e0: 2a77 033f 6708 223f 6007 2c3f cc85 463f
000000f0: 8681 353f dd7d eb3e 65b2 4f3e 61e2 283f

TextModel.5.bias f4 [64]
-0.44762677 -1.7421691 1.026522 -2.6426833 -2.7177265 1.5880876 -0.5633801 -0.9542406
0.40980005 -0.70956105 -0.35024053 -0.46421784 -0.82417905 1.4388283 0.08437331 -0.09290208
-0.18045017 -1.587198 0.84496456 -1.0092219 -1.7981309 -0.7612738 2.2860184 2.660088
2.3188226 -0.8803199 -3.1964467 0.43723166 -2.4687626 -0.19303232 -0.9917023 -0.76773477
-0.5000834 -0.19125041 -2.4956167 -0.12386508 -0.16595143 1.2498007 1.5190763 -2.542483
1.4625993 -2.1112018 -0.2173707 1.3896126 -1.3763539 -2.254573 0.7676292 1.3212681
0.04329742 -2.179559 -2.340858 -0.70182556 1.3414261 -0.08784048 2.5328438 -2.2173016
-0.5249781 -1.4311609 -1.068355 1.3407892 -1.1702074 -1.6590879 -3.2613997 2.341382
00000000: 562f e5be 66ff debf 1365 833f b921 29c0
00000010: 3bef 2dc0 7446 cb3f ae39 10bf 1d49 74bf
00000020: 50d1 d13e cba5 35bf ba52 b3be f6ad edbe
00000030: 66fd 52bf 872b b83f eacb ac3d 7243 bebd
00000040: eec7 38be 4e29 cbbf 994f 583f 2f2e 81bf
00000050: 2729 e6bf d7e2 42bf 204e 1240 e23e 2a40
00000060: 9767 1440 a55c 61bf 9592 4cc0 d4dc df3e
00000070: 3500 1ec0 44aa 45be 34e0 7dbf 448a 44bf
00000080: 7705 00bf 26d7 43be 2fb8 1fc0 faac fdbd
00000090: 2cef 29be 78f9 9f3f 1871 c23f 0bb8 22c0
000000a0: 7436 bb3f ee1d 07c0 6d96 5ebe d3de b13f
000000b0: 5d2c b0bf ed4a 10c0 5983 443f 501f a93f
000000c0: a358 313d e57d 0bc0 9ed0 15c0 d7aa 33bf
000000d0: dab3 ab3f b6e5 b3bd 1d1a 2240 45e8 0dc0
000000e0: f764 06bf 4830 b7bf dbbf 88bf fb9e ab3f
000000f0: 5bc9 95bf fe5c d4bf c6ba 50c0 34d9 1540

TextModel.5.running_mean f4 [64]
0.70360255 1.1241643 1.429627 1.2427431 4.8691625e-14 1.2134103 1.4657642 1.1625798
2.0584655 1.5206985 0.7039578 0.8366627 0.0054081595 0.19991015 0.98475057 0.06733222
0.27502164 0.9086981 0.8138543 1.2996634 0.51358247 0.0005647287 1.5736383 1.3396473
1.0991533 1.3593078 9.3025177e-14 1.7220384 0.47776422 0.30032372 0.46361873 0.17643692
0.28283826 3.12884e-14 1.5847211 0.3873577 0.09969993 3.1178188 1.4573345 0.5719214
2.6546326 0.9004518 4.197279 1.5534217 0.53347474 0.3437832 1.1016128 0.62940073
1.2902393 2.0601404 2.8593588 0.17730236 0.052089002 0.053711846 0.5187612 0.34289235
0.021249214 0.1905136 0.12113837 2.048713 1.2388996 0.43885335 6e-45 0.07061185
00000000: 4c1f 343f 9ee4 8f3f 04fe b63f 3512 9f3f
00000010: 9f49 5b29 0751 9b3f 299e bb3f 6acf 943f
00000020: e6bd 0340 40a6 c23f 9436 343f 872f 563f
00000030: ee36 b13b 3fb5 4c3e 9d18 7c3f 7ae5 893d
00000040: a3cf 8c3e 70a0 683f c158 503f 5f5b a63f
00000050: 247a 033f 4d0a 143a fb6c c93f 9079 ab3f
00000060: 0eb1 8c3f ccfd ad3f 5d79 d129 c16b dc3f
00000070: 839d f43e 08c4 993e 6f5f ed3e e1ab 343e
00000080: 2dd0 903e 12e9 0c29 24d8 ca3f c053 c63e
00000090: 7a2f cc3d 588a 4740 f089 ba3f 7169 123f
000000a0: 80e5 2940 0284 663f 1c50 8640 86d6 c63f
000000b0: cd91 083f 5a04 b03e a601 8d3f 6820 213f
000000c0: 9026 a53f 57d9 0340 bcff 3640 c08e 353e
000000d0: 475b 553d f400 5c3d 89cd 043f 968f af3e
000000e0: d512 ae3c ff15 433e 6517 f83d 1d1e 0340
000000f0: 4394 9e3f 63b1 e03e 0400 0000 f29c 903d

TextModel.5.running_var f4 [64]
1.1347101 3.0563905 1.4601235 1.2301776 8.5921484e-14 1.2146206 1.871844 1.2539268
4.1239038 1.8386787 1.0796919 1.5310295 0.0070355292 0.34837618 3.561984 0.14755203
0.28213808 0.74887675 1.55903 2.758594 1.1256869 0.0004823707 1.3723273 1.3900871
1.3636078 1.5313411 3.13613e-13 1.8452512 0.8175327 0.5556091 1.2832025 0.5494182
0.6570662 3.5478036e-14 2.9978533 0.8706429 0.12424899 3.290672 2.3364308 0.65593374
3.2569242 2.3134127 1.9681504 2.794871 0.85774904 1.4775566 1.2189199 2.5492911
2.4765131 2.829103 4.245668 0.24609114 0.1543821 0.10683858 1.3428303 0.35716805
0.12244452 0.41718984 0.32560566 3.708056 3.8836832 0.6304835 6e-45 0.155723
00000000: 2e3e 913f e79b 4340 54e5 ba3f 7676 9d3f
00000010: 5d7a c129 b078 9b3f 9698 ef3f ac80 a03f
00000020: 05f7 8340 d359 eb3f 5833 8a3f c6f8 c33f
00000030: 4c8a e63b 5d5e b23e 8cf7 6340 e117 173e
00000040: 6774 903e 63b6 3f3f 4c8e c73f ce8c 3040
00000050: 8216 903f b3e6 fc39 6ca8 af3f 60ee b13f
00000060: b38a ae3f fc02 c43f 658c b02a 3131 ec3f
00000070: d349 513f 663c 0e3f fb3f a43f aca6 0c3f
00000080: 7e35 283f 64c7 1f29 d4dc 3f40 74e2 5e3f
00000090: 4176 fe3d 5f9a 5240 1588 1540 46eb 273f
000000a0: 7271 5040 f40e 1440 5aec fb3f 2bdf 3240
000000b0: 7195 5b3f 9320 bd3f 9105 9c3f 9627 2340
000000c0: 317f 1e40 0610 3540 83dc 8740 51ff 7b3e
000000d0: 5716 1e3e 2fce da3d dde1 ab3f bbde b63e
000000e0: 31c4 fa3d e899 d53e c9b5 a63e ca50 6d40
000000f0: 448e 7840 5e67 213f 0400 0000 da75 1f3e

TextModel.6.weight f4 [32, 64]
0.53437316 0.38240382 -0.4215761 -0.5595367 -0.52269053 -0.41763946 0.7421282 -0.6278793
-0.40685064 -0.36328453 -0.5740726 0.3434632 0.23635852 -0.26135376 0.37426513 -0.28067285
-0.33280906 -0.58683234 -0.22663708 0.4435251 0.31265262 0.10033478 -0.43269 0.01708056
-0.26823863 -0.25935465 -0.44498867 -0.42317256 -0.53419197 0.28133357 0.29651007 0.29525453
0.28043774 0.19179058 -0.5432009 0.31567612 -0.15143466 -0.3495002 -0.40803385 -0.5206229
-0.39165378 0.3634578 -0.33293205 0.6529799 0.3125496 0.3175765 -0.401669 0.4108158
-0.43980536 -0.46909827 -0.5686068 0.36347902 0.24234684 0.1717135 0.49581212 0.5162445
0.16496003 0.20799893 0.25113204 -0.31102702 -0.43130293 -0.35034406 -0.48114374 -0.3577997
0.5320704 0.3810852 -0.42002425 -0.5235966 -0.5114197 -0.4162588 0.7394395 -0.6261967
-0.40584698 -0.3609492 -0.5717131 0.3424736 0.23366727 -0.26010478 0.37384084 -0.2792522
-0.3315117 -0.5858995 -0.22578892 0.44199717 0.31120354 0.099476196 -0.43029788 0.035434738
-0.26540262 -0.25804785 -0.4257009 -0.42183277 -0.5582142 0.2798364 0.29488018 0.29397607
0.2792667 0.18366522 -0.566868 0.31418133 -0.1507725 -0.34886673 -0.40611014 -0.48416725
-0.38870537 0.3618621 -0.3320595 0.65305436 0.31110168 0.31472653 -0.39985967 0.41047266
-0.43786797 -0.46870723 -0.57376647 0.36125863 0.2421555 0.17095965 0.5286828 0.51259995
0.1643213 0.20697436 0.24958383 -0.30965897 -0.43005028 -0.34925348 -0.48971483 -0.35583794
0.53084004 0.37977284 -0.4188586 -0.5680516 -0.53882194 -0.41477892 0.7371449 -0.62365204
-0.4039756 -0.36099145 -0.5702382 0.34115264 0.23495963 -0.2595761 0.3717509 -0.2787785
-0.33047074 -0.5827622 -0.22506668 0.44057685 0.31063917 0.099570975 -0.43003324 0.014429099
-0.26791516 -0.2579607 -0.4688485 -0.4202385 -0.5121211 0.27951506 0.2944585 0.29321834
0.2785219 0.19237997 -0.52650726 0.31362402 -0.15049833 -0.34738386 -0.40530795 -0.4943139
-0.3891936 0.3610425 -0.33068725 0.6478369 0.3104523 0.31599325 -0.3989884 0.40791416
-0.43675956 -0.46148723 -0.54714495 0.3611304 0.24079193 0.17049553 0.49120063 0.5130335
0.16403204 0.2065573 0.24950583 -0.308799 -0.42858857 -0.34779152 -0.48739383 -0.35570708
0.53393066 0.38221917 -0.42125645 -0.538058 -0.5494069 -0.41747937 0.74146473 -0.62760204
-0.406509 -0.36302477 -0.5735696 0.34320247 0.23656905 -0.26116377 0.3738678 -0.28057554
-0.33239517 -0.5861043 -0.2265108 0.44327325 0.31260526 0.10019571 -0.4322473 0.01633188
-0.2711102 -0.25946137 -0.47799993 -0.4225964 -0.5114963 0.2812905 0.2961757 0.2950071
0.28012583 0.19491442 -0.52736044 0.31544918 -0.15118878 -0.3497076 -0.40796402 -0.50537235
-0.39169535 0.36329833 -0.33286813 0.6515233 0.3123784 0.317637 -0.40144193 0.4102234
-0.4392273 -0.45986086 -0.5580568 0.3631249 0.24200478 0.17153038 0.4983024 0.5164599
0.16482913 0.20779058 0.25098902 -0.31063944 -0.43081394 -0.34983268 -0.47168902 -0.35777086
00000000: aecc 083f 6fca c33e d3d8 d7be cc3d 0fbf
00000010: 0ccf 05bf d7d4 d5be 1dfc 3d3f b3bc 20bf
00000020: ba4e d0be 6e00 babe 6cf6 12bf 69da af3e
00000030: f807 723e 29d0 85be ae9f bf3e 5ab4 8fbe
00000040: f365 aabe a53a 16bf 8d13 68be b915 e33e
00000050: 0114 a03e 527c cd3d 8b89 ddbe 88ec 8b3c
00000060: 9356 89be 22ca 84be 8ed5 e3be 13aa d8be
00000070: cec0 08bf f40a 903e 2bd0 973e 9a2b 973e
00000080: 8995 8f3e c064 443e 370f 0bbf 4da0 a13e
00000090: b011 1bbe b1f1 b2be d0e9 d0be 8b47 05bf
000000a0: d886 c8be 2417 ba3e 1276 aabe b129 273f
000000b0: 8006 a03e 6399 a23e 8fa7 cdbe 7356 d23e
000000c0: 2b2e e1be a62d f0be 3790 11bf ec19 ba3e
000000d0: c529 783e aad5 2f3e 16db fd3e 9928 043f
000000e0: 48eb 283e acfd 543e 6194 803e ef3e 9fbe
000000f0: bdd3 dcbe 4c60 b3be 7958 f6be 8631 b7be
00000100: c435 083f 991d c33e 6b0d d7be 6d0a 06bf
00000110: 67ec 02bf e01f d5be e84b 3d3f 6d4e 20bf
00000120: 2dcb cfbe 55ce b8be ca5b 12bf b358 af3e
00000130: 7946 6f3e 742c 85be 1168 bf3e 25fa 8ebe
00000140: e7bb a9be 82fd 15bf 3635 67be 744d e23e
00000150: 1256 9f3e 2dba cb3d 0150 dcbe 0424 113d
00000160: dae2 87be d91e 84be 78f5 d9be 77fa d7be
00000170: 20e7 0ebf b746 8f3e 89fa 963e 0884 963e
00000180: 0bfc 8e3e bc12 3c3e 431e 11bf 60dc a03e
00000190: 1b64 1abe a99e b2be abed cfbe c5e4 f7be
000001a0: 6404 c7be fd45 b93e b403 aabe 922e 273f
000001b0: b848 9f3e d623 a13e 68ba ccbe 7929 d23e
000001c0: 3b30 e0be 65fa efbe 5ce2 12bf e4f6 b83e
000001d0: 9df7 773e 0c10 2f3e c257 073f c039 033f
000001e0: d843 283e 16f1 533e e792 7f3e 9f8b 9ebe
000001f0: 8d2f dcbe 5ad1 b2be e7bb fabe 6430 b6be
00000200: 22e5 073f 9671 c23e a274 d6be d46b 11bf
00000210: 3cf0 09bf e75d d4be 87b5 3c3f a9a7 1fbf
00000220: e4d5 cebe dfd3 b8be 21fb 11bf 8fab ae3e
00000230: 4299 703e 29e7 84be 2256 be3e 0ebc 8ebe
00000240: 7633 a9be e72f 15bf e177 66be 4a93 e13e
00000250: 190c 9f3e deeb cb3d 512d dcbe 0768 6c3c
00000260: 2d2c 89be 6d13 84be e90c f0be 8029 d7be
00000270: 5e1a 03bf 991c 8f3e 44c3 963e b720 963e
00000280: 6c9a 8e3e 41ff 443e 2ec9 06bf 5493 a03e
00000290: 3c1c 1abe 4cdc b1be 8684 cfbe b616 fdbe
000002a0: 6244 c7be 90da b83e d74f a9be a4d8 253f
000002b0: 9bf3 9e3e dec9 a13e 3548 ccbe 20da d03e
000002c0: f39e dfbe 0e48 ecbe b111 0cbf 15e6 b83e
000002d0: 2992 763e 6196 2e3e a67e fb3e 2a56 033f
000002e0: 04f8 273e c283 533e 757e 7f3e e71a 9ebe
000002f0: f66f dbbe bb11 b2be af8b f9be 3d1f b6be
00000300: aeaf 083f 3bb2 c33e edae d7be 2bbe 09bf
00000310: eea5 0cbf dbbf d5be a2d0 3d3f 87aa 20bf
00000320: f321 d0be 62de b9be 75d5 12bf 3cb8 af3e
00000330: 283f 723e 42b7 85be 9a6b bf3e 99a7 8fbe
00000340: b32f aabe ee0a 16bf 72f2 67be b6f4 e23e
00000350: cc0d a03e 6933 cd3d 854f ddbe 6fca 853c
00000360: f5ce 8abe 1fd8 84be 68bc f4be 8e5e d8be
00000370: 6cf1 02bf 4f05 903e 57a4 973e 2c0b 973e
00000380: a76c 8f3e a597 473e 1801 07bf 8e82 a13e
00000390: 3bd1 1abe e00c b3be a9e0 d0be 1560 01bf
000003a0: 4b8c c8be 3d02 ba3e b16d aabe 3bca 263f
000003b0: 10f0 9f3e 51a1 a23e cc89 cdbe cd08 d23e
000003c0: 67e2 e0be e272 ebbe cfdc 0ebf 82eb b93e
000003d0: 1ad0 773e a9a5 2f3e 7e21 ff3e b736 043f
000003e0: f8c8 283e 0ec7 543e a281 803e 220c 9fbe
000003f0: a593 dcbe 451d b3be 3981 f1be be2d b7be

TextModel.6.bias f4 [32]
1.0345575 0.9318732 1.0302768 1.122598 2.690413 1.0355902 2.6797326 0.94834894
1.0254959 2.7199163 2.7488236 0.8786579 2.8319955 0.94661266 2.8967817 2.9080842
2.7406437 0.8294097 3.004659 0.89606136 0.97943735 1.0334139 0.92456996 1.0232798
1.0024253 2.695572 2.829431 1.0611954 0.974953 2.8869336 2.7757227 2.6859295
00000000: 616c 843f 3e8f 6e3f 1ce0 833f 4bb1 8f3f
00000010: ba2f 2c40 388e 843f bd80 2b40 ffc6 723f
00000020: 7343 833f 1c13 2e40 baec 2f40 b9ef 603f
00000030: 6a3f 3540 3555 723f df64 3940 0d1e 3a40
00000040: b566 2f40 3254 543f 554c 4040 4764 653f
00000050: 68bc 7a3f e846 843f 9eb0 6c3f d5fa 823f
00000060: 794f 803f 4084 2c40 6615 3540 40d5 873f
00000070: 8596 793f 85c3 3840 71a5 3140 45e6 2b40

TextModel.8.weight f4 [32]
120.78837 120.73873 120.83812 120.81865 120.90642 120.924 120.785385 120.7242
120.730965 120.819214 120.74923 120.731766 120.74136 120.76243 120.7275 120.821266
120.847336 120.70237 120.906 120.71358 120.8502 120.69499 120.760574 120.74321
120.71429 120.87177 120.87858 120.84148 120.71095 120.85989 120.76927 120.76897
00000000: a593 f142 3b7a f142 1ead f142 26a3 f142
00000010: 16d0 f142 17d9 f142 1e92 f142 ca72 f142
00000020: 4176 f142 70a3 f142 9b7f f142 aa76 f142
00000030: 947b f142 5d86 f142 7b74 f142 7da4 f142
00000040: d6b1 f142 9d67 f142 dfcf f142 5a6d f142
00000050: 4db3 f142 d663 f142 6a85 f142 867c f142
00000060: b76d f142 59be f142 d5c1 f142 d6ae f142
00000070: 026c f142 44b8 f142 de89 f142 b689 f142

TextModel.8.bias f4 [32]
123.6077 123.56394 123.66097 123.64798 -123.67719 123.783394 -123.53596 123.523926
123.536514 -123.61375 -123.509224 123.53898 -123.52086 123.57652 -123.48295 -123.59485
-123.63415 123.5017 -123.685905 123.52408 123.671196 123.50144 123.57409 123.54611
123.53049 -123.64473 -123.66446 123.65974 123.515 -123.64117 -123.51855 -123.50558
00000000: 2437 f742 bd20 f742 6b52 f742 c44b f742
00000010: b95a f7c2 1991 f742 6912 f7c2 400c f742
00000020: b212 f742 3d3a f7c2 b904 f7c2 f513 f742
00000030: ae0a f7c2 2e27 f742 45f7 f6c2 9030 f7c2
00000040: af44 f7c2 df00 f742 2f5f f7c2 540c f742
00000050: a757 f742 bd00 f742 ef25 f742 9c17 f742
00000060: 9c0f f742 1a4a f7c2 3454 f7c2 c951 f742
00000070: ae07 f742 4748 f7c2 7f09 f7c2 db02 f7c2

TextModel.8.running_mean f4 [32]
5.471545 5.4460444 5.435236 5.4671693 35.15995 5.4752812 35.068718 5.4733543
5.4796147 35.242058 34.833397 5.471261 34.836098 5.4877076 34.97034 34.57694
34.972294 5.479713 34.636505 5.504486 5.4792395 5.4620824 5.4479365 5.502407
5.437253 35.073357 35.076664 5.474513 5.4542537 34.921944 35.352535 35.152985
00000000: e616 af40 ff45 ae40 74ed ad40 0df3 ae40
00000010: caa3 0c42 8135 af40 5e46 0c42 b825 af40
00000020: 0159 af40 def7 0c42 6655 0b42 9214 af40
00000030: 2a58 0b42 4d9b af40 a1e1 0b42 c94e 0a42
00000040: a1e3 0b42 cf59 af40 c88b 0a42 c024 b040
00000050: ee55 af40 61c9 ae40 7f55 ae40 b813 b040
00000060: fafd ad40 1e4b 0c42 814e 0c42 362f af40
00000070: 3f89 ae40 12b0 0b42 ff68 0d42 a89c 0c42

TextModel.8.running_var f4 [32]
19.019268 18.860344 18.768417 18.990229 17.867664 19.054768 17.644087 19.024902
19.0907 17.82437 17.491343 19.006655 17.546427 19.152433 17.532084 17.32746
17.588963 19.068575 17.334368 19.294744 19.081547 18.937458 18.87139 19.293318
18.745209 17.703985 17.578485 19.051382 18.935154 17.462442 17.754969 17.69474
00000000: 7627 9841 fce1 9641 b825 9641 fdeb 9741
00000010: faf0 8e41 2a70 9841 1727 8d41 0033 9841
00000020: c1b9 9841 4f98 8e41 45ee 8b41 a10d 9841
00000030: 155f 8c41 2f38 9941 b541 8c41 a39e 8a41
00000040: 32b6 8c41 718c 9841 c9ac 8a41 a35b 9a41
00000050: 02a7 9841 ea7f 9741 9bf8 9641 b758 9a41
00000060: 30f6 9541 c3a1 8d41 bda0 8c41 3b69 9841
00000070: 327b 9741 15b3 8b41 2d0a 8e41 d48e 8d41

TextModel.9.weight f4 [1, 32]
121.951614 121.9942 121.907196 121.92873 -121.93533 121.833595 -122.04273 122.02574
122.00848 -121.992035 -122.06569 122.00561 -122.0586 121.97118 -122.09141 -121.99134
-121.96416 122.04733 -121.91322 122.01716 121.89955 122.04636 121.98257 122.0052
122.01844 -121.96038 -121.94294 121.90474 122.02786 -121.962296 -122.06257 -122.071335
00000000: 3ae7 f342 08fd f342 7cd0 f342 82db f342
00000010: e4de f3c2 cdaa f342 e115 f4c2 2e0d f442
00000020: 5704 f442 ecfb f3c2 a221 f4c2 df02 f442
00000030: 011e f4c2 3ff1 f342 cd2e f4c2 91fb f3c2
00000040: a6ed f3c2 3c18 f442 92d3 f3c2 c908 f442
00000050: 92cc f342 bc17 f442 13f7 f342 aa02 f442
00000060: 7109 f442 b7eb f3c2 c9e2 f3c2 3acf f342
00000070: 440e f442 b2ec f3c2 0920 f4c2 8624 f4c2
