models/MLPModel_BatchNorm/state_dict.pt (torch, 29291 bytes, 19 tensors)

TextModel.0.weight f4 [32, 25]
000000 74 87 a8 3e 37 10 9d bf be 14 84 40 ad 05 af 3e
       0.32915843 -1.2270573 4.127532 0.34184018
000010 8d 83 a6 c0 91 1f 45 bf 0c 5f ae 3f bb d3 77 3f
       -5.2035584 -0.7700129 1.3622756 0.9680745
000020 b8 7f c6 be c4 0b bd bf 56 ca a2 bf 50 e1 51 40
       -0.38769317 -1.4769216 -1.2717998 3.279377
000030 41 81 ab 3f f6 6f bc bf d3 06 cf 3e 50 c3 51 3f
       1.339882 -1.4721668 0.40434894 0.8193865
000040 7f 58 6c 40 b7 14 67 3f 77 f8 18 bf 3b 08 08 bd
       3.6929014 0.90265983 -0.5975413 -0.033210974
000050 6d 60 e2 3d e6 13 d1 be a7 40 6c bf ae d1 46 c0
       0.11053548 -0.40835494 -0.9228615 -3.1065478
000060 b9 a4 3f bf 39 35 0f bf 50 f0 b5 3f 6e 96 6b c1
       -0.7486072 -0.55940586 1.4213963 -14.724226
000070 6e f4 0e c1 b1 5a 9d 3f 4e 08 7b 3f fe 1b f2 3e
       -8.934675 1.2293302 0.98059547 0.4728698
000080 89 35 91 3e 26 27 51 3f be 2f 74 40 73 0c d6 3f
       0.28361157 0.8170036 3.815414 1.6722549
000090 7f eb 7f be a2 a8 80 c0 3b e5 84 3f 80 02 57 bf
       -0.24992178 -4.020585 1.0382456 -0.8398819
0000a0 12 65 3a bf f6 c4 bd 3f 5b 65 7c c0 b8 99 54 3f
       -0.7281047 1.4825733 -3.9436862 0.83047056
0000b0 24 50 f9 3f 65 7b a8 bf 33 ae ce 3f 42 14 a7 bf
       1.9477582 -1.3162657 1.6146911 -1.3053057
0000c0 5b 01 a1 3d 24 b9 d4 bf c9 2f 9c bd 5d 66 b6 bf
       0.07861587 -1.6619 -0.07626302 -1.4249989
0000d0 6b 7f cd be 8b 67 24 40 3d c1 f9 3e 55 10 53 40
       -0.40136275 2.5688198 0.48780242 3.2978718
0000e0 61 a8 f8 3f 6a 24 cd bf a5 a7 e2 3e 12 6c dd bf
       1.9426385 -1.6026738 0.44268528 -1.7298605
0000f0 d5 5a b4 3e b1 31 c9 3f ee 85 68 bf 6b 46 48 bf
       0.3522555 1.571829 -0.9082936 -0.7823245
000100 f5 2c 45 40 e7 b9 e2 3f 19 95 55 40 57 12 4f 3f
       3.080869 1.7712983 3.3372252 0.8088736
000110 18 e2 e1 3f 2d 15 9e 3f 8c fb af 3f aa 5a ed 3f
       1.7647123 1.2350212 1.3748641 1.8543293
000120 d2 99 df 3f 5f 4a e7 3f d2 db 59 3f e1 86 8d bf
       1.7468817 1.8069571 0.85101044 -1.1056787
000130 64 f4 a5 be 74 b6 20 be e3 5f ad 3f 17 7b d5 be
       -0.32413018 -0.156946 1.3544887 -0.41695473
000140 44 c3 8c bf 9e fe 15 40 64 b1 4f 40 ca cf e4 be
       -1.099709 2.3436656 3.245202 -0.4468978
000150 04 11 07 40 de 7e 1a be 22 04 a0 3f 02 a3 03 3f
       2.1104136 -0.15087458 1.2501261 0.51420605
000160 07 2d 20 40 cb 27 f3 3f d8 1b 3e 3f 45 27 bf be
       2.5027483 1.8996519 0.74261236 -0.37334648
000170 f1 04 c1 3f 59 0f b3 3e 7c 77 9f bd 6c 39 61 3d
       1.5079633 0.34972647 -0.07786462 0.054986402
000180 ff 9c 61 3f 89 7c 89 c0 d2 2d 92 bf 6f ac 82 c0
       0.8813018 -4.296452 -1.1420233 -4.083549
000190 c9 8f f1 3e e3 98 ae bf f1 fa bb 40 63 d0 35 bf
       0.47180012 -1.3640407 5.8743825 -0.710211
0001a0 9a fb c9 3d 1c f8 2a c0 87 25 ce 3f 29 6a c2 3f
       0.09862442 -2.6713934 1.6105202 1.5188648
0001b0 36 39 90 3f 39 86 e0 3e ac eb b6 3f 14 76 d1 3c
       1.1267459 0.43852404 1.4290671 0.025569
0001c0 09 a7 d8 3f b0 aa 4f c0 79 ca dc bf b7 59 89 3f
       1.6925975 -3.244793 -1.724929 1.0730504
0001d0 f5 8a 23 40 7f ed 98 3e 34 ee 59 c0 a3 74 fd bf
       2.5553563 0.29868695 -3.4051638 -1.980122
0001e0 89 bd 35 3f d3 aa d4 bf 79 a2 7e 3e 21 52 61 3f
       0.7099233 -1.6614631 0.24866666 0.88015944
0001f0 45 81 57 3d ad d5 e5 bf 6c 91 fa 3e 42 56 6c be
       0.052613515 -1.7955834 0.48939073 -0.2307978
000200 0e 32 6d 3d 4c e6 02 c0 39 70 d0 bf 58 30 57 bf
       0.057909064 -2.0453062 -1.6284248 -0.8405814
000210 91 6c 53 bf 02 8a 64 3f 70 61 0b bf 51 db 0f 3f
       -0.82587534 0.89273083 -0.5444555 0.56194025
000220 0b df 7b 3f 03 0f a9 3c e5 c9 b4 3d aa 55 de bc
       0.9838721 0.020637041 0.08827571 -0.027140457
000230 39 48 8b 3e 30 70 ff c0 a7 e8 b0 3d ba c0 3a 3f
       0.2720354 -7.982445 0.08638125 0.7295033
000240 a5 22 3c be 7c e0 12 3b 95 51 88 bc 3a cb 8b be
       -0.18372591 0.0022411635 -0.016640464 -0.27303487
000250 7c 73 8a bd 36 e7 21 bf fd 44 07 bf ef 23 b7 bf
       -0.06760308 -0.63243425 -0.5283964 -1.4307841
000260 a7 00 b3 3e 1e 66 95 3f c5 3a 09 bf f0 55 3b c0
       0.34961435 1.1671789 -0.536053 -2.9271202
000270 c9 4e 8c 3e ab 8c 10 3f 0b a1 6f bf 65 e2 ca 3f
       0.27403858 0.5646464 -0.9360511 1.585034
000280 38 01 e2 3f aa 92 c0 bf ce ca a0 3f 65 56 cb bc
       1.7656622 -1.5044758 1.2561891 -0.02482147
000290 65 72 d3 be 6b a3 62 bd 91 ca ca c0 1a 84 33 3e
       -0.41298214 -0.05533163 -6.3372273 0.17530861
0002a0 56 9c c8 3f d9 38 2e c0 9c 89 3c be 06 ad 24 c0
       1.567271 -2.7222197 -0.18411869 -2.5730605
0002b0 82 7e 8d bf 98 6f d9 3f b2 e0 ae bf be 9a b1 3e
       -1.1054232 1.6987181 -1.3662322 0.3468837
0002c0 f4 04 ab be e2 fc 87 3f 1e f5 d7 c0 8f f2 b2 bf
       -0.33402216 1.0624049 -6.7486715 -1.3980273
0002d0 af e7 98 3e 76 9a 1e 3f ae 7b 65 3e c0 a5 93 40
       0.2986426 0.6195444 0.22410461 4.613983
0002e0 02 be 0e 40 08 6d f8 3f 1c ff 07 c0 f7 12 1b 40
       2.2303472 1.9408274 -2.1249456 2.4230325
0002f0 21 1d 67 3f fb ac ba 3f f4 e1 66 c0 cc cf cb bf
       0.9027882 1.458404 -3.607541 -1.592279
000300 df 3e 7e 3f 04 0a af 40 a6 88 55 bf 71 b7 d2 bf
       0.99314684 5.4699726 -0.83411634 -1.6462232
000310 04 6f 6c bf 87 10 a1 bf e5 d9 f4 3f c0 d2 b5 bf
       -0.92356896 -1.2583169 1.9128996 -1.4204941
000320 ef 11 0c 3f 5a b7 8d c0 d9 42 43 3f 59 c3 28 40
       0.54714864 -4.428632 0.76273876 2.636923
000330 cd 12 e6 3f e0 00 f5 3f 92 83 1a 3f 00 2f dd bf
       1.7974488 1.9140892 0.6035701 -1.7279968
000340 10 a9 71 c0 e5 55 26 40 51 42 24 be e6 f4 14 bf
       -3.7759438 2.5989926 -0.16040923 -0.58186185
000350 ab 8b 35 c0 02 53 69 bf 07 43 c6 bf ee 16 22 3f
       -2.8366497 -0.91142285 -1.5489205 0.6331624
000360 28 1d e1 3f 7d 05 16 c0 bb b5 60 bf ac fd 3c c0
       1.7587023 -2.344085 -0.877773 -2.952983
000370 44 23 93 be 31 4a 10 c0 4c e3 5f bf 2c 23 60 40
       -0.28737843 -2.2545283 -0.874562 3.5021467
000380 7d 3f 73 bf 1c 09 02 3e 57 b5 0a 3e 57 1b f8 3f
       -0.9501875 0.12698787 0.13545738 1.9383343
000390 38 ed 03 bf ef 53 50 bf a0 33 f2 bd d1 b0 92 3e
       -0.5153384 -0.8137807 -0.11826253 0.28650525
0003a0 46 5e c0 bf 07 ee 06 3f 83 e5 69 3f 06 2d 25 bf
       -1.502877 0.5270695 0.9136583 -0.64521825
0003b0 7a 73 ba 3e 84 ce 71 be 72 35 c0 bf d9 05 5b bf
       0.36416227 -0.23613936 -1.501631 -0.855558
0003c0 01 d8 3c 3d d4 bf 1c c1 69 cd 50 3f 33 b8 80 bd
       0.046104435 -9.796833 0.8156343 -0.06285133
0003d0 42 d7 88 bf 96 0b ca be 1e f2 b7 bf 7f c6 fd 3e
       -1.0690691 -0.39461964 -1.4370763 0.49565503
0003e0 df ec 3a bd d1 ef de 3e 6c c0 50 3f 6d d4 39 c0
       -0.045636054 0.4354234 0.8154361 -2.9035904
0003f0 1d fc 46 3f c3 16 7a c0 e6 aa a3 bf d4 46 6a be
       0.77728444 -3.9076393 -1.2786529 -0.22878581

TextModel.0.bias f4 [32]
000000 09 2c 88 c0 d9 f4 b2 3e ba c0 0c 3f 4a b8 dc c0
       -4.2553754 0.3495243 0.5498158 -6.897496
000010 07 d3 e8 3f f8 f6 e7 40 bc f4 3f 3f 0c 42 50 c0
       1.81894 7.2488976 0.7498281 -3.2540312
000020 1a 4c 2b 3f 3f 45 ac 40 b2 33 dd c0 b9 ef c4 40
       0.66912997 5.383453 -6.9125605 6.154263
000030 65 d1 41 40 fa dd c6 3f 76 dc fa 3f 98 2a 4b c0
       3.0284054 1.5536492 1.9598529 -3.1744747
000040 69 34 8d 40 e1 26 d7 40 6c 49 f3 bf 29 2d d2 3f
       4.4126477 6.723496 -1.9006782 1.6420032
000050 99 29 99 c0 0b ed 03 be 66 3a 6c 40 58 a1 0c 40
       -4.786328 -0.12883393 3.6910644 2.1973476
000060 06 4b 88 3f b9 56 7b 40 d4 4c 15 41 8c ca 9b 40
       1.0647895 3.9271681 9.331257 4.868475
000070 2a 81 55 bf e9 bc b8 c0 72 29 4b 40 97 54 86 40
       -0.83400214 -5.7730603 3.1744046 4.197826

TextModel.2.weight f4 [32]
000000 b9 4d d0 3f 29 3c 32 40 dd af f4 3e 28 ab f8 3f
       1.6273719 2.784922 0.47790423 1.9427233
000010 84 72 6a 3f 29 42 18 40 54 c7 76 40 22 ac 11 40
       0.91580987 2.379038 3.855916 2.2761312
000020 22 ac 1e 3f c9 38 62 40 e8 f9 fe 3f 3a 59 5f 40
       0.61981404 3.534716 1.9920015 3.489821
000030 40 30 56 3f 95 1e ec 3f cd 94 5f 40 ba 7c 0d 40
       0.83667374 1.8446833 3.493457 2.2107377
000040 bc ad 5e 40 c5 58 3c 3f e8 8a 83 3f 89 f4 50 bf
       3.479354 0.7357295 1.0276766 -0.8162313
000050 ba 42 25 40 ca 3e ea 3f 82 90 09 40 12 4d 27 3f
       2.5821977 1.8300412 2.149445 0.65351975
000060 63 ec 1f 40 db 66 3e 40 eb 81 53 40 06 a9 9e 3e
       2.498803 2.9750278 3.3048046 0.3098833
000070 a7 ee 5d 40 23 00 ff 3f 7d 0d 12 40 3b 6c 17 40
       3.4676912 1.9921917 2.2820733 2.3659809

TextModel.2.bias f4 [32]
000000 2a 5d 4e 3e 9b 9b 92 bf e6 3e ef bf 14 2b d0 3f
       0.20152727 -1.1453737 -1.869107 1.6263146
000010 70 ce 9b bd 7b bb 08 40 ef 73 99 3f f9 5e 60 be
       -0.07607734 2.136443 1.1988505 -0.21911229
000020 ae 4c 18 3f 23 c7 63 3f b7 37 7d 3f 25 07 b4 3f
       0.59492004 0.88975734 0.9891314 1.406468
000030 7c ad 07 c0 55 43 a7 3f de d7 a7 3e 39 30 10 be
       -2.1199636 1.3067423 0.3278188 -0.14080895
000040 79 01 f1 3f 4d 6a 1e c0 6d 9a f4 3e d4 4c f1 bf
       1.8828574 -2.475238 0.47774068 -1.8851571
000050 b1 00 a6 3d c3 bd 82 bf c7 44 a8 3f 09 a7 31 c0
       0.081056006 -1.0214161 1.3145989 -2.77582
000060 bb 04 80 3f 38 6b 00 40 c5 95 c5 bf f9 19 a9 bf
       1.0001444 2.006544 -1.5436331 -1.3211051
000070 13 cf b7 3e 8d 09 36 bf b9 b6 99 3f a1 42 11 40
       0.35900173 -0.71108323 1.2008888 2.2696917

TextModel.2.running_mean f4 [32]
000000 52 6a 52 3f f0 65 62 40 51 56 b1 40 c8 03 13 3f
       0.8219348 3.5374718 5.5417867 0.57427645
000010 28 30 67 40 b0 10 0c 41 42 79 84 40 f0 9e 2f 40
       3.6123142 8.754074 4.139802 2.7440758
000020 26 7d 88 40 f1 86 f3 40 b8 98 1c 40 64 81 07 41
       4.265277 7.6102223 2.4468212 8.4690895
000030 8b ce 93 40 96 80 84 40 19 59 90 40 81 2c 01 40
       4.618963 4.1406965 4.510876 2.0183413
000040 01 53 e9 40 8d c3 ed 40 5c cf 06 40 3e 09 90 40
       7.2913823 7.430121 2.1064062 4.501128
000050 a4 01 91 3f f4 33 3e 40 a8 e2 aa 40 47 66 da 40
       1.1328626 2.971921 5.340168 6.824985
000060 1e 2e ba 40 94 58 b9 40 3d 35 19 41 d0 6b d0 40
       5.8181295 5.7920628 9.575498 6.5131607
000070 16 0e fe 3f 4f cb ce 3f 7e f3 b9 40 0d d4 f4 40
       1.9848049 1.6155795 5.810973 7.650885

TextModel.2.running_var f4 [32]
000000 20 f1 04 41 b6 80 bd 41 22 03 b2 42 b3 37 82 40
       8.308868 23.687847 89.00612 4.069299
000010 78 19 61 42 d9 09 61 41 f6 d1 93 41 9f a8 d8 41
       56.27487 14.064904 18.47752 27.082335
000020 a1 c6 28 42 a2 3c a8 41 fe a9 33 41 0d ce bc 41
       42.193974 21.029606 11.229002 23.60061
000030 cf b0 68 42 9c a6 c9 41 e7 77 ea 41 88 31 4c 41
       58.172665 25.206352 29.308546 12.762093
000040 ad af ec 41 f7 90 66 43 57 1d ba 41 4d 15 9b 41
       29.58578 230.56627 23.264326 19.3854
000050 00 e3 01 41 ac 75 6f 41 66 1e 80 41 91 c1 aa 42
       8.11792 14.9662285 16.014843 85.37806
000060 45 07 2a 42 13 99 08 42 0f 3d b7 43 dd 4b 71 42
       42.5071 34.149487 366.47702 60.324085
000070 7d 25 2f 41 56 1d 3b 41 e9 9e e1 41 73 7a 20 42
       10.946652 11.694662 28.202593 40.11958

TextModel.3.weight f4 [64, 32]
000000 f5 d9 8e 3f d2 42 41 bf 3d 54 e0 3f 1c df 8e bf
       1.1160265 -0.75492585 1.7525707 -1.1161838
000010 c1 a8 c8 3f 11 5b 49 c0 b6 6c 71 c0 b0 04 dd 3f
       1.56765 -3.1461833 -3.7722602 1.7267056
000020 2d 26 d0 be c2 e3 b4 bf dc 9e 17 be f5 ac 88 bf
       -0.40654126 -1.4132006 -0.14806694 -1.0677782
000030 16 4c 0f 40 26 03 a3 c0 8a 8f 2f c0 b0 a9 02 40
       2.239019 -5.0941343 -2.743136 2.041607
000040 32 46 1f c0 89 57 02 3c 3a 46 27 be 7d 1f 29 40
       -2.4886594 0.00795544 -0.16335383 2.642547
000050 76 12 66 be 86 be de be 3a a8 51 bf 76 14 4c 40
       -0.2246798 -0.43504733 -0.8189732 3.1887488
000060 a4 a7 f3 3f 87 64 c8 bf 92 3e 70 bd ee f7 e2 3f
       1.9035535 -1.5655679 -0.05865342 1.7731912
000070 40 56 fd 3f 0e 3a 2f 40 36 c4 b2 3f 19 38 c3 bf
       1.9791946 2.7379184 1.3966129 -1.5251495
000080 86 ca 09 3d 44 c7 7f bf 80 60 80 3f c7 c4 12 3f
       0.033640407 -0.9991343 1.002945 0.5733151
000090 57 6d 9c bf 90 5b a5 c0 93 13 6c bf b1 b6 2b 40
       -1.2220868 -5.167427 -0.9221737 2.6830256
0000a0 18 94 fa bf 1b e9 03 c0 64 b3 42 40 ce 12 00 c0
       -1.9576445 -2.0611026 3.0421991 -2.0011477
0000b0 28 c1 bd 3f f7 ad 9b c0 5a c1 75 c0 90 ea e4 3f
       1.4824572 -4.864986 -3.8399262 1.7884083
0000c0 9e ef 25 c0 f0 d8 eb 3f c6 37 a0 3f 16 73 f4 3f
       -2.59275 1.8425579 1.2517021 1.9097621
0000d0 54 1c 0a 3d 07 60 86 bf 05 37 57 c0 a4 69 48 40
       0.033718422 -1.0498055 -3.3627331 3.1314478
0000e0 b4 6f 1e 40 8b 87 0a c0 ce 69 6b 3f c6 07 95 3f
       2.4755678 -2.164523 0.9195832 1.1642997
0000f0 3d 06 28 40 4b 12 e8 3f d3 a1 08 40 d8 1e b9 bf
       2.6253808 1.8130583 2.134877 -1.4462538
000100 5b 90 b7 3e 34 d2 09 bf 40 25 9e bf 7a 03 1f 40
       0.35852322 -0.5383637 -1.2355118 2.4845872
000110 a6 5a 86 be 1c ca 2a bf 69 7b 1b c0 8d 26 07 40
       -0.26241034 -0.66714644 -2.4294074 2.111728
000120 fd 84 e9 3e dc 1d f2 be b7 a9 7a 3e 4c 90 fc be
       0.45609275 -0.47288406 0.24478804 -0.4932884
000130 22 cd 04 c0 f8 8e 9c bf 1b 77 2d bf 95 70 8d 3f
       -2.0750203 -1.2231131 -0.67759866 1.1049982
000140 3a b6 ad bf fc 70 55 c1 9e ca 08 40 9b df 78 c0
       -1.3571236 -13.340084 2.1373668 -3.8886478
000150 82 d4 4e be ec 54 b8 bf 2c f2 45 bf 0c 33 3c c0
       -0.20198253 -1.4400916 -0.7732265 -2.9406157
000160 c1 90 ac bd 8c 10 72 be 06 ad 00 c1 78 fc 68 c0
       -0.08426047 -0.23639125 -8.042242 -3.6404095
000170 70 85 ef 3f a1 95 a5 3e e9 b6 59 3f f8 d5 76 3e
       1.8712597 0.3234072 0.85044724 0.2410506
000180 1f b0 77 3f 3a 5a 71 bf 3a 10 19 be 0f e7 8b 3f
       0.96753114 -0.942783 -0.14947596 1.0929888
000190 6e 96 1e 40 da de 5a c0 cb 6a b4 bf 34 24 ad 3f
       2.4779315 -3.4198518 -1.4095091 1.3526673
0001a0 45 99 89 3f 21 bc 6c c0 38 3c 32 40 9b 02 6c c0
       1.0749899 -3.6989825 2.7849255 -3.687659
0001b0 74 d7 d2 3e 67 eb fa bf 90 ab 86 c0 9a 75 b4 3f
       0.41180003 -1.9603089 -4.2084427 1.4098389
0001c0 3a 17 2a c0 04 1f ba 3f 78 b1 a8 3f e2 b3 70 3e
       -2.6576676 1.4540715 1.3179159 0.2350612
0001d0 ae 74 98 be cf 7b dc bf f2 16 e2 bf 26 d0 8b 3f
       -0.2977652 -1.7225283 -1.7663252 1.0922897
0001e0 39 15 19 40 3e da a0 bf 05 a0 c7 3f c4 8f 23 3e
       2.3919203 -1.2566602 1.5595709 0.15972811
0001f0 0b 63 fe 3e ca 30 05 3e 07 7d 08 40 05 88 60 c0
       0.4968494 0.13006893 2.132631 -3.508302
000200 04 d6 ed 3e 26 ff 82 be 95 f7 b6 3f 70 4f 7a 3f
       0.46452343 -0.25585288 1.4294306 0.9777746
000210 7c b7 a2 3f 3c 67 89 c0 0a 41 06 c0 c9 32 9c 3f
       1.2712245 -4.293852 -2.0977197 1.2202998
000220 27 bd df 3f 52 b5 f4 bf d2 3a 13 40 8f 2c 84 c0
       1.74796 -1.9117835 2.300465 -4.1304393
000230 08 e6 22 40 57 d1 12 c0 73 68 34 c0 6d 78 14 40
       2.54529 -2.294027 -2.818875 2.3198502
000240 0f 23 15 c0 57 d5 9e 3f a2 88 bc bf b7 e6 d4 3f
       -2.3302648 1.2408856 -1.4729197 1.6632909
000250 db e4 c7 be 33 df 60 bf 21 d5 1f c0 c2 44 6c 3f
       -0.3904179 -0.87840575 -2.4973834 0.92292416
000260 79 2e 31 40 fd 0b 07 c0 ec 2b c7 bd 84 98 af 3f
       2.7684615 -2.1101067 -0.09725174 1.3718419
000270 ec 4a f2 be 60 8d 1c 40 83 be 36 40 8f 2e 10 c0
       -0.47322786 2.4461288 2.855378 -2.2528417
000280 a0 b0 f8 c0 2d ee 7c 40 4e 7d 20 c0 a3 b2 45 bf
       -7.7715607 3.952037 -2.507648 -0.77225703
000290 7a 34 1a c0 6d 57 55 bf 68 88 ab 3e 06 a5 98 bf
       -2.409453 -0.83336526 0.33502507 -1.1925361
0002a0 47 d1 cf bf 21 61 03 c0 05 aa 4e c0 e0 08 30 bf
       -1.6235741 -2.0528033 -3.2291272 -0.6876354
0002b0 b7 2c 83 bf 3e 03 9b 3f 5e 3a 3b 3f 81 f1 27 c0
       -1.0248021 1.2110364 0.73135936 -2.6241152
0002c0 c2 e1 11 3f 65 ea 6d 3e 76 7e 21 c0 27 e5 cb c0
       0.56985104 0.23233946 -2.5233436 -6.3717227
0002d0 d6 b6 c8 3f 66 11 68 be d9 c3 41 bd 94 2d f8 bf
       1.5680797 -0.22662887 -0.047305916 -1.9388909
0002e0 82 6a 2d c0 a9 4f 5b bf 03 11 2e 3f 09 99 61 c0
       -2.7096257 -0.85668427 0.6799471 -3.5249655
0002f0 3b a1 34 c0 38 48 13 c0 12 35 bc bf 15 1c 17 40
       -2.8223407 -2.301283 -1.4703696 2.361089
000300 0f 15 86 3f fe fd 50 c0 20 a9 61 c0 69 fe 70 40
       1.0475177 -3.2655025 -3.5259476 3.765528
000310 e6 cc cc be 05 33 14 c0 53 0d c8 3e 18 7a 0f 40
       -0.40000075 -2.315614 0.39072666 2.241827
000320 dd 31 ad bf e4 ac 5b c0 2b 58 0d 40 dd 82 80 bf
       -1.3530842 -3.4324274 2.2085063 -1.0039936
000330 84 d0 16 c0 4e c3 37 3e dd b3 c0 bf d3 f1 99 3f
       -2.3564768 0.17945597 -1.505489 1.2026924
000340 af f7 99 bf d3 83 6d 3f e1 a1 42 40 eb 6c 77 c0
       -1.2028712 0.9277927 3.0411303 -3.8660228
000350 d2 7c c8 bf da f6 67 bf 82 77 20 40 f5 f6 ed bf
       -1.5663092 -0.9061104 2.5072942 -1.859099
000360 8e 68 ed 3f 54 9d 53 be d8 bc e8 3f 07 d5 7a c0
       1.8547533 -0.20665485 1.818263 -3.9192522
000370 c9 0e bc 3f f0 69 f6 3f 65 29 b1 3f 4b e0 dd bf
       1.4692012 1.925108 1.3840758 -1.7334074
000380 be 27 a3 3f 8c 38 e3 be 2a 28 37 c0 79 5e b7 3f
       1.2746503 -0.4437908 -2.8618264 1.4325706
000390 39 94 dd 3f 78 ca 8f 3f 5b 04 3e c0 b1 c8 35 40
       1.7310859 1.1233664 -2.9690158 2.8403742
0003a0 3e f2 e7 be c8 0a b9 3e 0c a0 14 40 1d a6 11 40
       -0.45302004 0.36141038 2.3222685 2.2757638
0003b0 5b 94 4e c0 16 85 c6 3e 6f 4b 0e 40 81 18 16 40
       -3.227805 0.38773412 2.223354 2.3452456
0003c0 4e 03 d9 bf 2b ad c3 c0 56 7a e3 3f da 7c 77 3e
       -1.6954134 -6.1148887 1.7771709 0.24168721
0003d0 3c 0b 33 c0 c8 b9 0b c0 f7 86 d4 be 10 4d f4 bf
       -2.7975607 -2.1832142 -0.4150922 -1.9086018
0003e0 06 98 2d 3f 74 fc 53 3e d1 cf 88 c0 82 74 a2 bf
       0.67810094 0.20701772 -4.275368 -1.2691805
0003f0 58 a2 03 40 a7 a2 48 3f 1e 30 80 3f 85 12 42 40
       2.0567837 0.7837319 1.0014684 3.0323803

TextModel.3.bias f4 [64]
000000 1c 5b 0a c0 85 dc 0c c0 e7 40 b8 40 32 49 01 c0
       -2.1618109 -2.2009594 5.7579226 -2.0200925
000010 e2 cf eb bf 2c d9 dd 40 fa a1 21 41 69 94 17 40
       -1.8422816 6.9327602 10.102045 2.3684332
000020 a0 34 1e c0 b0 30 51 40 2c 52 99 be a9 a0 03 c0
       -2.471962 3.2685966 -0.29945505 -2.056681
000030 bc 71 70 40 87 46 9c bf 12 6e 3f c0 5d 3c c0 be
       3.7569418 -1.2209023 -2.9910932 -0.37546054
000040 70 23 86 41 6c 53 2c c0 62 6a 97 40 2b db 69 c0
       16.767303 -2.6925917 4.731736 -3.654002
000050 a0 00 d8 bf 47 77 e4 bf 85 80 99 bf e8 d3 d4 40
       -1.6875191 -1.78489 -1.1992346 6.6508675
000060 fd a3 de 3f e5 29 a0 41 6c 2f 12 c0 fd 11 1a 40
       1.7393795 20.020456 -2.2841444 2.407348
000070 e0 55 fd 3f f7 25 3e c0 a5 71 5f c0 aa 59 20 c0
       1.9791832 -2.9710672 -3.4913113 -2.5054727
000080 31 4b a4 bf 56 0d 22 c0 2b 05 48 40 f3 65 90 bd
       -1.2835447 -2.532064 3.1253154 -0.07050695
000090 f4 37 e0 40 70 e9 bd 40 87 fe 84 c0 7c 5c ea bf
       7.00683 5.934746 -4.15607 -1.8309474
0000a0 9b ba d4 c0 4a 4e 38 c0 c5 e7 bd 3f ba 3e 37 c0
       -6.647779 -2.8797784 1.4836355 -2.8632035
0000b0 0a 6c 23 40 86 dc de bf ca a1 32 3d 29 85 7d 3e
       2.5534692 -1.7411048 0.043611325 0.24757828
0000c0 da bc 85 41 da be 29 c0 d8 c3 9a c0 59 cf 82 c0
       16.717213 -2.6522737 -4.8364067 -4.087811
0000d0 cf 8d 10 c0 c9 a8 2a c0 30 b1 9e bf ef 37 95 c0
       -2.2586553 -2.6665518 -1.2397823 -4.663078
0000e0 17 76 9c c0 6d db 5e c0 eb 4f 30 c0 6c a6 f4 bf
       -4.8894153 -3.4821427 -2.7548778 -1.9113288
0000f0 b2 42 1d c0 df 2d 6d c0 b6 1f 08 c0 19 d2 5f c0
       -2.4571958 -3.7059247 -2.1269355 -3.4971983

TextModel.5.weight f4 [64]
000000 38 af e5 3e a4 3c e9 3f bc ad e9 3f f2 32 1b 3b
       0.44860244 1.8221631 1.8256145 0.0023681489
000010 39 9d 1f 40 4c 7a 10 40 14 a9 4a 40 db 81 b9 3f
       2.493971 2.2574644 3.1665697 1.4492754
000020 0f d8 2b 40 4f dc 90 3f 07 2e 21 40 bb a7 03 40
       2.6850622 1.1317233 2.5184343 2.0571125
000030 c6 24 6b bf a2 3b fe 3e 80 4e ec bf d9 22 2a 3d
       -0.91852987 0.4965487 -1.8461456 0.04153714
000040 a1 95 ce 3e 09 2f 1a c0 9b 22 82 3f 5a 55 98 3f
       0.40348533 -2.4091208 1.0166811 1.1901047
000050 7e 62 0d 40 27 78 51 3f 88 14 1f 40 da d7 7e 3f
       2.2091365 0.8182396 2.4856281 0.99548113
000060 78 20 9c bc f9 5d 03 40 12 1d 9d 3f a3 a4 07 40
       -0.019058451 2.0526106 1.2274497 2.1194236
000070 2f bf a3 3f 59 6a 29 40 d6 f2 29 3e f3 e9 e1 3f
       1.279272 2.647116 0.16596541 1.7649521
000080 a4 f0 78 3f 81 8d 14 40 01 b3 db 3f dc 15 f8 3f
       0.9724219 2.3211367 1.7164003 1.9381671
000090 0b 60 01 40 fe e0 10 40 eb e1 c9 3f 24 5a 1c 40
       2.021487 2.2637324 1.577207 2.4430017
0000a0 70 a6 ec 3f 74 a4 a2 3f a2 5b 5a 40 23 03 5b 3f
       1.8488293 1.2706437 3.4118428 0.8555166
0000b0 2e 93 dd 3f 53 30 03 40 ae 67 26 3f fb 06 24 40
       1.7310541 2.0498245 0.6500195 2.562926
0000c0 19 25 9f 3f fa 80 bc 3f 5b 01 83 3d 38 84 de 3f
       1.2433196 1.472686 0.06396743 1.73841
0000d0 87 ba f1 3f b5 a6 c8 3f 6d b7 d9 3f 7a 1f 0c 40
       1.8885049 1.5675875 1.7009102 2.1894212
0000e0 e0 10 bd 3f b9 4a 22 3f 81 6f 28 40 55 38 33 40
       1.4770775 0.6339527 2.6318057 2.8003132
0000f0 a4 53 82 3e a3 9e 03 40 f4 0e dd 3f 82 3e 28 40
       0.25454438 2.0565574 1.7270188 2.6288152

TextModel.5.bias f4 [64]
000000 50 3c 5c bf 28 05 0e c1 4d 88 85 3f 7e 2f bf c0
       -0.8602953 -8.876259 1.0432221 -5.9745474
000010 77 14 08 c1 4d bc 18 40 2f f4 04 c0 c6 86 a8 3f
       -8.504996 2.386493 -2.0774038 1.316613
000020 01 f3 5d 3f 98 91 21 bf df 99 01 c1 de 32 e7 39
       0.8669892 -0.63112783 -8.100066 0.00044097652
000030 77 a5 13 c1 26 4e 13 41 16 6c 0d c1 d1 92 f5 bf
       -9.227897 9.206579 -8.838888 -1.918543
000040 2f 73 fa c0 a2 4e db 40 fe f3 76 3e 67 e9 89 c0
       -7.8265605 6.8533487 0.24116513 -4.3097415
000050 d5 bc 06 c1 df f9 16 c0 ce 9c 1d 40 e7 f2 0b c1
       -8.421102 -2.359001 2.4626956 -8.746802
000060 c4 ab 64 40 9c bc fe c0 5d cb 05 c1 4f 3b ae 3f
       3.5729837 -7.9605236 -8.362149 1.361185
000070 ef 13 26 c0 f1 62 12 c1 e0 b3 1c c0 f4 ad 29 c0
       -2.5949667 -9.149156 -2.4484787 -2.6512423
000080 59 1d 9e bf 4b a7 2a 3f 95 91 bf 3f 14 d9 a9 bd
       -1.2352706 0.6666152 1.4966303 -0.082933575
000090 8b 26 d2 c0 64 8b d8 3f 59 e4 4f be e8 d5 9d be
       -6.567205 1.6917539 -0.20301951 -0.3082726
0000a0 de 57 3d 40 8e 5a 87 c0 18 09 81 3f e1 05 13 c0
       2.958488 -4.229804 1.00809 -2.2972338
0000b0 d0 dd d8 3f fb f1 0d c1 c5 85 ee be 4f 9a 0e bf
       1.6942692 -8.871577 -0.46586433 -0.55704206
0000c0 64 1b 14 c1 dc 70 2b c0 23 63 11 c1 fa 28 10 c1
       -9.256687 -2.6787634 -9.086703 -9.010004
0000d0 6c 5b ce 3e 59 9f 28 be e8 c4 68 40 8e 74 09 c1
       0.40304124 -0.16467036 3.6370182 -8.590956
0000e0 23 65 1c c0 6e 13 1a c0 84 f7 0a c1 b5 3c a7 3f
       -2.443673 -2.407436 -8.685429 1.3065401
0000f0 91 ba 03 c1 a7 ad f6 40 ba 5f c6 bf 41 e6 4d 40
       -8.233048 7.708698 -1.5497963 3.2171786

TextModel.5.running_mean f4 [64]
000000 dc 74 09 40 cc cf a0 40 e6 16 9c 42 96 55 0b 41
       2.1477575 5.025366 78.04472 8.708395
000010 fa ed 9d 40 99 38 c3 41 f8 03 1a 42 d5 91 75 42
       4.9353 24.402636 38.503876 61.392414
000020 99 f4 19 42 f7 9d 8f 42 a3 89 2a 41 e5 9a 75 40
       38.488865 71.808525 10.658603 3.837579
000030 4c 88 ee 41 64 32 72 41 34 2a c6 3f 9d 85 08 41
       29.816551 15.137302 1.5481629 8.53262
000040 ba 1e 4b 42 98 66 43 40 c1 38 81 42 7e 2b 9d 3e
       50.780006 3.0531368 64.61085 0.30697244
000050 44 e4 85 40 25 fb d0 3f d1 91 9c 41 e7 93 39 41
       4.1841145 1.6326643 19.5712 11.598609
000060 6a 94 04 41 48 d3 95 42 af e2 15 41 22 b0 5d 42
       8.286234 74.91266 9.367843 55.422005
000070 fa ac 87 41 fd a7 5e 40 f4 7f 88 26 e8 96 0b 40
       16.959461 3.4790032 9.471577e-16 2.1810856
000080 e8 1e 19 40 a8 b9 7f 40 86 f6 91 42 d9 0d f0 40
       2.3925114 3.9957066 72.98149 7.5016904
000090 e1 99 5a 41 e8 4b a1 42 91 0f a8 3f a9 13 a2 3f
       13.662568 80.648254 1.312975 1.266225
0000a0 06 ca 93 41 fd 37 94 40 2e be 85 42 1c f1 39 3f
       18.473644 4.6318345 66.871445 0.7263353
0000b0 ca ab 1f 42 e3 47 fc 40 81 53 e8 40 b0 a8 1e 41
       39.917763 7.883775 7.2601933 9.916183
0000c0 f7 4a 77 42 f8 85 a3 40 4b 4b 85 3d 8f b5 24 40
       61.823208 5.1101036 0.065085016 2.5735815
0000d0 c6 cb 7f 40 c7 ee 1f 40 06 4c 01 41 55 28 0a 40
       3.9968123 2.4989488 8.08106 2.1587117
0000e0 83 57 dd 3e e2 a0 27 40 c6 4f 88 40 42 9d b2 41
       0.4323083 2.6191945 4.259738 22.326786
0000f0 04 00 00 00 d6 c0 28 3f 1b 66 8f 40 a7 18 8f 40
       6e-45 0.65919244 4.481214 4.4717593

TextModel.5.running_var f4 [64]
000000 4f b4 8d 42 03 ed 90 43 f4 e6 03 44 7e 3f 0b 44
       70.852165 289.85165 527.60864 556.99207
000010 d4 9f 83 43 2b 95 50 43 d5 79 67 44 da 7e 32 44
       263.24866 208.58269 925.9036 713.98206
000020 be 76 63 44 bc f7 22 44 cd 82 23 44 9c 3d e0 42
       909.85535 651.87085 654.04376 112.12033
000030 64 e6 2c 44 82 82 95 43 37 35 19 42 c6 3a c0 43
       691.59985 299.0196 38.301968 384.45917
000040 84 2d 53 43 55 ab 12 43 5b 3d fd 43 fa 6f fd 40
       211.1778 146.66927 506.47934 7.919919
000050 40 54 5e 43 18 78 89 42 96 7e 5d 43 e9 16 b9 43
       222.3291 68.73456 221.49448 370.179
000060 0d 6c 75 43 72 89 d9 43 0d 80 47 43 20 69 50 44
       245.42207 435.0738 199.5002 833.6426
000070 64 88 42 44 76 cd 3e 43 12 6b 11 26 59 a1 c5 42
       778.1311 190.80258 5.045209e-16 98.81513
000080 60 de b9 42 32 05 42 43 57 e0 15 44 5e 76 9d 43
       92.934326 194.0203 599.5053 314.92474
000090 fa b5 b7 43 f4 47 15 44 47 9a 55 42 69 03 06 42
       367.4217 597.12427 53.40066 33.50333
0000a0 3c 8d 54 43 26 9f 45 43 9e e6 2c 44 93 77 48 41
       212.5517 197.62167 691.6034 12.529193
0000b0 72 16 2c 44 b8 10 e8 43 a1 16 f6 42 fb fe b1 43
       688.3507 464.1306 123.0442 355.99203
0000c0 73 70 73 43 3d 06 2c 43 fd 81 65 3f 12 19 dd 42
       243.43925 172.02437 0.8965147 110.548965
0000d0 8c e8 3e 43 1b 55 b9 42 6a 8b 83 43 c9 dd ad 42
       190.90839 92.66622 263.08917 86.933174
0000e0 f9 78 3a 41 fa d5 a6 42 91 1c 79 43 b3 de ca 43
       11.654534 83.41792 249.11159 405.73984
0000f0 04 00 00 00 c6 d8 ab 41 42 25 36 43 66 6d 15 43
       6e-45 21.480846 182.14554 149.42734

TextModel.6.weight f4 [32, 64]
000000 b9 ad c6 bb 37 2d ad bf 7d 1a cd bf 66 34 aa bd
       -0.00606319 -1.3529423 -1.6023709 -0.083107755
000010 cc 37 03 c0 04 2a 19 c0 31 25 36 40 57 1c c3 bf
       -2.0502806 -2.3931894 2.84602 -1.5243024
000020 1f 2e 25 c0 8e 09 7e bf 22 75 fb bf 4b 16 de 3f
       -2.58094 -0.9923333 -1.9645121 1.7350553
000030 5d 2b 13 c0 c5 dd 0e 40 a8 0b e3 bf 7d e2 79 3d
       -2.2995217 2.2322857 -1.7737932 0.06100701
000040 33 85 f2 bf 4f 29 f7 3f 77 69 29 bf e1 b1 b3 3f
       -1.8946899 1.9309481 -0.6617655 1.4038659
000050 6a c9 35 c0 05 68 7a 3f 96 90 34 c0 3a 85 18 c0
       -2.8404183 0.9781497 -2.8213248 -2.3831315
000060 5b 0d f0 3d 05 db e7 bf 5b c0 af bf 52 30 11 c0
       0.11721297 -1.8113714 -1.3730577 -2.2685742
000070 2b e6 ab 3f bb e5 2d c0 72 c6 15 bf 8d e0 91 3f
       1.3429617 -2.7171466 -0.5850593 1.1396652
000080 f2 e2 91 3f 31 d3 30 40 3e 7a db bf 02 50 0a 40
       1.1397383 2.76289 -1.714668 2.1611333
000090 a4 fd cf bf 3f be 09 c0 36 af 84 3f 50 ca 23 c0
       -1.624928 -2.1522367 1.036597 -2.5592232
0000a0 68 65 d3 bf c9 c8 cc 3f db b4 4f c0 8a f4 89 3f
       -1.6515322 1.5998775 -3.2454135 1.0777752
0000b0 ea 9a bc bf 53 f2 0c c0 26 b7 47 bf 58 24 2a 40
       -1.4734776 -2.2022903 -0.7801384 2.6584682
0000c0 8d 14 3d c0 a6 21 f0 3f 5a fa d8 bf 78 09 0c c0
       -2.9543793 1.8760269 -1.6951401 -2.188078
0000d0 62 6b b0 3f 38 9e b8 3f 40 a1 45 bf 53 ce 1a c0
       1.3782771 1.4423285 -0.7719917 -2.418843
0000e0 15 41 e0 3f 05 d4 36 3f 26 8d 10 c0 e5 10 37 40
       1.7519861 0.71417266 -2.258615 2.8604062
0000f0 23 34 1d c0 16 c2 a8 3f 48 52 99 3f 85 e9 9e 3f
       -2.4563072 1.318423 1.1978235 1.2415015
000100 18 8c 42 3e 84 9e 81 bf 0b 68 f2 bf 3b 74 f0 3d
       0.18998754 -1.01265 -1.8938001 0.11740919
000110 6a f4 f4 bf 22 e0 16 c0 e5 6e 4d 40 f9 e6 e0 bf
       -1.9137089 -2.35743 3.2098935 -1.7570487
000120 b9 1b 30 c0 f6 43 9d bf 14 f5 de bf 66 59 ea 3f
       -2.751692 -1.2286365 -1.7418542 1.8308532
000130 3a cc 11 c0 21 cc fd 3f 2f ee dc bf be 49 94 3e
       -2.27809 1.982792 -1.7260188 0.2896251
000140 90 eb e4 bf df 9f cf 3f cc 96 72 bf 4a d3 a6 3f
       -1.7884388 1.6220664 -0.9476135 1.303323
000150 6a 87 29 c0 06 41 93 3f 46 ef 44 c0 7b 4c 1c c0
       -2.64889 1.1504219 -3.077104 -2.442168
000160 53 c0 7a be c8 30 e2 bf 5c 19 ad bf 85 6a 17 c0
       -0.24487428 -1.7671137 -1.3523364 -2.3658764
000170 e1 81 e8 3f 14 58 14 c0 0f 21 da be c1 98 90 3f
       1.8164636 -2.3178759 -0.42603347 1.1296617
000180 cc 56 a1 3f 9c d8 0c 40 92 96 f7 bf 01 07 0d 40
       1.2604613 2.2007208 -1.9342825 2.2035525
000190 77 35 c8 bf bb 40 19 c0 cf bd 8c 3f 09 79 2a c0
       -1.5641316 -2.3945758 1.0995425 -2.6636374
0001a0 03 46 fe bf 1a 06 d0 3f 15 73 63 c0 8e e0 96 3f
       -1.9865116 1.6251862 -3.553899 1.1787279
0001b0 fb 70 d1 bf 54 e2 f7 bf 5f 58 76 bf 57 9d 3e 40
       -1.6362604 -1.9365945 -0.96228594 2.9783533
0001c0 91 3f 33 c0 b3 53 e7 3f a1 1c ed bf bb b4 f5 bf
       -2.8007548 1.8072418 -1.8524362 -1.919578
0001d0 9d 4e ab 3f 4e 39 a6 3f 0d c5 5a bf b3 04 04 c0
       1.3383366 1.2986238 -0.85456926 -2.0627868
0001e0 6a 48 da 3f 53 41 60 3f 67 63 f7 bf 43 57 3e 40
       1.7053349 0.87599677 -1.932721 2.974076
0001f0 94 71 0b c0 8a ea 8d 3f fa 58 88 3f 92 31 89 3f
       -2.1788073 1.1087201 1.0652153 1.0718253
000200 43 9c a7 bd e1 1c b1 bf 6c e5 c8 bf 84 51 ce bd
       -0.081841014 -1.3836938 -1.5695014 -0.100741416
000210 61 1f 04 c0 b4 40 17 c0 3b 4f 33 40 da 52 c2 bf
       -2.0644152 -2.3633242 2.8017108 -1.5181534
000220 91 15 24 c0 e2 9d 70 bf df 55 01 c0 d6 11 e5 3f
       -2.5638163 -0.9399091 -2.0208662 1.7896068
000230 a3 a1 12 c0 32 b4 11 40 90 b4 db bf a4 ef 94 3d
       -2.2911155 2.2766232 -1.7164478 0.0727227
000240 ee 6e fc bf c7 8c 01 40 b9 91 2b bf 09 7f b3 3f
       -1.9721353 2.0242174 -0.6701923 1.4023143
000250 d0 25 3c c0 b5 2b 79 3f 58 ca 32 c0 5f 4f 16 c0
       -2.939808 0.97332317 -2.7936 -2.3485944
000260 93 f1 e6 3d 50 ce f0 bf ee 6f ab bf 66 54 0f c0
       0.112765454 -1.8812962 -1.3393533 -2.2395263
000270 9e f4 a3 3f 63 11 28 c0 e0 fd 0e bf 3a 2f 91 3f
       1.2809026 -2.6260612 -0.5585613 1.1342537
000280 85 89 89 3f df f5 32 40 9b 1b dd bf 39 ea 0b 40
       1.0745093 2.7962568 -1.727405 2.1861708
000290 20 a6 d5 bf 6c 84 09 c0 47 3d 81 3f f9 18 22 c0
       -1.6691322 -2.1487074 1.0096825 -2.5327742
0002a0 ed f4 ce bf c5 35 c9 3f dd ee 4d c0 74 ce 85 3f
       -1.6168495 1.5719534 -3.217704 1.045363
0002b0 b5 96 bd bf fe 13 0b c0 59 91 3a bf 9b 3a 28 40
       -1.4811617 -2.1730952 -0.7287803 2.628577
0002c0 44 ee 37 c0 4f 9c ef 3f e1 42 d3 bf 56 b8 05 c0
       -2.8739176 1.8719577 -1.6504785 -2.089376
0002d0 d9 d3 b0 3f 73 ab b6 3f 0e 6a 3e bf 77 25 1d c0
       1.3814651 1.4271072 -0.74380577 -2.4554117
0002e0 b4 18 e5 3f 43 24 3e 3f b2 68 15 c0 47 a4 37 40
       1.7898164 0.7427408 -2.334515 2.8694017
0002f0 94 ca 11 c0 97 8d af 3f 39 e2 96 3f b2 84 a0 3f
       -2.2779894 1.3715085 1.1787788 1.2540495
000300 d1 47 48 bd 33 ce b3 bf 11 b7 c7 bf e9 f3 c0 bd
       -0.048896614 -1.4047302 -1.5602742 -0.09421522
000310 52 8b 04 c0 b7 83 17 c0 2a 1f 35 40 fa 1c c8 bf
       -2.0710034 -2.3674142 2.830027 -1.5633843
000320 32 b6 24 c0 8b 3b 80 bf c9 59 f9 bf 9a 91 e4 3f
       -2.5736203 -1.0018171 -1.9480525 1.7856934
000330 64 4a 13 c0 00 d4 10 40 57 a6 db bf fc db a4 3d
       -2.3014154 2.2629395 -1.7160138 0.08049771
000340 56 9b fc bf 8a c2 01 40 48 bb 2e bf 00 f2 b4 3f
       -1.9734905 2.0274987 -0.6825452 1.4136353
000350 0b 01 3b c0 27 4d 7e 3f 8e f8 34 c0 43 9e 18 c0
       -2.9219387 0.99336475 -2.8276706 -2.3846595
000360 f6 45 04 3e 44 57 ed bf 85 5b ab bf 39 1b 0f c0
       0.12917313 -1.8542256 -1.3387305 -2.2360365
000370 75 31 a9 3f 16 d9 26 c0 d4 d0 0f bf 30 e3 8f 3f
       1.3218218 -2.6069999 -0.5617802 1.1241207
000380 8c c4 8c 3f 4d 26 30 40 16 9e dc bf 60 2b 0c 40
       1.0997481 2.7523377 -1.7235744 2.1901474
000390 54 5d d7 bf c3 74 0b c0 4d 4a 83 3f 49 c6 23 c0
       -1.6825356 -2.1790016 1.025705 -2.5589774
0003a0 f0 e7 d2 bf 74 a8 ca 3f e9 93 50 c0 fa d9 86 3f
       -1.6477032 1.5832658 -3.2590277 1.0535271
0003b0 dd 1d be bf e1 7b 0d c0 26 12 32 bf 26 0e 2a 40
       -1.4852864 -2.210686 -0.6955894 2.6571136
0003c0 29 2c 3a c0 1a d1 ee 3f 79 d3 da bf 92 79 05 c0
       -2.9089453 1.8657563 -1.7095786 -2.085545
0003d0 4b 27 af 3f f6 d8 b5 3f 16 cc 43 bf c6 2c 19 c0
       1.3683866 1.4206836 -0.76483285 -2.3933578
0003e0 f2 6f e3 3f af a9 3d 3f 23 ea 13 c0 bc 4a 38 40
       1.7768538 0.7408704 -2.3111656 2.8795614
0003f0 84 45 13 c0 db 9a ae 3f 4a 98 97 3f 85 30 9f 3f
       -2.301118 1.3641008 1.184335 1.2436682

TextModel.6.bias f4 [32]
000000 0d 67 54 40 0e d0 44 40 6c fe 53 40 8e 2d 55 40
       3.3187897 3.0751987 3.3124037 3.3309054
000010 bb e5 cc 40 32 58 d2 40 d0 2b c6 40 21 26 3f 40
       6.4030433 6.573266 6.192848 2.9867022
000020 33 2b 47 40 46 6b cb 40 bd 65 cc 40 8b c2 2f 40
       3.1120117 6.356845 6.387419 2.746249
000030 76 fa d0 40 f0 2c 53 40 9a c5 cd 40 76 6a d2 40
       6.530574 3.2996178 6.4303713 6.5754957
000040 a4 98 c9 40 22 62 39 40 f8 e1 d3 40 62 af 4b 40
       6.299883 2.8966146 6.621334 3.1825795
000050 4a 0c 0c 40 ef 89 5d 40 11 88 40 40 5d d2 39 40
       2.18825 3.4615438 3.0083048 2.9034646
000060 4a 6c 52 40 48 23 cd 40 a3 ee d4 40 70 27 2f 40
       3.2878594 6.410557 6.6541305 2.736782
000070 d1 31 52 40 65 12 d2 40 88 76 c7 40 b5 4a d0 40
       3.2842906 6.5647454 6.233219 6.5091195

TextModel.8.weight f4 [32]
000000 2f ef 4a 43 24 a7 4a 43 f1 06 4b 43 04 ff 4a 43
       202.93431 202.6529 203.02711 202.99615
000010 d8 f9 4b 43 fe fd 4b 43 c5 d4 4b 43 85 c3 4a 43
       203.97595 203.99216 203.83113 202.76375
000020 e4 ac 4a 43 86 e7 4b 43 27 c3 4b 43 3c c3 4a 43
       202.67535 203.90439 203.76231 202.76263
000030 0b cb 4b 43 f7 df 4a 43 f1 bc 4b 43 91 e2 4b 43
       203.79314 202.87486 203.73805 203.88503
000040 91 f1 4b 43 1e 98 4a 43 38 fb 4b 43 51 d0 4a 43
       203.94362 202.59421 203.98132 202.81374
000050 ac c4 4a 43 c8 c5 4a 43 d0 b5 4a 43 23 a8 4a 43
       202.76825 202.77258 202.7102 202.65678
000060 34 d4 4a 43 c4 f2 4b 43 87 f7 4b 43 65 c2 4a 43
       202.82892 203.9483 203.9669 202.75935
000070 e5 0f 4b 43 6b f1 4b 43 4c cf 4b 43 0e c8 4b 43
       203.06209 203.94304 203.80975 203.78146

TextModel.8.bias f4 [32]
000000 d9 d2 3d 43 5d c4 3d 43 8c e5 3d 43 c9 ec 3d 43
       189.82362 189.76704 189.89667 189.92494
000010 5c e1 3d c3 a1 ef 3d c3 c0 b8 3d c3 4b b3 3d 43
       -189.88031 -189.93605 -189.72168 189.70036
000020 34 ad 3d 43 14 eb 3d c3 ab 97 3d c3 78 ad 3d 43
       189.67657 -189.91827 -189.59245 189.67761
000030 ef bb 3d c3 1f bc 3d 43 6b 98 3d c3 1e c4 3d c3
       -189.73412 189.73485 -189.59538 -189.76608
000040 91 e6 3d c3 67 9e 3d 43 a9 d9 3d c3 07 a7 3d 43
       -189.90065 189.61876 -189.85023 189.65245
000050 eb ec 3d 43 22 a8 3d 43 1c bb 3d 43 0f be 3d 43
       189.92546 189.65677 189.7309 189.74242
000060 56 b9 3d 43 1a dc 3d c3 83 eb 3d c3 e4 d9 3d 43
       189.72397 -189.85977 -189.91997 189.85114
000070 42 a4 3d 43 92 df 3d c3 af b4 3d c3 ab 99 3d c3
       189.64163 -189.87332 -189.7058 -189.60027

TextModel.8.running_mean f4 [32]
000000 0f 02 9f 43 3f 13 8a 43 21 5c 9f 43 c6 0e 9f 43
       318.01608 276.15036 318.71976 318.11542
000010 61 96 38 44 bc b5 38 44 f5 80 37 44 5d 0c 98 43
       738.3497 738.8396 734.01495 304.0966
000020 d6 13 92 43 0c 6f 38 44 bf 17 37 44 a9 8a 98 43
       292.15497 737.7351 732.37103 305.08328
000030 f5 25 38 44 b2 c1 9d 43 80 4b 37 44 46 18 37 44
       736.5931 315.51324 733.1797 732.3793
000040 f5 43 38 44 e9 c2 8c 43 e6 44 37 44 16 b4 9e 43
       737.0618 281.52274 733.07654 317.40692
000050 7a 99 72 43 3e b8 9e 43 88 4d 91 43 ba 2c 89 43
       242.59952 317.4394 290.6057 274.34943
000060 69 f0 9d 43 7c 8f 37 44 02 9c 37 44 03 0c 86 43
       315.8782 734.24194 734.4376 268.09384
000070 dd 26 aa 43 11 9a 37 44 15 31 38 44 a8 3f 38 44
       340.30362 734.4073 736.7669 736.9946

TextModel.8.running_var f4 [32]
000000 a4 35 c6 44 37 d2 01 45 aa 19 c2 44 d1 d3 c5 44
       1585.6763 2077.1384 1552.802 1582.6193
000010 d7 9a 99 45 90 fc 99 45 1c d4 97 45 25 66 d1 44
       4915.355 4927.5703 4858.5137 1675.192
000020 24 ee ef 44 2e 82 99 45 1c 11 97 45 0f 82 d4 44
       1919.4419 4912.2725 4834.1387 1700.0643
000030 9d d4 98 45 cd 1f c8 44 cc b4 97 45 e3 22 97 45
       4890.5767 1600.9938 4854.5996 4836.361
000040 ae 12 99 45 94 f3 fb 44 63 2a 97 45 b7 ed c4 44
       4898.335 2015.6118 4837.2983 1575.4286
000050 1b ce 18 45 b0 9f c7 44 7c 08 f2 44 eb 69 03 45
       2444.8816 1596.9902 1936.2651 2102.6199
000060 35 e4 c4 44 7f c8 97 45 db ce 97 45 d4 7c 09 45
       1575.1315 4857.062 4857.857 2199.8018
000070 2e fd ad 44 c1 e4 97 45 02 d6 98 45 96 c7 98 45
       1391.9119 4860.594 4890.751 4888.948

TextModel.9.weight f4 [1, 32]
000000 f2 97 47 43 96 93 47 43 fe 88 47 43 b5 86 47 43
       199.59354 199.5765 199.53513 199.5262
000010 29 e2 48 c3 96 da 48 c3 9d 05 49 c3 1d ad 47 43
       -200.88344 -200.85385 -201.02193 199.67622
000020 b6 a5 47 43 f7 e6 48 c3 f1 1d 49 c3 31 ad 47 43
       199.64731 -200.9022 -201.11696 199.67653
000030 40 0a 49 c3 65 a6 47 43 34 20 49 c3 91 fa 48 c3
       -201.04004 199.64998 -201.1258 -200.97878
000040 08 e5 48 c3 53 b0 47 43 64 e4 48 c3 ad ba 47 43
       -200.89465 199.68877 -200.89215 199.7292
000050 81 6b 47 43 71 bb 47 43 e9 99 47 43 0a 96 47 43
       199.41994 199.7322 199.60121 199.58609
000060 fa af 47 43 40 e7 48 c3 31 de 48 c3 51 78 47 43
       199.68741 -200.90332 -200.86794 199.46999
000070 cf d8 47 43 53 e6 48 c3 7f 0b 49 c3 c7 1b 49 c3
       199.84691 -200.8997 -201.0449 -201.1085
